NN/Previous/BasicAgent-Level3.onnx (onnx, 95028 bytes, 7 tensors)

action_model._continuous_distribution.log_sigma f4 [1, 2]
000000 91 05 8e bc 59 31 6b bc
       -0.017336639 -0.014355027

action_model._continuous_distribution.mu.bias f4 [2]
000000 33 74 13 bb ac 8f 0f 3b
       -0.002249968 0.0021905703

action_model._continuous_distribution.mu.weight f4 [2, 128]
000000 3b 4c 97 3c cd 52 27 bc f7 2c 5e 3c af 2a 93 bc
       0.018468967 -0.010212612 0.013560525 -0.017964689
000010 a3 89 00 3c c2 8b 35 bc 00 ab 35 bc 64 2a 80 bb
       0.007845315 -0.011080684 -0.011088133 -0.0039113034
000020 88 2d d4 bb 12 48 e3 ba a0 a4 26 3d f4 08 1e bb
       -0.0064751543 -0.0017340204 0.040684342 -0.0024114223
000030 a5 ff 90 bb 61 18 b3 3b 98 07 28 3c 31 c3 a8 bb
       -0.0044250065 0.0054655527 0.010255717 -0.0051502218
000040 22 e1 13 3c 06 25 79 3a 79 bf 0a 3d 4d 49 d8 bc
       0.009025844 0.0009504113 0.03387401 -0.02640214
000050 3d fe b9 3c 5c 4c 44 bc da d2 66 bd 6a 53 c8 bc
       0.022704238 -0.011981096 -0.056353427 -0.024453837
000060 b2 88 1b 3d 54 2b 5c 3c 5a 65 0b 3d be 17 94 bb
       0.03797216 0.013438065 0.034032203 -0.004519432
000070 ef 2b 8c bb dc c9 01 bc 3e bd 17 3c 30 14 94 ba
       -0.004277698 -0.007921662 0.009261427 -0.001129752
000080 ee de d0 3b 3f dd 9f bc fd 78 51 3c a4 fc a9 3b
       0.0063742315 -0.019514678 0.0127851935 0.005187588
000090 a7 fe b8 3c d0 1b 35 ba bf f2 a2 bb 1c 66 8b 3c
       0.022582365 -0.00069087464 -0.0049727852 0.017016463
0000a0 f8 0c 2c 3b a0 85 63 bc 5c 4a b0 bc 8f 54 8d 3c
       0.0026252847 -0.013886839 -0.021519832 0.017252235
0000b0 a5 f0 aa 3b 40 bc 07 3d 42 e7 7e bb eb 77 f3 3c
       0.0052166753 0.033138514 -0.0038895165 0.029720267
0000c0 18 f5 4c 3c 0c ee 1b bb 66 59 b4 bc 8f 2c ab 3a
       0.012509607 -0.002379301 -0.022015285 0.0013059544
0000d0 40 32 a0 bc 21 b9 76 3c 17 cc 6f bb 8c c8 cb 3c
       -0.019555211 0.015058787 -0.0036590153 0.024875902
0000e0 92 7f 87 3c cb a0 49 3b 41 f6 16 bc ea ba 45 3c
       0.016540322 0.0030766006 -0.009213985 0.01206849
0000f0 d8 26 de 3c b7 4d 74 3c c6 ff 0b 3d 22 ff 08 bc
       0.027118132 0.014911107 0.03417947 -0.00836161
000100 c2 b3 d8 3c 8d ee dd 3a 0a e8 7b 3c ca 21 20 3a
       0.026452903 0.0016932056 0.015375147 0.00061085506
000110 47 ab 98 bc bd 20 61 bb 2e e3 1d bc a6 3b 10 bc
       -0.018636359 -0.003435179 -0.009636683 -0.008803284
000120 86 b5 30 bc 2a f1 ab bc 6f bd ff 3c 2d 6f 0e 3c
       -0.010785466 -0.02098902 0.031218259 0.008693499
000130 72 91 60 3c 71 a1 3a bc cb d1 1d 3d 3f 7c d8 bb
       0.013706552 -0.01139103 0.038530152 -0.006606608
000140 aa 1a 42 3b a5 50 13 3d 8d e9 29 3b 29 35 9d 3c
       0.0029617944 0.03596558 0.002592656 0.019190388
000150 33 9a dc bb f2 c1 2c bc c2 f5 33 3c b6 c6 20 3c
       -0.006732249 -0.010544287 0.010983886 0.009813001
000160 ae 5b 03 3c ff 13 14 3a fa f1 80 bc ee 53 11 bc
       0.008017464 0.00056487316 -0.015740383 -0.008870108
000170 1b c8 4b 3c e0 83 3b 3c b7 f1 2e 3c 95 d1 86 39
       0.012437846 0.011445016 0.0106777465 0.00025714622
000180 e4 b1 a9 bc 49 30 8d 3c 4a 78 b6 bc ad ba aa 3c
       -0.020714708 0.017234938 -0.022274155 0.020840967
000190 52 17 26 3d aa 17 c6 3b 72 ae a6 3c 5e e9 0d 3b
       0.040549584 0.0060453014 0.020346854 0.002165399
0001a0 98 73 25 bd f5 53 e3 ba 2e 70 9b 3c 05 f0 71 3c
       -0.040393442 -0.0017343747 0.01897439 0.014766698
0001b0 6c 74 6c ba 4f 3c a6 3c 69 df 2f bc 5c 41 66 bc
       -0.0009020034 0.02029243 -0.0107344175 -0.014053669
0001c0 49 f6 2e bc b3 e3 87 3a 20 b0 26 bc af 40 90 3c
       -0.010678836 0.0010367542 -0.010173827 0.017608969
0001d0 7b 0b bf 3c 3b 5b be bc fd b8 40 3d cc c2 ef bc
       0.023320904 -0.023236861 0.04705142 -0.029267691
0001e0 29 d9 f3 bb 40 ac b4 bc eb 21 79 bc ab 0a dd bb
       -0.007441659 -0.022054791 -0.015205841 -0.0067456565
0001f0 cb cf 19 3b d8 2e 8a 3c 9b e7 20 3c 60 69 3c 3c
       0.0023469802 0.01686804 0.009820844 0.011499733
000200 67 5c 21 3c d8 75 56 3c 60 45 92 bb 66 c3 9c bc
       0.009848691 0.01308962 -0.0044638366 -0.019136142
000210 0f 64 27 bc 4f 64 18 3c 00 e8 e1 3c 30 e8 91 3b
       -0.010216727 0.009301259 0.027576447 0.0044527277
000220 8f 85 70 3c 9a a2 d4 3b e4 98 9e bb 2c 1f a9 3c
       0.01468028 0.00648911 -0.0048400033 0.020644747
000230 21 84 1e bc 3c a0 9d 3c 6b b0 bb bc ae 11 92 bc
       -0.009675057 0.019241445 -0.022911271 -0.017830696
000240 c6 b5 df bc 1f 1e 13 bc c7 ee 22 bd d1 21 90 bc
       -0.027308356 -0.008979349 -0.039778497 -0.01759425
000250 0b 20 a3 3b d7 7f bd bc 28 8f 52 3c 3c 22 e0 3b
       0.004978185 -0.023132248 0.012851514 0.0068400186
000260 cb da f7 bc b1 d1 d5 3b 79 d1 b0 3c c4 7e 52 bc
       -0.030255696 0.0065252413 0.02158426 -0.012847606
000270 71 c9 1c 3b 3b 23 c8 3c ee f4 9c 3b fa 68 88 3a
       0.002392378 0.024430862 0.00478994 0.0010407262
000280 ac 7a 18 bd a0 61 71 3c a1 72 6d bc cf cb 63 bb
       -0.037226364 0.014732748 -0.014492662 -0.003475893
000290 73 88 94 3c 99 da a5 39 1d f1 23 bc d4 a8 2c bc
       0.01813147 0.0003163412 -0.010006216 -0.010538299
0002a0 36 dd f2 3a 8e b0 f4 3b 71 f8 da 3c 42 6d e5 3c
       0.0018529061 0.007467336 0.026729794 0.0280062
0002b0 5f 4a ad bb f4 e8 40 3c a1 cb b5 bb cc 12 aa 3c
       -0.0052884067 0.01177429 -0.005547956 0.020760916
0002c0 18 0c 3f ba ba ae 8d bb b3 c7 0f bc 41 9e 3d bd
       -0.0007287874 -0.0043238075 -0.008775639 -0.0462935
0002d0 1f f0 1c 3d e4 9d f1 bc c9 a7 ea bb dc a6 57 bc
       0.038314935 -0.029494233 -0.007161115 -0.013162341
0002e0 ae 64 f8 bb 0c b7 02 3c 7b 60 80 bc e7 13 1d 3b
       -0.0075803613 0.007978212 -0.015671005 0.0023968162
0002f0 90 d0 61 bc 0e db b6 bc 37 38 e0 3c 26 2d d4 3c
       -0.013782635 -0.02232125 0.027370555 0.025900435
000300 d8 5c 69 3a b4 b2 3b bc f9 a4 37 bc 99 2e f1 bb
       0.00089020794 -0.01145618 -0.011208766 -0.007360291
000310 41 19 39 bc 47 d4 29 bc 76 6a 39 bd 22 6e 05 3c
       -0.011297525 -0.010365552 -0.045267545 0.0081439335
000320 45 a0 5d bc 64 47 bd 3c 09 e8 0e bc ae 67 d9 bc
       -0.013526981 0.02310533 -0.008722314 -0.026538696
000330 5c 5a 68 bc e3 67 6d 3c b9 a4 4a 3c 20 59 07 ba
       -0.0141817 0.014490101 0.0123683745 -0.0005163122
000340 7c 3d 8d 3b 10 6b 16 bc dc 0f 89 bb f5 c9 f5 3b
       0.004310308 -0.009180799 -0.004182799 0.007500882
000350 d8 b2 0e bd 7b 51 87 3c a8 9d 56 3c 48 35 8b bc
       -0.034838527 0.016518345 0.013099112 -0.01699318
000360 f7 08 67 bc e0 78 00 3c d8 2b 9f 3b ab a4 90 bb
       -0.0141012585 0.007841319 0.0048575215 -0.004414161
000370 65 39 95 3c 62 94 0c bc d3 09 64 3b 02 98 77 3c
       0.018215844 -0.008580299 0.0034795895 0.015111925
000380 c7 a6 bf bb d4 57 05 bd 97 81 a3 bc cc 4b 6d bc
       -0.005848739 -0.032554463 -0.019959254 -0.014483403
000390 c1 72 33 bd 47 0e 0a bc 29 74 0a bd 0c 4a 28 3d
       -0.04381061 -0.008426256 -0.033802185 0.04108624
0003a0 ee 58 2f 3d 15 53 82 3c 9b 16 78 3b 08 97 18 bc
       0.04280942 0.015908757 0.003785527 -0.009313352
0003b0 af 3e 1d b9 74 45 d8 bc 7b 60 ba bc 05 f6 4d 3c
       -0.00014996038 -0.026400305 -0.022751084 0.012570863
0003c0 e7 9a b8 3b 4d 7c b0 bc 3c b3 a1 bc c8 2c e8 3b
       0.0056337 -0.021543646 -0.019738786 0.0070854165
0003d0 e5 99 a1 3a 2e 8a 5c 3c 61 c4 cd bb 10 a6 f1 bc
       0.0012329189 0.013460679 -0.0062795137 -0.02949813
0003e0 1d d3 da bb 9f 16 07 bd ac 75 4b 3c 7e 6e eb bb
       -0.0066779987 -0.032980558 0.012418192 -0.0071848026
0003f0 63 0d 5d bc 30 68 ad bb 55 0b d3 bb 0d 28 83 3c
       -0.013491961 -0.005291961 -0.00644056 0.016010309

network_body._body_endoder.seq_layers.0.bias f4 [128]
000000 88 d7 05 3c 20 ad 9d 3b 45 13 79 bb bc e2 0d ba
       0.008169062 0.004811898 -0.003800587 -0.0005412509
000010 05 b0 5c ba 03 5a 05 bb 58 be 0e bc 91 86 c0 bb
       -0.0008418563 -0.002034784 -0.008712374 -0.0058754166
000020 14 66 71 3b d1 cf 2e bb f0 99 06 39 f8 79 5a 3b
       0.0036834525 -0.0026674161 0.00012836582 0.003333686
000030 ad 9d af 39 c2 7d 0f bb b9 77 0d 3c 1f ab bc 3b
       0.0003349608 -0.0021895026 0.008634501 0.005757704
000040 7e 0b 6f ba f8 ae 7c 3b 0c 9d 14 3b bf 66 68 bb
       -0.0009118839 0.0038556438 0.0022676615 -0.0035461632
000050 cb f4 1a 3a 4b b2 38 bb 88 46 22 3a 40 0c 9a 3a
       0.0005911111 -0.0028182443 0.00061903195 0.0011752918
000060 e4 1c 8c bb 94 84 55 ba fe 02 42 bb eb 63 cd b9
       -0.004275905 -0.0008145061 -0.0029603834 -0.00039175092
000070 c9 b3 58 3b 9e e2 34 3b 80 24 22 bc ef 66 3e 3b
       0.0033066145 0.0027600895 -0.009896398 0.0029053052
000080 ee a8 46 ba 3c 63 ff ba d6 be b5 3a 29 79 95 39
       -0.0007578273 -0.001948453 0.0013866078 0.00028509766
000090 9d 53 14 ba 6a 07 97 3b b6 00 18 ba dc 45 8b bb
       -0.00056582113 0.004609038 -0.0005798446 -0.0042502712
0000a0 86 9e 0f bb 4f 7b 10 ba 36 f2 9f 3b bc d4 09 ba
       -0.0021914556 -0.00055115385 0.0048811687 -0.0005257835
0000b0 fe 19 d7 3a ba fc 71 3b 27 b6 ce bb 3c 1d ca ba
       0.0016410945 0.0036924318 -0.0063083353 -0.001542009
0000c0 56 a8 8e 3b 11 d3 96 3a 1f 5d 60 3b 33 1e 80 bb
       0.0043535633 0.0011506994 0.0034235192 -0.00390985
0000d0 cf d7 60 bb d6 cf c1 3a 32 1d 36 ba 03 5b 8b bb
       -0.003430832 0.0014786671 -0.00069470995 -0.004252793
0000e0 a1 a0 f1 3b 74 13 a5 3b a8 f0 30 3b 5f e4 6e bb
       0.007373885 0.0050377194 0.002699891 -0.0036452038
0000f0 4f 6f bc ba 53 4b 78 bb 12 06 34 bb 98 28 9b 3a
       -0.0014376434 -0.0037886694 -0.0027469439 0.0011837659
000100 af 6e f9 3a 4c ff 1b 3b 00 10 16 bb 39 3c b4 ba
       0.0019030179 0.0023803292 -0.002289772 -0.0013750858
000110 0c ce 59 3b e0 ba 4a 3b 60 4d 84 bb 13 56 87 bb
       0.0033234386 0.003093414 -0.004037544 -0.004130134
000120 8d 81 c2 b9 36 ab f0 39 4c 38 40 ba fd 63 8e ba
       -0.00037099086 0.0004590393 -0.00073326076 -0.0010863539
000130 f5 0a 85 39 cb 6e b6 3a 3b 50 36 bb 77 51 23 3c
       0.000253759 0.0013918517 -0.0027818817 0.009968153
000140 f2 40 96 3a 7d da 0b bc 17 62 e6 ba 44 03 71 3a
       0.0011463447 -0.008535978 -0.001757684 0.0009193907
000150 e3 c8 74 3b fb b5 10 bb 0b 53 34 3b 4c 18 d7 ba
       0.0037351183 -0.0022081125 0.0027515318 -0.0016410439
000160 53 28 de b9 cf f6 9c ba ce 41 72 3a 6e d8 e9 ba
       -0.00042373184 -0.001197541 0.0009241373 -0.001784099
000170 f0 e3 0d 3b 05 a5 14 b7 2f f1 0e 3b 61 32 41 bb
       0.0021650754 -8.859909e-06 0.0021811237 -0.002947949
000180 4b 4a 45 bb 3c 8d e9 b9 5b 0b 87 ba 38 55 a8 ba
       -0.0030104097 -0.0004454645 -0.0010303067 -0.001284278
000190 70 35 a9 39 4e b9 16 3b 8e 6b b2 b9 9f a3 b0 b9
       0.00032274006 0.0022998634 -0.0003403094 -0.00033691243
0001a0 5f ff 94 ba 39 fa 9f ba a5 3b cc bb c6 f4 4c 3a
       -0.001136761 -0.001220531 -0.006232696 0.00078184565
0001b0 86 13 08 bb 86 23 ec ba 7d 59 ff bb 5e 0a 0f 3a
       -0.002076359 -0.0018015958 -0.0077926503 0.0005456562
0001c0 4c be 5d bb e3 a4 ae 39 f0 db 47 bb 44 2e ad 3a
       -0.003383535 0.00033310716 -0.0030496083 0.0013212641
0001d0 1d 44 1e 3a 91 38 64 bb 31 86 c2 ba cd 56 e3 bb
       0.00060373713 -0.0034823755 -0.0014841018 -0.0069378377
0001e0 70 8b a1 bb 45 ff 12 3b c0 0d 75 3b 1d 5a cc 39
       -0.0049299523 0.0022429985 0.003739223 0.00038977052
0001f0 fe 3c 15 bc 21 17 0f 3c ee c5 6a bb c0 c6 dd bb
       -0.00910878 0.008733542 -0.0035823542 -0.0067680776

network_body._body_endoder.seq_layers.0.weight f4 [128, 50]
000000 1f 9d 10 3d 1b ed 00 be aa 9e 52 bd ca 3d 1d 3e
       0.035306092 -0.12590449 -0.051420845 0.15355602
000010 19 83 69 bd 12 7f 5e bd 73 07 36 be 3d 85 66 3e
       -0.05700979 -0.054320402 -0.17776279 0.22511764
000020 d7 35 04 3e d0 90 98 3e b3 f0 ae 3d ee 4b 84 3e
       0.12911163 0.29797983 0.085420035 0.2583918
000030 c2 9c 6f 3e d5 13 82 3e 87 c9 ec 3d a8 64 d4 bd
       0.23399642 0.25405756 0.11561876 -0.10370761
000040 90 cc bf 3d 4f 13 ba 3b 3c 88 3b be 4b 95 d1 3d
       0.09365189 0.0056785713 -0.18313688 0.102335535
000050 cd 54 1c 3e 55 48 41 3e ef 1c 09 3e f8 90 92 3e
       0.15266724 0.18875249 0.13389944 0.28626227
000060 d6 20 8b 3d 74 ff 75 bd 84 4e 7a be 48 82 22 3e
       0.06793372 -0.060058072 -0.24444014 0.15870011
000070 b2 c0 a0 3d 7d 62 d8 bd b5 f9 10 be bd af 8a bc
       0.07849254 -0.1056566 -0.14157756 -0.016929502
000080 c3 fe 76 3d 03 af 7f be 5e c2 25 bd 54 7d c9 bc
       0.060301553 -0.24969105 -0.040468566 -0.024595894
000090 d0 31 a7 3d 86 c4 ad 3d 23 bb e1 3e 71 fa 28 3e
       0.08163798 0.084847495 0.44088086 0.16501786
0000a0 19 24 f0 bd 13 0e 16 3e 65 bb 96 3d 2a a0 28 bd
       -0.11725635 0.14653806 0.073599614 -0.04116837
0000b0 dd 05 84 3d ca ef cc 3d 22 41 81 3d f0 b4 52 3e
       0.06446431 0.10006674 0.06311251 0.20576835
0000c0 e5 7c 4c bd f0 87 59 3e 31 43 7e bd 8c 5c 7b be
       -0.049923796 0.21243262 -0.062075797 -0.24547023
0000d0 1d f9 66 be b8 dc 2a 3e c9 be 90 be 13 06 4e be
       -0.22555967 0.1668576 -0.28270558 -0.20119505
0000e0 04 3e c7 3d 07 f9 5c 3e c0 2e 01 3e 8c b9 5c 3e
       0.097286254 0.21579371 0.1261549 0.21555156
0000f0 42 74 e4 3d c1 69 14 be 12 dd 43 3d b0 b0 e7 3c
       0.11154987 -0.14493467 0.04781825 0.028282493
000100 2f a0 75 3e 3e 5f 6f bd 7c 0c ad 3d 8b 4e db bd
       0.23986886 -0.05844044 0.08449647 -0.1070834
000110 1c d2 a7 3d ec a9 27 3d e8 c0 fa bd ba 7e 33 3d
       0.08194372 0.040933535 -0.12243825 0.043822028
000120 6f a9 e7 bd bc f5 7e 3e d5 1d 68 3d 54 80 94 3d
       -0.11311614 0.24898428 0.056669075 0.07251039
000130 c0 11 61 bd c0 5e 8f bd ce e2 fd 3d 50 d6 87 3d
       -0.05494857 -0.07000494 0.12396775 0.06632674
000140 83 a1 84 3d 6f 97 55 bd 39 5b 97 bd 30 f6 f8 3d
       0.064761184 -0.05214637 -0.07390446 0.121563315
000150 a7 af fa 3d 92 8b 8d bb cf f5 03 be a1 a4 71 be
       0.12240534 -0.0043196166 -0.12886737 -0.23597957
000160 76 b2 1a be 45 82 15 be 03 e4 16 be 14 67 13 bd
       -0.1510714 -0.14600475 -0.14735417 -0.035986975
000170 0d 56 09 be 35 3d fa 3c c4 8b 43 3e b1 d3 83 3d
       -0.13411732 0.030546764 0.19096285 0.06436861
000180 46 ed 62 3e 28 62 e8 3b f5 16 1d be 37 b2 7d 3d
       0.22160825 0.0070917793 -0.15340789 0.061937537
000190 cf a2 32 be 11 c9 0b 3e 37 eb c6 bd ad 2a 02 3e
       -0.17444919 0.1365092 -0.097128324 0.12711592
0001a0 63 e9 3c bd 78 af e2 bc f4 74 9c bc 24 6b 0a be
       -0.046121012 -0.02767156 -0.019098736 -0.13517433
0001b0 30 c6 39 3c 67 ed 5e 3c ce 57 65 bd f6 d1 8c bd
       0.0113387555 0.013606406 -0.05599194 -0.06875984
0001c0 b5 66 16 be a1 0c 53 3e ae 6b 8f 3c 32 a9 3f be
       -0.14687617 0.20610286 0.0175074 -0.18716887
0001d0 e7 c7 b5 bd 7f 63 4a bd 8d 44 9f bc 01 71 fc 3c
       -0.08876019 -0.049411293 -0.019441867 0.030815603
0001e0 e4 b5 4f bd ea cc 2b be df f8 8f 3e 1f fd ea 3b
       -0.050710574 -0.16777387 0.2811956 0.0071712877
0001f0 57 b0 b0 3d 62 53 9c bd 75 56 33 3e 95 50 85 3e
       0.08627384 -0.076330915 0.1751345 0.26038042
000200 0c 28 d3 bd ea 7d 99 3c 22 4b db bd fb 32 27 bd
       -0.10310373 0.018736798 -0.1070769 -0.040820103
000210 34 d1 3e bd 9d e1 04 3e 76 c6 d6 3c af 50 11 3d
       -0.04658623 0.1297669 0.02621768 0.035477336
000220 45 74 07 3d 2c f1 0a bd 85 0b 47 3c d7 2f b2 3d
       0.033069868 -0.033921406 0.012148743 0.08700531
000230 2d f1 02 bd a0 c5 92 be 16 57 d1 3d 70 b9 61 bd
       -0.031968284 -0.286664 0.102216884 -0.055108488
000240 71 00 3d 3e 82 8c c8 3d b2 19 5f 3d 23 c0 3a 3e
       0.184572 0.09792425 0.054467864 0.18237357
000250 11 33 f2 bd fd 23 7d bd 1e 56 83 bc 1f 26 12 bd
       -0.118261464 -0.0618019 -0.016032275 -0.035680886
000260 1f de 8c bd 56 74 51 3d f5 86 6a be 59 2d 27 be
       -0.06878304 0.051136337 -0.22903045 -0.16325893
000270 ac 4e 81 3e 96 6d 74 bd ae 5c 07 be 07 52 2f 3e
       0.25255334 -0.05967482 -0.13218948 0.17121135
000280 44 54 2c be 34 06 6c 3d 97 a2 14 3d 5b 1e 79 3d
       -0.1682902 0.057623103 0.03628787 0.060819965
000290 bd 36 42 3e f4 db df bb dd 87 a4 bd ab df 94 bd
       0.18966193 -0.0068316404 -0.08033726 -0.07269224
0002a0 4f 97 08 be 03 cf a5 3d 51 a8 34 be 09 97 9c bd
       -0.1333897 0.08096125 -0.17642333 -0.07645995
0002b0 8b 62 0d be a7 ce 33 3e f2 2e 8b be 37 c9 91 3d
       -0.13807122 0.175593 -0.27184254 0.07118457
0002c0 90 f2 71 3d 40 b5 0e be 27 58 07 3d 14 25 20 bd
       0.059069216 -0.13936329 0.033043053 -0.03909786
0002d0 23 c5 64 3c 6a 1f 34 3d 95 8b 30 be 67 de fd bd
       0.013963017 0.04397527 -0.17240746 -0.123959355
0002e0 00 fb 97 bc 27 0f dd bc 08 47 fb bc 87 58 c5 bb
       -0.018552303 -0.026984764 -0.030673519 -0.006022516
0002f0 5b 07 db bd 26 1f 77 3d 67 71 25 3d d3 f3 e8 bc
       -0.10694762 0.06033244 0.040391352 -0.028436577
000300 be d1 01 bd 91 5f 65 bd 25 53 00 bd 69 42 8f 3b
       -0.031694166 -0.055999342 -0.031329293 0.0043719304
000310 4a c7 b7 bd 2d ff fa bd fe 98 1d 3d 69 1c 0a be
       -0.08973558 -0.12255702 0.038475983 -0.134874
000320 eb e2 0e be c6 06 3f 3d 11 93 c0 3e a5 dd 91 bd
       -0.1395375 0.04663732 0.37612203 -0.071223535
000330 f0 1f 21 3e cc 25 47 3e 78 a5 18 be 97 98 bc be
       0.1573484 0.19448012 -0.14906871 -0.36835167
000340 ce b9 88 3a 7b 88 8c be 95 b1 ab ba 77 ff bd bd
       0.0010431351 -0.27447876 -0.0013099188 -0.09277242
000350 2a 68 aa bc 66 b5 2d 3e c7 30 90 bd a8 05 81 be
       -0.020801622 0.1696373 -0.070405535 -0.25199628
000360 bc 37 5d bd 31 a5 63 3d f1 90 78 bd f7 4f 97 bd
       -0.05400823 0.05557746 -0.060685102 -0.07388299
000370 61 fd 88 3e a3 b9 83 be ab f5 0f 3e f1 93 7c bd
       0.26755813 -0.25727567 0.14058559 -0.061664525
000380 71 0c e3 3d 16 66 04 be f6 4b df bd 51 c2 06 3e
       0.110863574 -0.12929568 -0.1090316 0.13160063
000390 79 1b d3 3d 8e f1 bf 3d 0e c2 09 3e f3 dc ff 3d
       0.10307974 0.09372245 0.13452932 0.124933146
0003a0 5e 11 51 3e 29 cb 76 3e c6 a5 85 bd 07 e6 c1 3d
       0.20416781 0.24100937 -0.065257594 0.09467702
0003b0 3c 4b 98 bc c7 eb 30 bd 22 5e e3 3d e9 22 45 3d
       -0.018590562 -0.043193605 0.11101939 0.048128996
0003c0 18 b7 a7 3d 84 d6 09 bd 54 af 35 3e aa ee 92 be
       0.08189219 -0.033651844 0.17742664 -0.2869771
0003d0 c5 2b 93 bd 11 1d 68 3e 79 19 85 3d 5e a5 7b 3e
       -0.07186083 0.22667338 0.06498999 0.24574801
0003e0 1e 62 0c be 75 d4 90 3e 82 47 0e be c7 12 47 3d
       -0.13709304 0.28287092 -0.13894466 0.04860189
0003f0 bc ad 1f ba a9 26 17 3e 20 b7 91 3d eb df 45 3d
       -0.0006091257 0.14760841 0.071150064 0.048309248

network_body._body_endoder.seq_layers.2.bias f4 [128]
000000 03 9f 82 b8 15 07 6f 3b dc 92 5f bb db d6 c1 3b
       -6.228501e-05 0.0036472727 -0.0034114635 0.0059155053
000010 ff 50 56 3b 54 c0 09 3b 8b dd b0 3b cc d4 91 bb
       0.0032702086 0.0021019178 0.0053975037 -0.004450416
000020 18 35 18 3b 9e 5e 9e ba 62 01 ce ba ca 22 58 3a
       0.0023225006 -0.0012082641 -0.0015716965 0.000824493
000030 a7 72 67 bb a2 4c 4b 3b aa eb d8 bb 86 9e 54 ba
       -0.003531614 0.0031021019 -0.00661989 -0.000811078
000040 bc 9c 2d 3b 80 7e 85 bb 6c e2 0c 3c ba f2 f7 3a
       0.0026491126 -0.004073918 0.008598905 0.0018916943
000050 9c a5 04 bb c0 db 99 ba 1c 90 ac 3b bd ee f1 ba
       -0.0020240312 -0.0011738464 0.0052662026 -0.001845799
000060 51 29 01 bc 9a b9 8a ba b4 4e 22 ba ef 1a a7 bb
       -0.007883386 -0.0010583878 -0.0006191537 -0.0050996463
000070 29 60 73 b9 47 77 ed 3b 89 5d 92 ba 6c a3 0b bc
       -0.00023210108 0.007246885 -0.0011166792 -0.0085228495
000080 3d f6 a9 bb ba 62 0f 39 87 2a 47 bb 87 37 3c bb
       -0.0051868246 0.00013674321 -0.0030390339 -0.002871962
000090 04 53 aa ba 69 9d 91 bb 40 84 c8 ba 50 8c 9d 3a
       -0.0012994711 -0.0044438136 -0.0015298203 0.0012019966
0000a0 34 61 2f bc de 2a 10 bc 82 74 3c 3b a8 0b b6 3a
       -0.010704327 -0.008799283 0.0028755968 0.0013888972
0000b0 d4 13 c4 bb 11 f2 a6 ba 78 c3 1b bb f0 da 1e ba
       -0.005983809 -0.0012736936 -0.0023767632 -0.0006059846
0000c0 20 9d a2 bb 66 e8 0b bb f0 b6 a1 ba fc 25 27 bb
       -0.0049625784 -0.0021348237 -0.0012337845 -0.0025504818
0000d0 2e 5a 71 3b fb f1 11 bb 9c 94 18 bb 85 48 61 bb
       0.0036827433 -0.0022269476 -0.0023281937 -0.00343755
0000e0 6b 64 09 ba 20 9a 38 bb 84 66 7f bb 1e 11 da ba
       -0.00052410987 -0.0028168038 -0.0038971016 -0.0016637181
0000f0 9a cc be bb 10 0c 81 bb ec 4f f8 3a 9d 1c dd 3a
       -0.0058227303 -0.0039382055 0.0018944717 0.0016869489
000100 a2 7e 5d 3a 93 3a 84 ba f3 ae 8b bb 81 58 8f bb
       0.0008449351 -0.0010088257 -0.004262799 -0.004374564
000110 7f 87 2e b9 9b 4d 23 ba 62 c0 89 ba 18 a3 30 bb
       -0.0001664441 -0.00062295207 -0.0010509605 -0.002695268
000120 07 ec 70 ba 62 46 6d 3b 5d cc 44 bb 16 03 f2 3b
       -0.0009190444 0.0036205282 -0.0030029037 0.007385622
000130 36 61 f3 bb 8c 19 98 3a 89 aa 9a bb 84 6a ae b9
       -0.00742736 0.0011604293 -0.0047200364 -0.00033267227
000140 7e ab bb bb 84 b9 19 bb 54 0d c6 bb f5 7d bc ba
       -0.0057272306 -0.0023456523 -0.0060440693 -0.00143808
000150 eb 67 e9 ba f7 9b 87 bb ec a6 18 bb aa cd ef 3b
       -0.0017807459 -0.0041384655 -0.0023292853 0.0073182182
000160 68 a4 63 3b d6 69 43 bb 77 8b a2 3a e5 4c 88 3a
       0.0034735445 -0.0029817722 0.0012401183 0.0010398893
000170 b3 45 84 3a 46 3b 0c bb 16 45 bc ba 2c 62 70 38
       0.0010091573 -0.0021397634 -0.0014363851 5.731189e-05
000180 72 d0 86 b9 59 c8 d8 3b 6b ce c4 bb 52 90 fa ba
       -0.00025713776 0.00661568 -0.0060060523 -0.0019116497
000190 98 3c 2b bb 91 18 7b bb 11 cd 3b 3b 18 eb 37 3b
       -0.0026128646 -0.0038314203 0.0028656165 0.002806371
0001a0 ef 4f 89 3c 24 68 30 bb 1a 8d eb ba 85 97 6d bb
       0.016761748 -0.0026917541 -0.0017971129 -0.0036253643
0001b0 d9 26 a7 bb 69 71 18 3b c2 19 40 b9 6d 92 f9 3b
       -0.0051010665 0.0023260957 -0.00018320142 0.0076163323
0001c0 41 ad 07 3b 6c fc 12 bb a0 a4 cf b9 a5 6a 3d bb
       0.0020702633 -0.0022428287 -0.00039604772 -0.0028902676
0001d0 4f 04 14 3b 7f f0 99 3a 9c ac d3 ba de f9 f4 ba
       0.0022585576 0.0011744647 -0.0016149464 -0.0018690189
0001e0 16 9e 62 ba b3 69 04 ba a4 7b 98 3a 7c 1e f2 ba
       -0.00086447725 -0.0005051151 0.0011633527 -0.001847222
0001f0 7d 09 a7 3a ae a9 8b bb 96 35 90 3b 0a 13 49 ba
       0.0012743917 -0.0042621708 0.004400919 -0.00076703785

network_body._body_endoder.seq_layers.2.weight f4 [128, 128]
000000 59 1a 4f bd 2c 16 b9 3c 7c a4 b5 3d 5b 91 05 bd
       -0.050562236 0.02259358 0.088692635 -0.032609325
000010 2e c9 b1 3d 34 bf 79 bc ce fa 8f 3c f3 de 68 3c
       0.0868095 -0.01524334 0.017575648 0.0142133115
000020 9d 71 45 bc 7c 77 29 bd 30 a0 f9 3d b4 25 76 bd
       -0.012051013 -0.041373715 0.121887565 -0.06009455
000030 d7 2f f4 3d 0c 31 a6 3c 5c 26 8a 3d 70 fa cf bd
       0.11923187 0.02028706 0.06745598 -0.10155189
000040 72 b1 8c 3c f3 29 12 bd 04 f2 b3 3d 0f 22 f0 bb
       0.017174456 -0.035684537 0.08786395 -0.007328279
000050 79 af 6d be 68 5f 70 3d f0 fc 40 3b 46 59 f3 bd
       -0.23211469 0.058684736 0.0029447637 -0.11882262
000060 d1 f3 96 bd 9b 3c 35 3d 7a c9 af bd b6 1b 1c 3c
       -0.07370723 0.04424725 -0.085833505 0.009528091
000070 31 01 e3 3d 90 61 cd 3d 3b 47 ba 3d f7 1b 10 be
       0.110842116 0.10028374 0.090956174 -0.14073168
000080 e5 f6 1b 3d 16 73 9d 3d 6e f6 d4 3d 03 7c 80 3c
       0.038077254 0.076879665 0.10398565 0.015684133
000090 25 89 08 be 0d 43 4c 3d 1e 43 9f bc a8 69 18 be
       -0.13333566 0.049868632 -0.019441184 -0.14884055
0000a0 b6 a0 a1 bd 03 dc c5 3c a3 c7 54 bc 7e 98 8c be
       -0.07891981 0.024152761 -0.01298705 -0.27460092
0000b0 e3 90 9b 3c 70 b0 07 3d d0 1c 6f bd d4 a8 1c 3d
       0.018989986 0.03312725 -0.058377087 0.038246945
0000c0 8d 88 c1 3c 2f 59 49 3e e9 d4 fc 3d 20 41 96 3c
       0.023624683 0.19662927 0.12345297 0.0183416
0000d0 bc ca a6 bb ce 83 89 bc ca 3a a4 bd 61 5f a1 bc
       -0.005090086 -0.016786482 -0.080190256 -0.0196988
0000e0 b2 eb fb 3c 48 41 51 bd 7e 3f 4e 3e 0c ab 46 3d
       0.030752037 -0.051087648 0.20141408 0.048502967
0000f0 9c bb 71 3e b9 28 28 bc c0 2d 2a be e9 28 83 3d
       0.23606724 -0.010263615 -0.16619015 0.06404287
000100 51 6e 89 bd bd e2 ac bd e7 79 e3 3c f0 e4 84 3d
       -0.06710494 -0.084416844 0.027768089 0.06488979
000110 18 56 bc bd 46 9b 10 bd ed b9 74 3d 90 cb b8 bd
       -0.091961086 -0.03530433 0.059747625 -0.090232015
000120 6e 25 7c bc 29 9e 6a 3d b7 86 05 bd 10 13 cb bc
       -0.015389783 0.05727974 -0.032599177 -0.024789363
000130 5f 57 32 3d 9a 8a 87 3d f7 a1 70 be 1d 66 7f bd
       0.043540355 0.06618233 -0.23499285 -0.062353242
000140 ba e9 4b 3c 47 2e 9c bd fe 6f 90 3b 4f a9 33 3e
       0.0124458615 -0.07626014 0.0044078818 0.17545055
000150 d6 5d 68 3e 54 8a 83 bc 6e 5c cf 3c 48 98 46 3c
       0.22692046 -0.01605717 0.025312629 0.012121268
000160 82 9a a0 bd 07 45 3f 3e 9a fa f5 3d 1f cd b9 bd
       -0.0784197 0.18678676 0.12010689 -0.09072327
000170 d7 b4 ff bd 3b 25 31 bd 6f ea 1b be 99 ec a5 3c
       -0.12485664 -0.043248396 -0.15226148 0.02025442
000180 b1 aa 70 3c 99 82 07 3c 02 81 d7 3c fa ee 41 3d
       0.0146891335 0.008270883 0.026306633 0.047347046
000190 09 4c ed bd 50 41 10 bd b2 52 20 3d 1a 10 17 bd
       -0.11586768 -0.035218537 0.039141364 -0.03688059
0001a0 0b 63 97 3c 46 23 3e be 9c 62 35 3d 48 96 a1 3c
       0.018479845 -0.18568143 0.044283494 0.01972498
0001b0 12 0b 44 bd 71 8f 3b 3d e8 b0 0e bd 53 02 47 3b
       -0.04786212 0.045791093 -0.03483668 0.0030366376
0001c0 5a cc 8b bd 50 51 86 bd 8b 63 de 3c 48 23 0a be
       -0.06826086 -0.06558478 0.027147075 -0.13490021
0001d0 bf 8c e0 bd f4 41 37 3d 3e ae a3 3c 1c b4 08 bb
       -0.10964345 0.044740632 0.019980546 -0.0020859307
0001e0 2b ae 9f 3d f5 fb 9e bd 03 01 4d 3d b6 64 40 3e
       0.07796892 -0.07762901 0.050049793 0.18788418
0001f0 f2 df 3e 3d a8 b2 e1 3d 89 e7 bd 3b 2b 1b d5 bd
       0.04660029 0.11020404 0.0057954234 -0.104055725
000200 de d6 c9 bd bf a3 6a 3d 2c be fc 3c 13 8d 07 bc
       -0.09855436 0.057285067 0.0308524 -0.008273381
000210 e0 1c 01 3e 5c db 12 3d e0 16 a9 3d 90 c9 3f 3c
       0.12608671 0.03585373 0.08256316 0.011705771
000220 9e 41 d2 bd 1c 34 1f bd ca c2 cf 3d fd af bf bd
       -0.10266422 -0.038868055 0.10144575 -0.09359739
000230 b2 32 c2 bd b2 3b 50 bd c6 f5 d1 b9 a3 41 c8 3c
       -0.094823256 -0.05083818 -0.00040046702 0.02444536
000240 e9 f1 49 bb d2 4a c5 bc 53 5a 2d 3e 72 ab e2 3d
       -0.0030814356 -0.024083529 0.16928987 0.11067857
000250 11 2c 56 bd 2e 60 71 3e 24 23 08 3d 18 90 5e be
       -0.05228812 0.23571846 0.033236638 -0.21734655
000260 73 87 58 bd ac da 0a 3e 7f 78 14 bd e8 ad 4d bd
       -0.05286355 0.13559979 -0.036247727 -0.050214678
000270 c3 e5 72 be 8a 4b e2 3b 41 77 1d bc 11 d5 48 bd
       -0.2372046 0.0069059776 -0.009610952 -0.04903132
000280 0f 8b d8 3d 2d 31 9a bc ee 8f 69 bc 4e b1 f7 bd
       0.10573398 -0.018822277 -0.014255507 -0.12094365
000290 32 9d bc 3c 1c c9 01 3c 70 75 35 bd f5 ff 86 3c
       0.023024175 0.007921483 -0.04430145 0.016479472
0002a0 84 e1 9a bd 91 46 a8 bd d3 5d 97 3d c9 ef 8b bb
       -0.07562545 -0.082165845 0.073909424 -0.004270528
0002b0 2c e5 89 3d 84 06 e4 bc 33 84 ff bc 26 fc ca bd
       0.06733164 -0.027835138 -0.031190967 -0.09911375
0002c0 65 8b 21 3d 68 34 8a 3d 77 89 2c 3e d8 fa 8c bd
       0.039439578 0.06748277 0.16849314 -0.06883782
0002d0 32 0a da bd 17 fb 85 bd 43 00 3e bd a8 15 86 3d
       -0.10646476 -0.06542032 -0.04638697 0.06547099
0002e0 89 65 b3 bd 4a 0e 8f 3d e0 1a b0 3d c6 79 5e 3c
       -0.08759601 0.06985147 0.08598876 0.013578838
0002f0 c5 3e 1c bc e2 c2 91 bd 4b 68 21 3d 9a 80 9b bd
       -0.00953645 -0.07117249 0.039406102 -0.07592888
000300 2b 89 a9 3d 3d 68 0d be 93 27 cb 3d f4 f5 2c be
       0.08278116 -0.13809295 0.099196576 -0.16890699
000310 21 9e 9f 3d e1 54 c1 3d 5c 56 14 3e fc f1 d9 3d
       0.077938326 0.094400175 0.14486068 0.10641858
000320 6f 19 67 bd 2d 89 fd bc bb 3a d0 bd e2 b4 d0 bc
       -0.05642074 -0.0309492 -0.10167452 -0.025476877
000330 be 49 d7 3d fb 16 97 bb 70 58 93 bd d5 f3 38 3e
       0.10512112 -0.004610894 -0.071946025 0.18061765
000340 71 b7 70 3d 27 e2 b5 bd b2 8b 90 3d 8d ed b7 bc
       0.058768693 -0.08881026 0.07057895 -0.02245214
000350 5c 39 b6 3c bb ab 8e 3d 1a bd 09 be f5 eb 46 bd
       0.022244148 0.06966349 -0.13451043 -0.04856487
000360 c0 51 fd 3d c6 9b 8b 3d a5 c0 c0 3d c7 8e 4a 3e
       0.12369108 0.06816821 0.09411744 0.19781028
000370 d8 af 8e be 71 2c 17 bd 64 cc 18 3d 67 79 0e be
       -0.27868533 -0.036907617 0.037304297 -0.13913499
000380 da 7e 12 3e 81 be 97 3a d1 a1 60 3e bc e4 34 3e
       0.14306203 0.001157716 0.21936728 0.1766538
000390 1f 2e 2e be c7 5f 8e bc a6 80 f9 3d 09 19 48 3d
       -0.17009781 -0.017379655 0.12182741 0.048852
0003a0 c1 59 e1 bb 07 f2 2b 3e 98 eb c8 bc af 65 d0 3d
       -0.0068771546 0.16791545 -0.024526402 0.101756446
0003b0 d1 36 aa bd ca e9 cd 3d 40 f7 e2 bd dd 09 79 bd
       -0.08311237 0.10054357 -0.110823154 -0.060800422
0003c0 12 19 3f be b6 2d b9 3d 4e 8e 2f 3c 45 17 86 bc
       -0.18661907 0.09041922 0.01071508 -0.016368518
0003d0 46 6a 64 bd e6 41 2f be 4a 1d 0a be cb d2 63 3c
       -0.055765413 -0.17114982 -0.13487735 0.013905237
0003e0 64 da 9b bd f2 af 58 3d e6 25 8a bd 2a 91 87 3c
       -0.07610014 0.05290217 -0.0674551 0.016548712
0003f0 7a 4b c5 bd a8 f2 a5 bd 77 12 a9 3c a2 12 07 3e
       -0.09633537 -0.08102924 0.020638688 0.13190702
