NN/Previous/BasicAgent-Level2 (2).onnx (onnx, 95028 bytes, 7 tensors)

action_model._continuous_distribution.log_sigma f4 [1, 2]
000000 87 7a a1 bd d2 4e ca bd
       -0.07884698 -0.09878315

action_model._continuous_distribution.mu.bias f4 [2]
000000 5d 19 a4 bc 20 51 06 3d
       -0.020031625 0.03279221

action_model._continuous_distribution.mu.weight f4 [2, 128]
000000 19 4e 43 3d 0e 3e ac bc 7a 30 a8 3c aa 7c 1d 3d
       0.0476819 -0.021025684 0.020530928 0.038448967
000010 3a 5c 10 3d 6f 40 23 bb 44 ed d7 3c 70 ba 33 3d
       0.035244204 -0.0024910232 0.026358254 0.043878973
000020 01 89 c2 3c 4d 1e c2 3c de b3 52 bc f2 dd ff 3c
       0.02374697 0.02369609 -0.0128602665 0.031233761
000030 ad 34 58 3c d2 72 71 bb 71 90 08 bc cc 5c 03 3b
       0.013196153 -0.003684212 -0.008335219 0.0020044325
000040 5d 6f be 3c e5 33 dc 3b 1a 24 28 3d 38 cf f5 3c
       0.023246462 0.0067200535 0.041050054 0.030006036
000050 f3 aa 70 bb c0 09 1d 3c 7d 7a f3 bc 2e f9 6f 3c
       -0.0036722987 0.009584844 -0.029721493 0.014646811
000060 72 5c f8 bc 0c 11 44 3a 20 f5 1c bc c5 01 b9 3c
       -0.030317519 0.0007479347 -0.009579927 0.022583852
000070 cb 97 2d 3d 30 4f ca 3b 0f dc c6 bb 81 5f 59 3d
       0.04238109 0.0061739907 -0.0060687135 0.053069595
000080 c4 37 8b 3d 3a 60 89 3c f5 61 fe bb 56 6d bb 3b
       0.06797746 0.016769517 -0.007763142 0.005719821
000090 30 af 0b 3d 9a 4f 5e 3c d6 25 04 3c db 0e 60 bc
       0.03410262 0.013568783 0.008065661 -0.013675417
0000a0 85 61 b6 bc 97 81 19 3d 5a 82 b0 bc de 29 5a 3d
       -0.022263298 0.037477102 -0.021546531 0.053262584
0000b0 52 f9 c4 bb 24 a9 f7 3c ea 70 2e 3a de 84 8f bc
       -0.0060111666 0.03023202 0.0006654399 -0.01751941
0000c0 d8 e6 87 3d a9 6b 02 3d 30 dd 57 3d ae d1 8a 3b
       0.06635827 0.031840954 0.052701175 0.0042364215
0000d0 ba 88 7f 3d fe 6f ca b9 a3 61 e2 bc 5b 92 39 3d
       0.062386252 -0.00038611883 -0.027634447 0.04530559
0000e0 5b c1 7a 3c 87 b5 35 3c b0 f1 d6 3c 5a 1c 74 3c
       0.015304889 0.011090643 0.026238292 0.014899338
0000f0 74 f1 75 bb ec 63 00 3c ce af c3 3c 1d d6 49 3d
       -0.003752795 0.007836323 0.023887541 0.04927646
000100 a0 67 d1 bc 6e eb 33 3d 1d 63 b3 3c 9a 30 ce b8
       -0.025562108 0.043925695 0.021897847 -9.831898e-05
000110 b6 0c b6 bb 33 3f c0 bc cb 24 39 3d d4 1b 10 3d
       -0.0055557145 -0.023467636 0.045201104 0.03518279
000120 b4 5c 23 3d 0d 1b be 3c 47 74 c0 3b d7 95 c6 3c
       0.03988333 0.023206258 0.0058732363 0.024241371
000130 6c 14 00 bd 92 cf d2 3c 51 2a aa 3d 11 2f bf bb
       -0.031269476 0.025733743 0.083088525 -0.005834468
000140 b1 86 5a bc 53 1f e9 bb da f4 74 bb 1c 81 4c 3d
       -0.013337777 -0.00711433 -0.0037377388 0.049927816
000150 f4 0c c0 3c 4a 03 56 bd 8b 36 74 3c 8a 2d 55 bc
       0.023443677 -0.05224923 0.014905582 -0.013011346
000160 3b 6d 0d 3b ee a6 a6 bc c5 78 0c 3d 2c 24 58 3d
       0.002158 -0.02034327 0.034294862 0.05276887
000170 49 aa 90 3d a0 59 1c bc a9 f8 df bc d7 78 a7 3d
       0.07063729 -0.009542853 -0.02734025 0.08177345
000180 1b 8f 41 bc a8 a0 1f 3d 5c be 17 3c 8d 12 50 bd
       -0.011813904 0.038971573 0.009261694 -0.05079894
000190 03 78 03 bd 5c 8a 59 bc fe ca a4 3c 8e 35 dd 3c
       -0.032096874 -0.013277616 0.020116325 0.027003076
0001a0 b5 63 db 3c f7 d6 43 3c ac c9 e5 bc 91 71 e6 3c
       0.026780942 0.011953107 -0.028050266 0.028130325
0001b0 94 fb 03 3d aa 5a 7c 3d e7 0c ab bd 7f ca 5f 3c
       0.032222345 0.0616099 -0.0835207 0.013659119
0001c0 b4 12 02 3d 3b 1a 01 bd ff 67 fe 3b 1a 8d 8f bc
       0.031756118 -0.031519156 0.007763862 -0.017523337
0001d0 6d d9 46 3c a3 1b 46 3c 34 d0 2e bc d4 60 02 bd
       0.012136799 0.01209155 -0.010669757 -0.031830624
0001e0 12 10 8d 3c 40 a0 d2 3c 9b bf 0b bc 6d 51 b0 ba
       0.017219577 0.025711179 -0.008529569 -0.0013452001
0001f0 8a a3 c1 bc 46 8c ee 3b fd b0 f9 3c 1d 21 13 bd
       -0.023637552 0.0072799055 0.030479902 -0.03592025
000200 a7 ce a2 bd a4 d0 14 bd ba 09 c4 bc 71 12 ab 3c
       -0.07949572 -0.036331788 -0.02393042 0.020882817
000210 89 b9 8e 3a 92 b3 13 3c 87 21 81 bd 16 e3 e4 bc
       0.0010889034 0.009014981 -0.06305223 -0.027940314
000220 b8 87 f7 3c 11 42 0d bc ba 79 83 3d a4 e9 1e 3b
       0.030216083 -0.0086217085 0.06419702 0.0024248147
000230 96 43 13 bd e4 e3 46 3c 71 f5 39 bc a5 d7 ef 3c
       -0.035953127 0.012139294 -0.011350022 0.029277632
000240 b3 2f 84 bc c2 05 0d bc 86 b9 15 bc 27 27 78 3d
       -0.016136026 -0.00860733 -0.0091384705 0.060584214
000250 ea d1 00 3d 9b c2 55 bc ee a6 6d bc fc 53 b8 bd
       0.03145019 -0.013046886 -0.014505131 -0.09000394
000260 59 ff b4 3c db 28 c8 3c 48 b6 22 3c cc d2 78 bc
       0.022094416 0.024433544 0.009931155 -0.015186977
000270 b7 f6 01 bc 95 92 96 bc 86 1e bb 3c 9f 07 a4 bc
       -0.007932357 -0.018380443 0.022841703 -0.020023165
000280 bc 56 b7 bc 5c 3a 81 bc b9 d1 87 3c 34 dc 28 3d
       -0.022380225 -0.015774898 0.016579496 0.041225627
000290 ee 3a 03 bd 9d 20 8f bd 51 22 2e 3c 8e 5d 7c bc
       -0.03203862 -0.06988642 0.010628299 -0.015403165
0002a0 36 25 4d bd df 30 33 bd 2e a7 e1 bc cd e7 eb bd
       -0.050084315 -0.04374778 -0.027545538 -0.11518822
0002b0 d1 f3 bc ba 73 01 29 bd 63 3e 95 3b f1 e1 47 bc
       -0.0014415925 -0.041261148 0.004554556 -0.012199865
0002c0 12 12 50 bd 25 35 9f bd 7a c2 cd 3c 97 1b e8 3c
       -0.050798483 -0.077738084 0.025117148 0.028333468
0002d0 9d 13 9a 3d f2 dc a5 3c 39 bb 04 bb 1e 23 16 3c
       0.07523272 0.020246956 -0.0020253195 0.009163646
0002e0 ab 76 ef bc cf 2e f2 3c c5 ec 61 3d 82 6b a7 bc
       -0.02923139 0.029563336 0.05515744 -0.020437006
0002f0 bb 8a 0f bc ef 0f ac 3b 07 ec 63 3b 53 f2 f9 bc
       -0.008761103 0.005250923 0.0034778134 -0.030511057
000300 28 8e 85 bc 38 0b 12 bc 89 23 ad b8 f0 e5 e3 3c
       -0.016303137 -0.008913808 -8.255902e-05 0.027819604
000310 0f 2f e2 bb 40 45 33 bc 9c 29 c9 3c 15 57 c8 bc
       -0.0069025825 -0.010941803 0.024555974 -0.024455586
000320 c4 57 aa bc 18 49 b3 3c 9b e6 ac ba c0 92 fa 3b
       -0.020793803 0.02188544 -0.0013191284 0.0076468885
000330 c1 62 1e bc e7 5b 41 3b 5c 25 4e bd 4d 4a 39 bc
       -0.009667099 0.002950424 -0.050328597 -0.011309219
000340 17 0e b4 b9 37 94 8a 3c ff 46 bb bc dd 35 51 bd
       -0.00034342773 0.016916377 -0.022861002 -0.05107676
000350 36 77 ae bb 68 6b 06 3d a7 65 03 3c 98 2f 86 bc
       -0.0053242696 0.032817274 0.008019841 -0.016380116
000360 e7 eb 58 bd 7a 30 89 bc 70 a5 06 bd 9c 55 2a bc
       -0.05295935 -0.016746748 -0.032872617 -0.010396387
000370 92 f5 a7 bd 02 27 5e 3b d4 ba 4e bc 69 e0 04 bd
       -0.08201136 0.0033897762 -0.0126177855 -0.032440577
000380 83 e9 02 bb 38 2c 62 bd ef a2 6c 3c a2 14 c2 3c
       -0.001997561 -0.05521795 0.014443143 0.02369148
000390 57 d6 a5 3b 2a 03 a2 b9 4a 69 51 3d c2 ac 3b 3c
       0.0050609517 -0.00030901405 0.051125802 0.011454763
0003a0 e6 68 d3 ba 1e 00 0e bd fe 12 0d 3b 8c c1 f4 3b
       -0.0016129285 -0.03466808 0.0021526213 0.0074693616
0003b0 38 0c d0 bc 8d 49 dc bc a5 6f 89 bc 9e f9 49 bc
       -0.025396451 -0.02689054 -0.01677687 -0.01232758
0003c0 c5 c6 14 3d 3c 7b e4 bd cb 44 90 bb 4d d2 e2 bb
       0.036322374 -0.111563176 -0.004402732 -0.0069220425
0003d0 58 57 f1 ba 4b 30 38 bc c7 51 0a bd 29 33 30 3d
       -0.0018412871 -0.011241983 -0.033769395 0.04301754
0003e0 a3 95 2e bb 12 ee 61 bc 0d 78 23 3d c9 64 9d bc
       -0.0026639483 -0.013789671 0.03990941 -0.019213097
0003f0 0a 80 05 3d 1e 18 ba bc e9 d1 16 bc fd 86 29 3a
       0.03259281 -0.022716578 -0.00920532 0.0006466953

network_body._body_endoder.seq_layers.0.bias f4 [128]
000000 49 8c 0e bc 8b c9 e8 bb fd 4d 17 3a f2 6b 1c 3d
       -0.008700439 -0.007104104 0.0005771814 0.038188882
000010 a5 71 98 ba f4 ca b9 3c d9 2b a2 3c b1 9d d6 bb
       -0.0011630548 0.022679783 0.019796299 -0.00654956
000020 84 d7 3d bd 2e e5 05 bd d6 11 da 3c 59 c8 df bc
       -0.04634811 -0.032689266 0.026619833 -0.027317213
000030 9e 81 10 bd 0b c7 b3 3c a0 ad ff bc 1b 2e 72 3c
       -0.035279863 0.021945497 -0.03121072 0.0147815
000040 c4 29 bb bb d7 91 93 3d 49 1c 83 3c bb c6 0d bc
       -0.005711766 0.07205551 0.016004698 -0.008653338
000050 4f f0 d4 3c ac d4 3f bd 78 37 0c bd cb d3 87 bb
       0.025993494 -0.04683368 -0.034232587 -0.0041451207
000060 c2 1c 8d 3c f9 5f dc 37 56 d2 40 bc 06 f4 82 bc
       0.017225627 2.6270734e-05 -0.011768898 -0.0159855
000070 c0 25 e5 bb 02 06 ce bc af 30 1d 3c c8 79 22 3d
       -0.0069930255 -0.02514935 0.009594127 0.03966692
000080 39 7b 51 3d 2c e9 b3 3c a9 a5 7e bc 42 6e e8 3c
       0.051142905 0.021961771 -0.015542426 0.028372888
000090 d7 f1 af bc 28 44 2c 3d a1 83 eb b8 3c 3a ce 3c
       -0.021477623 0.042057186 -0.00011230191 0.025174253
0000a0 65 83 33 bc d3 a1 6b 3d d2 f7 ed 3c 9f 53 7a bc
       -0.01095662 0.057527374 0.029048834 -0.015278726
0000b0 70 76 72 bc 1f 17 db bc 85 59 8e bc 01 cc 82 bc
       -0.0147987455 -0.026744423 -0.01737667 -0.015966417
0000c0 ce 10 52 bd c6 e2 97 bc bf 28 1c bd 99 2e 63 bd
       -0.051285557 -0.018540751 -0.038124796 -0.05546436
0000d0 7a ef 88 bc 6b 35 3d 3c 43 9f aa 3c 6d 76 ae 3c
       -0.016715754 0.01154838 0.020827895 0.021296704
0000e0 a7 77 72 3b 48 c3 cc 3b b5 0d 18 bd c7 44 2f bd
       0.0036997588 0.0062488653 -0.037122447 -0.0427902
0000f0 0b 2e b3 bc eb f8 b1 bc 3d c6 7a 3d 1e 85 11 3b
       -0.021872541 -0.021725139 0.06122421 0.0022204588
000100 4d 04 c0 bc 8d c6 7e bb 74 ac 5f 3c 00 1c 18 bc
       -0.02343955 -0.003887567 0.013651956 -0.0092840195
000110 e2 5f 0e 3c 36 4e ec 3c c9 5a ec bc 03 b4 1c bc
       0.008689852 0.028845888 -0.028851883 -0.0095644025
000120 fc eb d7 3b e4 88 0a bd 4f e5 ac bc 5c 22 18 bc
       0.006589411 -0.033821955 -0.021105437 -0.009285536
000130 ea ac 9e 3c 19 8c 8e 3d 21 07 9a b8 42 bd 45 3c
       0.019369561 0.06960315 -7.34462e-05 0.012069048
000140 49 b1 88 3d 1b 08 22 3d 92 2c c5 bc 79 1e 46 3c
       0.066744395 0.03955851 -0.024069104 0.012092226
000150 5f e0 db bc 45 8a 4a 3b d9 91 11 bd 05 cc a3 bc
       -0.026840387 0.003090517 -0.03553948 -0.019994745
000160 12 04 a8 bc 9a 58 ee 3c f7 51 f4 bc 2a a2 bd ba
       -0.020509753 0.029094983 -0.02982424 -0.0014467884
000170 7e ea 86 3c 5b bb 8b 3c b6 d3 ec 3c 4d d2 7a bb
       0.016469236 0.017057111 0.028909545 -0.0038272322
000180 30 1b 44 3b a1 6d b3 bc 2f 7c a3 bc 02 ac a1 3c
       0.0029923432 -0.021902861 -0.019956676 0.01973534
000190 85 02 f4 3c 4a 52 13 3d ed 47 16 3d 1f 5d 89 bb
       0.029786358 0.03596715 0.036689688 -0.004192009
0001a0 6b 09 bd bc d5 39 7f 3c 59 39 31 3d 61 c4 29 3c
       -0.02307578 0.015577753 0.04326758 0.010361762
0001b0 0d f8 f3 3c 89 62 7e 3d 83 a7 25 bc a5 cf 02 3d
       0.029781366 0.06210569 -0.010110739 0.031936307
0001c0 c2 d0 a7 bc 89 3d 55 bc ac 73 ed bc a9 7a d4 bc
       -0.020485286 -0.013015159 -0.02898582 -0.025937395
0001d0 ce 23 28 3d e8 99 a6 bc 51 e7 b0 bc 41 89 00 3d
       0.04104977 -0.02033706 -0.021594675 0.031380896
0001e0 95 0e df ba fd eb 06 3d 7b ec 28 3d ab ad d1 bc
       -0.0017017896 0.0329399 0.04124115 -0.025595507
0001f0 6b be 16 3d 9c 01 84 3c 86 b4 f6 3b 83 7d 3f bc
       0.03680269 0.016114049 0.0075288443 -0.011687639

network_body._body_endoder.seq_layers.0.weight f4 [128, 50]
000000 4c 19 ee 3c f1 41 0a bd 55 d4 b1 3c a2 14 a6 bd
       0.029064797 -0.033754293 0.021707693 -0.08109404
000010 11 85 95 be 6a a1 2c 3d 8d e5 0e 3e 07 5b 12 3e
       -0.29203084 0.042146124 0.13954754 0.14292537
000020 8b 47 43 be 11 88 8a be c3 84 3c be ac 3e 0d be
       -0.1907026 -0.27056935 -0.1841002 -0.13793439
000030 7c 82 56 3d 9d 02 4a be 0b de 8e 3e 24 be 9e 3e
       0.052370533 -0.1972756 0.2790378 0.3100444
000040 db e1 13 3d 20 bb 02 bd 2a 56 98 ba d4 95 a7 bd
       0.036104064 -0.031916738 -0.0011622359 -0.08182874
000050 99 8d 3c 3d bf ff 87 3e 4e 9d 24 be 4e 1b 14 be
       0.046033476 0.26562306 -0.16075632 -0.14463541
000060 d3 db 91 bc 62 be 4b bb 10 21 4d bd e3 28 3a 3d
       -0.017805016 -0.0031088819 -0.05008036 0.04544915
000070 8e 12 bb bd 7f c3 16 be ea 19 0c 3c a3 1b df 3e
       -0.091343984 -0.14723013 0.0085511 0.43575773
000080 77 60 c7 bd a2 af 08 3d 6e 63 dc 3c 64 06 93 bd
       -0.09735196 0.03337062 0.02690288 -0.07178953
000090 f3 86 49 3e 28 34 2f be 18 a6 3f 3c 19 99 af bd
       0.19680385 -0.1710974 0.011697315 -0.08574123
0000a0 01 20 0e 3e 33 64 1c be c8 2b 0b bd 04 46 13 be
       0.13879396 -0.15272598 -0.0339773 -0.14382178
0000b0 58 72 ad 3d 5c 0a 75 3a 9f f7 0c 3e b7 2a 0c bf
       0.08469075 0.0009347552 0.13766335 -0.5475268
0000c0 fe 86 97 3e e1 01 5f 3e 26 50 ac bd 04 cd ce 3d
       0.29595178 0.2177806 -0.084137246 0.100976974
0000d0 cf 7b 2f 3e 37 09 97 be b0 8a 53 bd 71 f6 5f bd
       0.17137073 -0.29499218 -0.051645935 -0.054678384
0000e0 ea 01 a0 3d 30 19 75 3e 5f 25 78 3d 2a 37 43 3e
       0.07812865 0.2393539 0.060582515 0.19064012
0000f0 98 1d c5 3d 11 99 1c 3e 81 82 ec bd db ee 2d 3e
       0.09624785 0.15292765 -0.11548329 0.16985647
000100 5a bc 62 bd 70 72 94 3d 0b a4 92 bd b0 0b b2 3d
       -0.055355407 0.0724839 -0.07160195 0.086936355
000110 e1 11 30 be 1f 70 1f 3e db 84 25 3c 5f d4 60 3e
       -0.1719432 0.15570115 0.010102476 0.21956013
000120 40 09 a9 bd 10 49 97 bd 83 c2 1d 3e 5f 93 5c 3e
       -0.082537174 -0.073869824 0.15406232 0.21540593
000130 db c0 33 3d 31 b5 a8 bd d0 8e fa bd 9e 42 0a 3d
       0.043885093 -0.082376845 -0.122342706 0.033754937
000140 44 bd 0f 3e 16 c9 1d 3a dd a8 c6 bb 9c e6 17 be
       0.14037043 0.0006019039 -0.0060626105 -0.14834064
000150 47 39 14 be 25 00 cc bb ae 1f 5e bd b5 18 ab 3a
       -0.14474975 -0.006225603 -0.05422943 0.0013053628
000160 16 55 be bd 26 49 c9 3c c4 f1 98 b9 bd d4 57 be
       -0.092935726 0.024571013 -0.0002917183 -0.21077247
000170 7b e1 6e be a5 ee 9c be dc 4a 1f bc b3 94 28 3e
       -0.23328201 -0.3065082 -0.009722438 0.16462974
000180 a4 a7 c1 bd 00 58 39 3e f1 4c 4d 3d 22 ba 2c 3e
       -0.09455803 0.18099976 0.050122205 0.16867879
000190 9c 15 aa bb b2 16 2a be 61 eb f8 bc f9 03 87 3e
       -0.0051905643 -0.1661022 -0.030385675 0.26370218
0001a0 0d 10 95 3d f4 1e 6e bd 80 cd 9a bc 46 1e ce bd
       0.07278452 -0.058134988 -0.018896818 -0.10064368
0001b0 3b 86 af 3d 22 33 92 3d 4c 41 53 bd 3e 67 79 bd
       0.08570524 0.07138659 -0.051575944 -0.060889475
0001c0 2e f9 c4 3c 1a 35 c3 bc ee d4 a5 bd 1b ee b3 3b
       0.0240446 -0.023829032 -0.08097254 0.005491031
0001d0 3b 3f 40 be c2 91 2f 3e 89 30 88 3d 74 12 dd bc
       -0.1877412 0.17145446 0.06649882 -0.026986338
0001e0 1a 95 c8 bd 66 eb ec 3d 26 97 a6 be 1b 68 ce bc
       -0.09794064 0.11568336 -0.32537192 -0.025196126
0001f0 79 46 6f 3e 3e 87 10 3e fa 72 26 bd cf db 9c bd
       0.23366727 0.14114091 -0.040636994 -0.07659113
000200 80 64 2e 3e 74 8c 28 be eb c1 30 3e 18 ed aa 3e
       0.17030525 -0.16459829 0.17261474 0.33384013
000210 26 f2 e3 3d eb 72 83 bd bc 04 f7 3d c4 38 0c 3e
       0.111301705 -0.06418403 0.1206145 0.1369353
000220 d8 85 62 3d 18 95 2e be 4f e2 0f be 89 c6 97 bd
       0.055303425 -0.17049062 -0.14051174 -0.074109145
000230 2c c6 40 3d 90 80 56 3e 7a a3 93 bd 73 47 88 3d
       0.04706399 0.2094748 -0.07208915 0.06654253
000240 c4 f1 41 3d 9a 42 e8 bd 9d bb 4a 3c c8 32 39 be
       0.047349706 -0.11340828 0.012373832 -0.18085778
000250 05 35 40 3e a7 10 19 bd 39 95 94 bc 95 47 3f bd
       0.18770225 -0.037369397 -0.018137561 -0.046699125
000260 f6 c3 6d 3e 4b 36 6e 3d 69 ef 0f 3e 7c 89 19 bd
       0.23219284 0.058157247 0.14056171 -0.03748463
000270 3a 75 b4 3d ed e8 55 3e 76 1e 00 3e 27 41 82 3e
       0.08811422 0.20889635 0.1251162 0.25440332
000280 1e 0e bd 3e b5 59 81 3e c5 d6 05 3e 9a 2c 85 3e
       0.36924833 0.25263754 0.1307021 0.2601059
000290 72 f5 bd 3d 52 72 76 bc 87 2d 15 be 8c 9d 6a 3e
       0.092753306 -0.0150419045 -0.14568149 0.22911662
0002a0 ac e8 25 be 01 21 0a 3e 71 06 90 3d c6 14 87 be
       -0.16202039 0.13489152 0.070324786 -0.26383036
0002b0 e4 ab 37 be 28 d1 4d 3c ba a3 9d bd 21 dc 75 3e
       -0.17936665 0.012562074 -0.07697244 0.24009754
0002c0 1d b1 e0 bd be 5f 35 bc e5 4b 67 3e da da cc 3c
       -0.10971282 -0.01107019 0.22587545 0.0250067
0002d0 8f 84 bf bc 39 0f 08 bd 92 ab 73 3e f4 4c f0 bd
       -0.023378639 -0.033217642 0.23795918 -0.11733428
0002e0 bf d8 20 3e bc e8 2d 3e df 8b 4e bd 73 ec 18 be
       0.15707682 0.16983312 -0.05042636 -0.14933948
0002f0 b4 e4 a4 3e 82 ca 05 3e d5 6a 1d be b7 c3 58 be
       0.32205737 0.13065532 -0.15372784 -0.2116841
000300 ff d1 ad 3d 90 4e 4b bd 0f 55 eb bd df 59 ee bc
       0.08487319 -0.04963547 -0.11490833 -0.029095588
000310 f5 3b 92 bd e2 20 a1 bd f7 95 8c bd b3 a8 59 bd
       -0.07140342 -0.078676 -0.06864541 -0.0531394
000320 e8 bd 0d 3e 44 76 1e be 47 47 02 be aa ad a0 bd
       0.13841975 -0.15474802 -0.12722503 -0.07845624
000330 51 3e 28 bd 1f 5e 0d be 10 d1 2a 3e c6 e1 20 be
       -0.041075055 -0.13805436 0.16681314 -0.15711126
000340 45 07 32 be 77 c3 c8 3c 6e f4 bb bb 90 7d c7 bd
       -0.17385586 0.024507267 -0.0057359254 -0.09740746
000350 ef 6d 48 be fc 52 62 3e 99 27 4d 3d a5 ce 84 3d
       -0.19573186 0.22101969 0.05008659 0.06484727
000360 a2 7b 18 be 2b b5 cd bd 3d b6 50 bd 02 5b c6 bd
       -0.14890912 -0.10044321 -0.050955046 -0.09685327
000370 9e 4f c4 bd 74 a7 ab 3d 35 4f 29 3e 57 79 c6 bd
       -0.09585498 0.083815485 0.16534121 -0.096911125
000380 85 8f b6 bd 84 49 f5 3d 1e cb 6d be 3e b0 e2 bd
       -0.08914093 0.119769126 -0.23222014 -0.11068772
000390 23 75 91 be 0b 85 5f 3e 04 07 a3 3d c5 14 a8 3c
       -0.2840968 0.21828096 0.079603225 0.020517716
0003a0 b7 06 8a 3d 0e 22 22 be bd 5a 01 be 3a 3f 3a be
       0.06739562 -0.15833303 -0.1263227 -0.18188182
0003b0 b2 ac 8d 3e 79 75 3a bd 6a c6 17 3e 50 56 17 3d
       0.2767082 -0.045522187 0.14821783 0.03694755
0003c0 34 bd 6d 3d a6 a3 84 bd 06 d2 57 3d 9c 11 d9 3c
       0.058041766 -0.06476526 0.05269053 0.026497655
0003d0 00 04 84 3e 88 16 ec 3d af 5e 02 be 16 ab 24 3e
       0.25784302 0.11527735 -0.12731431 0.16080889
0003e0 dc 8a a3 3b 55 7d 88 bd a6 c3 a7 3c e5 4e 32 3d
       0.0049909186 -0.0666453 0.020479035 0.04353227
0003f0 a0 1f 44 bd ea 9e 6e bd 84 8f c6 bd ac 9a 1f 3e
       -0.047881722 -0.05825702 -0.09695342 0.15586346

network_body._body_endoder.seq_layers.2.bias f4 [128]
000000 44 27 0b 3d 0c 5c 7a 3c 71 3e 2a bd bf d0 50 38
       0.033972993 0.015280735 -0.041563455 4.9785474e-05
000010 f6 92 9b bc 91 b4 c9 3c 9c 1f 10 bb a9 6c f7 bb
       -0.018990975 0.024622234 -0.0021991497 -0.007550795
000020 4a e8 26 bc cd d5 21 3c 35 ec 24 3d 67 98 47 bc
       -0.010187218 0.009877634 0.040264327 -0.012182332
000030 9a 8e 00 3b 87 91 ca 3b d3 ab 9a bc 33 3d 4d 3d
       0.0019616247 0.006181899 -0.01888076 0.050107192
000040 7c a6 ea bc af 38 1e bd fe 0e 60 3c ea 67 3d bc
       -0.028643839 -0.038628276 0.013675449 -0.01156042
000050 89 ab 30 3d 65 bc 4d bd 41 6a ee bb 9a 83 43 3d
       0.04313234 -0.050228495 -0.00727585 0.047732927
000060 ed 03 0f 3d ba 3b f0 3c da 26 d2 3c 5d 1e 8a bc
       0.034915853 0.029325355 0.025653291 -0.016860181
000070 6f c9 aa bc 23 08 16 bd 1d 9d 0f 3d ab 5e 95 bc
       -0.020848004 -0.036628854 0.035061944 -0.018233618
000080 c0 09 4e 3a 62 2f 17 bd db 2d 14 3d ed c6 f9 3c
       0.0007859729 -0.036910422 0.036176544 0.030490363
000090 83 fe d4 3c 57 f3 2e bd 16 96 4b 3c 38 db 50 bb
       0.026000267 -0.042712536 0.01242592 -0.0031868946
0000a0 66 b6 37 3c ea ff 4d bc fb 7d 43 bc 1d 57 cd 3c
       0.011212921 -0.012573222 -0.011931892 0.025065953
0000b0 07 d9 36 3c 19 df 96 3c 3b 30 82 3c 66 5d 91 bb
       0.011160142 0.018416928 0.015892139 -0.004436183
0000c0 75 45 46 3c f7 b7 ed 3c 4c 4a 58 3c ab 89 98 bc
       0.012101521 0.029018385 0.0132013075 -0.018620333
0000d0 7a 25 03 bb 32 0a 7a 3c e3 cf 9a 3c 9c 8a d0 bb
       -0.0020011351 0.01526122 0.018897956 -0.00636418
0000e0 27 22 0e bd f9 ca c5 3c 25 c6 5b bc be 80 fc bc
       -0.03470054 0.024144636 -0.013413941 -0.030823108
0000f0 0e e8 14 3a 3a fd c8 3b 5f 18 a6 bc 4c 22 ce bb
       0.0005680331 0.0061337026 -0.020275293 -0.0062907096
000100 86 fe 25 bb 76 14 aa bc fa 03 05 bd 69 1c 3f 3d
       -0.002532871 -0.02076171 -0.032474495 0.046657953
000110 88 a1 17 bc 0e 54 7a ba 7f 87 8c bc 49 f8 28 bd
       -0.009254821 -0.0009549268 -0.017154453 -0.04125241
000120 c3 55 1c bd a8 95 32 3c e6 b5 c6 bc 26 e0 20 bc
       -0.038167726 0.010899939 -0.024256658 -0.009819066
000130 3d ca 55 3c d7 45 a7 bb 1b f0 2d 3d 9e 22 80 bc
       0.013048706 -0.005104761 0.04246531 -0.015641507
000140 04 35 07 3c 3e 19 bb 3c 75 87 1a bc d8 8a 57 3c
       0.008252386 0.022839185 -0.00943171 0.0131556615
000150 23 ae 86 ba 9a 47 fd 3c 92 e7 7b 3b fb 22 9b bc
       -0.0010275285 0.030917931 0.0038437587 -0.018937578
000160 b8 38 e5 3b 90 ea 09 bb d9 d8 0c bd 78 b0 8c 3c
       0.006995287 -0.002104435 -0.03438649 0.01717399
000170 87 40 60 3d fa c6 05 3d a8 a3 48 3b 0e a0 4b 3c
       0.054749038 0.032660462 0.0030615125 0.012428297
000180 88 85 83 3c f9 c7 10 bd 61 51 91 3c 0b 40 24 3d
       0.016054884 -0.03534696 0.017739 0.04010014
000190 a0 2b 24 3d e2 a3 9b 3c 16 53 8f bc 7f b9 81 ba
       0.040080667 0.018999044 -0.017495673 -0.0009897201
0001a0 d0 ce a8 bc 9f ba 02 bd 48 e6 99 3c 47 b1 6d bb
       -0.020606428 -0.031916257 0.018786564 -0.0036268996
0001b0 f2 f3 27 bd 2f a7 fb bc 7b 5e f7 3c 4e 16 39 bb
       -0.04100413 -0.030719368 0.030196419 -0.0028242054
0001c0 a9 ed 6b 3c 20 16 4f 3d d3 37 00 bd a9 64 1b 3c
       0.014399924 0.05055821 -0.031303238 0.0094844485
0001d0 c5 0d f4 bb 63 f7 14 bd ef 40 c0 3a c0 ff 4e 3d
       -0.0074479305 -0.03636874 0.0014667789 0.05053687
0001e0 05 50 ee bc ab d2 a8 bc ed 09 19 3d 3b d1 e7 bc
       -0.02909089 -0.020608267 0.03736298 -0.028298011
0001f0 60 10 2f 3d ce da 5b bd 08 94 a3 bc 7a f5 70 3c
       0.042740226 -0.053675465 -0.019968048 0.014706964

network_body._body_endoder.seq_layers.2.weight f4 [128, 128]
000000 61 b3 bf 3d eb 7d 00 3e 67 2c c6 bc 82 88 1e bc
       0.09360386 0.12548034 -0.024191095 -0.009676101
000010 8b d8 36 3e cf 4d ce bd 58 7a ca bc 8e ce 27 bd
       0.17856042 -0.100734346 -0.024716541 -0.04096847
000020 b1 68 04 be 6c 8f 26 3d e0 dc 21 be f6 92 5d ba
       -0.12930562 0.04066412 -0.15806913 -0.000845238
000030 db 3b 20 be 74 df dd 3d a6 09 ac 3c 6d 7e a8 3c
       -0.15647833 0.10833636 0.021000694 0.020568097
000040 f1 96 0e 3d 76 6c 78 bd e3 5c 83 bd 94 6e b4 bd
       0.034811918 -0.06065031 -0.06414201 -0.088101536
000050 fe 55 2a 3e 6d 1f 4a bd 55 0a b2 bd d0 3c 01 bd
       0.16634366 -0.049346376 -0.08693377 -0.031552136
000060 8e 15 e2 bc 47 2b 0b bd a5 fb b4 bc 8b c5 a2 3c
       -0.027598169 -0.03397682 -0.02209265 0.019869586
000070 88 6e 2b 3e 88 70 75 bb 58 10 0a 3d 19 8c 97 3d
       0.16741383 -0.0037451107 0.033706993 0.073997684
000080 91 b2 0a bd 1c 96 f7 3d 95 e5 2f 3c c0 53 70 bc
       -0.0338617 0.12089178 0.010735889 -0.014668405
000090 08 f1 3e 3e a8 3b 84 3d 8d e1 27 be 89 40 91 3d
       0.18646634 0.06456691 -0.16394635 0.07092387
0000a0 ac 68 c9 3d b0 8a 5e bc 86 de e1 3a ff fc 84 3d
       0.09834418 -0.01358287 0.0017232455 0.06493568
0000b0 48 7f 4c bc 63 64 51 be aa 3d b1 bd 49 73 1f bd
       -0.012481518 -0.2044845 -0.086543396 -0.038928304
0000c0 80 7b 9a 3c 3d 40 db bb d2 db 1a bd 8d a9 47 3d
       0.018857718 -0.0066910074 -0.037807293 0.04874568
0000d0 cf 0c 3a bd 4e b0 59 be b5 e1 7f bd c9 81 eb 3d
       -0.04542237 -0.21258661 -0.06247111 0.11499364
0000e0 bc 08 a5 3c ba 5a 4c bd 2d 50 63 3c 7e bb 16 be
       0.020145766 -0.04989121 0.013874096 -0.1471996
0000f0 55 5a 90 3d 6c ba e4 3d 1c a0 e4 3c e2 22 a3 bc
       0.070484795 0.1116837 0.027908377 -0.019914094
000100 97 ce 47 bc 26 f5 d4 3d f0 52 33 bd 86 57 80 3d
       -0.012195251 0.10398321 -0.043780267 0.06266694
000110 29 8b cc 3d fe 8b bb 3d cd d3 48 3c a4 3c fb bd
       0.0998748 0.09157561 0.0122575285 -0.12267426
000120 fd 7b 2d 3d fb 59 2a 3c 5e e8 f8 3d 24 32 d3 bc
       0.042354573 0.01039743 0.121536955 -0.025780745
000130 ee 59 24 bd bb 45 e1 3d b2 c9 6a bc 2a 63 49 3c
       -0.040124826 0.10999628 -0.0143303145 0.012291709
000140 4d 03 5b be 0e dd 97 3d 1c 57 d6 3c 02 c8 01 bd
       -0.21387978 0.0741521 0.026164584 -0.031684883
000150 23 21 dd bd 9d e7 e5 bd 40 14 e9 3b 80 3d f9 bc
       -0.10797336 -0.11225817 0.0071130097 -0.030424833
000160 78 d9 93 3d c2 f7 b2 3d 2f 34 89 bd c8 fa 4c bd
       0.07219213 0.08738662 -0.06699406 -0.05004385
000170 2c f2 aa bd 59 2d 41 be 5c c5 4d 3d 8c ad d2 bc
       -0.08346972 -0.18864955 0.050237045 -0.02571752
000180 c4 f0 a3 3d 3f 45 af 3d 11 ee 46 3d f3 2c 08 3a
       0.08004907 0.085581295 0.04856688 0.0005194686
000190 e1 38 c4 3d 00 09 74 bd 32 64 e2 bc d1 9c ec 3c
       0.09581161 -0.059578896 -0.027635667 0.02888337
0001a0 d7 6e 6d 3a 95 46 6a bd b6 f0 99 bc 3d d6 41 be
       0.0009057349 -0.05719622 -0.018791538 -0.18929382
0001b0 ba 8e 82 3d 5d 4d 82 bc 94 7f bd bd 9c 7e cb 3c
       0.06374879 -0.01590603 -0.09252849 0.024840645
0001c0 b3 8a c7 bd 09 95 86 3d c3 73 99 bd d1 60 85 bd
       -0.09743252 0.06571395 -0.07492783 -0.06512607
0001d0 18 11 5c bc 8f 3e 68 bd f6 0a 42 3b a2 5d d1 3d
       -0.01343181 -0.056700286 0.0029608584 0.10222937
0001e0 03 87 f8 3a 50 e1 98 bd 49 f1 76 bd ca 6b bc 3c
       0.0018961135 -0.0746485 -0.0602887 0.023000617
0001f0 8f 5e 6c 3d 5c ef 17 3d 2a d8 ac 3b 78 87 c0 bd
       0.057707366 0.037093505 0.005274792 -0.094008386
000200 ed 01 9f 3c 21 19 f1 3d 9a 51 2a bd 4c fa d8 bd
       0.019410098 0.11772371 -0.041581728 -0.10594615
000210 25 3b 26 be a7 dc 17 3d 1b 8e d6 bd 97 cf 81 3e
       -0.162335 0.037075665 -0.10476323 0.2535369
000220 5d fa 5c 3d c5 68 22 bd d9 a9 9a bc 9c 1f 49 3c
       0.053949703 -0.039650697 -0.018879818 0.012275603
000230 eb 57 1c 3d d3 6a 8a 3e 78 9b a4 bd 81 53 95 bc
       0.038169783 0.27034625 -0.08037466 -0.018228294
000240 82 d5 ef bd 69 83 39 bd d8 ad c3 3d ba cf 3c be
       -0.11710645 -0.045291338 0.095546424 -0.18438616
000250 70 17 79 be 31 9b 08 3d 61 52 ba bc c4 d6 f8 bc
       -0.24325347 0.033351127 -0.02274436 -0.030375846
000260 da 37 91 3d 32 b1 28 be 85 b6 16 be cb ae 46 be
       0.07090731 -0.16473845 -0.14718063 -0.19402616
000270 29 a3 13 3e 58 e1 fd bd e6 f4 c5 bd 3f d3 f5 bc
       0.1441771 -0.123964965 -0.09665851 -0.030007957
000280 dc b6 cb bd 0a d2 05 3e b9 d9 2d be 7e 8f a7 3d
       -0.09946987 0.13068405 -0.16977586 0.08181666
000290 8a 0d 8b bc 85 14 8c bc 82 ff 95 bd 44 3d bc bc
       -0.01697423 -0.017099628 -0.07324125 -0.022978432
0002a0 d0 8c 02 be b9 47 b9 3a f7 90 76 bd ed bb 6c bc
       -0.12749028 0.0014135755 -0.060196843 -0.014449102
0002b0 4e 57 6c 3d d3 a5 79 bd 18 48 5a be 1d 7b d8 bc
       0.057700448 -0.060949158 -0.21316564 -0.026425892
0002c0 6e 94 2f 3c 37 24 c8 bd ce 0b 12 be eb 25 b3 bc
       0.010716541 -0.097725324 -0.14262316 -0.021868667
0002d0 92 58 62 3d 99 33 7b 3b d9 67 fe bd 01 32 b2 3c
       0.05526025 0.0038330315 -0.12422151 0.02175236
0002e0 25 06 ea bc d4 b9 d1 bd b9 24 88 bd e0 5e c3 3d
       -0.028567383 -0.10240522 -0.06647629 0.0953958
0002f0 c2 48 1d bc c5 70 42 bd 07 48 8c 3b d3 90 b0 bc
       -0.009599866 -0.047470827 0.0042810473 -0.021553433
000300 e1 59 38 be 0b 1b c5 bd d4 be 92 bd 63 c1 23 be
       -0.18003036 -0.09624299 -0.07165304 -0.1599174
000310 99 b0 f4 bd ae c5 6d b9 c8 63 0c 3c ee cf 2b 3c
       -0.11947746 -0.00022675723 0.008568712 0.010486586
000320 67 f1 77 3c 00 0b e6 bd 8c 49 c7 bd a1 3e 37 bd
       0.015133238 -0.11232567 -0.09730825 -0.044737462
000330 34 6e 86 3c f2 fb 09 3a 35 fa 42 3e eb 4f be 3d
       0.01640997 0.0005263678 0.19040759 0.09292587
000340 f1 70 eb bc f1 39 8d 3d 0a 12 e7 3c 11 3f 01 be
       -0.028740378 0.06895817 0.028206844 -0.12621714
000350 27 da 3b bd c3 41 ba 3c ee f9 cd 3d 6a 8b ae 3d
       -0.045862343 0.022736436 0.10057436 0.08522685
000360 11 6b d7 bc b9 8d 90 be 96 f8 ef bd ea b1 d3 3d
       -0.02629617 -0.28233126 -0.11717336 0.10336669
000370 e6 97 cb bd be c2 1c be d4 e3 12 3b 7c f8 44 3d
       -0.09941082 -0.15308663 0.0022413628 0.048088536
000380 50 31 8d bd 6d f7 06 bc 47 7d f2 3c bc 49 f6 bc
       -0.06894171 -0.008237702 0.029600753 -0.030064456
000390 1f 47 88 bd 74 db 70 3d bd 79 0b 3e 4c 5c 95 3d
       -0.0665419 0.058803037 0.13620658 0.07292995
0003a0 dc 3f 3f bd a7 49 08 3e f6 df 20 3c 3c 03 43 3d
       -0.04669176 0.13309346 0.009819021 0.047610506
0003b0 55 03 b7 3a cc fb 40 be 59 9e 1c bd 0c 9c 90 3c
       0.0013962785 -0.18846053 -0.03823695 0.017652534
0003c0 48 79 fb 3c 82 c9 af bb f3 a6 8b bd 21 a9 ae bc
       0.03069748 -0.005364598 -0.068189524 -0.021320881
0003d0 a3 5e b9 bb 50 be d0 bd 38 60 c1 bc 2d a4 0a be
       -0.0056570335 -0.10192549 -0.023605451 -0.1353919
0003e0 de af 35 3e 57 b9 73 bd 07 06 0f bd 1d 95 9e bc
       0.1774287 -0.059502926 -0.034917857 -0.019358212
0003f0 ce ca 03 bd b2 73 37 3d 1f 77 c1 bd d2 63 a4 bd
       -0.03217583 0.04478807 -0.09446549 -0.08026852
