NN/Previous/BasicAgent-Level2.onnx (onnx, 95028 bytes, 7 tensors)

action_model._continuous_distribution.log_sigma f4 [1, 2]
-0.060528386 -0.04260643
00000000: 9dec 77bd 1484 2ebd

action_model._continuous_distribution.mu.bias f4 [2]
0.0056306655 -0.006965054
00000000: 7281 b83b 1c3b e4bb

action_model._continuous_distribution.mu.weight f4 [2, 128]
-0.011866033 -0.0046816277 -0.0983412 0.013850521 -0.07438399 -0.0011503921 0.0038328846 0.024331992
-0.00562059 0.0045126188 -0.0418495 -0.02894759 0.02253438 -0.0023886787 0.0140668955 -0.046792343
-0.042617355 0.030554343 -0.012736245 -0.034644857 0.0010044731 0.019232424 0.0047877347 -0.014232472
-0.028120482 0.0019825606 -0.011229346 0.042609826 -0.09310606 -0.03683419 -0.030828534 0.012406266
0.00980902 -0.008489494 0.0023172402 0.0011650723 0.015559413 6.3520034e-05 0.015264157 0.052952982
-0.050209243 -0.0009432429 0.043214865 0.03021179 0.045307416 0.0025702785 0.014529087 0.011351919
-0.04901308 -0.040218443 -0.03501472 0.026137501 -0.014115264 0.035772484 0.036294494 0.04405648
0.011926409 0.014384023 0.0337349 -0.019125082 -0.017557347 -0.01160946 -0.0007540763 -0.033705603
0.005003165 -0.006124017 -0.01649005 0.027470933 0.026140653 0.032504935 -0.030791154 0.0008343325
-0.025426274 -0.024127845 -0.022672633 0.015299708 -0.014476693 -0.0033517168 0.01946335 0.0042571626
0.00040286058 -0.057977155 -0.00077160605 -0.013101232 -0.007163387 0.012859508 -0.011815269 -0.041792467
-0.031688023 0.00035255717 0.011135897 -0.008058975 0.030187635 0.032229096 -0.009091848 -0.018090662
-0.0052984576 -0.040493518 -0.020863397 0.021187438 0.0019811776 0.0078309085 -0.032085147 -0.02690883
0.01182976 0.033904955 -0.033762384 0.016837036 -0.009003824 0.03223707 0.03298689 0.003855189
-0.010797388 -0.018251184 -0.007431584 -0.028575318 0.0025564153 -0.007422027 0.011487968 0.034265265
-0.018103167 0.0067115994 0.020782037 -0.011994434 0.0043146736 -0.08001739 0.021781279 0.004959039
0.0004782295 -0.015015663 0.042908248 -0.035271335 0.033882692 -0.047375184 0.012733731 0.006125105
0.0013000361 -0.00658025 -0.06621637 -0.00029819508 -0.013993391 0.017167691 -0.042942274 -0.018101398
-0.015502704 0.009859757 -0.0003563138 -0.015782986 -0.06016865 -0.0061637587 0.024137907 0.014348204
0.01756654 0.0095642125 0.010177607 -0.04475815 0.0222699 -0.021637002 -0.03658414 0.009070288
0.001591409 0.023864223 -0.005946591 0.005958167 0.032532223 0.01926172 -0.02056562 -0.0512516
-0.028775312 0.0025426075 0.021276303 0.023904461 -0.006564216 0.023225322 -0.0018195201 -0.022977876
-0.04446915 0.06400926 0.0033377758 -0.015507627 -0.013694276 -0.02904553 -0.0067742807 -0.02121837
0.013751327 0.016638625 -0.0017023765 0.014157361 0.013649827 -0.03307098 -0.008640724 -0.001276597
-0.009387635 0.0061515006 0.00045080908 0.008591964 0.045465805 0.017453795 0.010361097 -0.0146574825
-0.03464714 -0.001908724 0.025853619 -0.03921007 -0.04851252 -0.046326026 0.009009661 -0.018199699
0.011879341 0.008874478 0.007662808 -0.019420514 -0.026528548 0.02873736 -0.07003962 -0.025190374
0.004687463 -0.015439433 0.020462075 0.026181346 -0.017153725 0.01638684 0.024556344 0.018112637
-0.0673703 -0.020197345 -0.01399324 0.01048426 -0.01466804 0.013058493 0.04016241 0.010599771
-0.006418695 0.02370895 0.023889568 -0.01786554 0.033562187 0.05258779 -0.0591318 0.009418533
-0.005887829 -0.003869753 0.021859555 0.007062969 0.017855711 0.004933999 0.006713487 0.055905785
0.0011720926 0.024637016 0.004699768 0.06774464 -0.004395236 0.058565162 0.0022847299 0.004531325
00000000: c069 42bc 5768 99bb 1c67 c9bd 4ced 623c
00000010: a256 98bd c1c8 96ba 2231 7b3b e353 c73c
00000020: ed2c b8bb 97de 933b 626a 2bbd 7f23 edbc
00000030: 059a b83c 618b 1cbb d678 663c 54a9 3fbd
00000040: 898f 2ebd 1a4d fa3c afab 50bc c4e7 0dbd
00000050: 86a8 833a 518d 9d3c 6ee2 9c3b 502f 69bc
00000060: ed5c e6bc d9ed 013b 4afb 37bc a487 2e3d
00000070: 64ae bebd 73df 16bd 1f8c fcbc a743 4b3c
00000080: 03b6 203c 8517 0bbc d7dc 173b 57b5 983a
00000090: e8ec 7e3c 0f36 8538 8416 7a3c 3ae5 583d
000000a0: 35a8 4dbd f643 77ba 1202 313d b77e f73c
000000b0: 4594 393d 1e72 283b 680b 6e3c 66fd 393c
000000c0: f0c1 48bd 18bc 24bd 986b 0fbd 501e d63c
000000d0: b543 67bc 2b86 123d 89a9 143d 9174 343d
000000e0: fc66 433c f7aa 6b3c 9b2d 0a3d 34ac 9cbc
000000f0: 6dd4 8fbc 9b35 3ebc 34ad 45ba e30e 0abd
00000100: 97f1 a33b faab c8bb 2416 87bc b90a e13c
00000110: ec24 d63c e523 053d bb3d fcbc 1bb7 5a3a
00000120: c34a d0bc c2a7 c5bc f5bb b9bc a0ab 7a3c
00000130: a72f 6dbc 7aa8 5bbb 9a71 9f3c ab7f 8b3b
00000140: 0837 d339 7479 6dbd 9b45 4aba 8da6 56bc
00000150: d8ba eabb b0b0 523c d494 41bc 942e 2bbd
00000160: 4dcb 01bd 6cd7 b839 5673 363c cb09 04bc
00000170: 0f4c f73c a802 043d f9f5 14bc de32 94bc
00000180: af9e adbb 88dc 25bd b7e9 aabc 4791 ad3c
00000190: a5d6 013b 364d 003c b76b 03bd e86f dcbc
000001a0: 9cd1 413c ecdf 0a3d 6d4a 0abd d3ed 893c
000001b0: c684 13bc 050b 043d 431d 073d 57a7 7c3b
000001c0: 87e7 30bc 8283 95bc a584 f3bb c916 eabc
000001d0: 8889 273b 7a34 f3bb 0838 3c3c bc59 0c3d
000001e0: 184d 94bc faec db3b 173f aa3c 4d84 44bc
000001f0: 1b62 8d3b 28e0 a3bd a76e b23c 6f7f a23b
00000200: e0ba fa39 4104 76bc 8fc0 2f3d ad78 10bd
00000210: 94c8 0a3d 7b0c 42bd 24a1 503c 1bb5 c83b
00000220: f965 aa3a 239f d7bb 739c 87bd 1157 9cb9
00000230: 8944 65bc 42a3 8c3c 3de4 2fbd 6249 94bc
00000240: 0eff 7dbc d18a 213c a1cf bab9 524b 81bc
00000250: 6773 76bd 5bf9 c9bb dcbc c53c bb14 6b3c
00000260: b4e7 8f3c 37b3 1c3c fabf 263c 5254 37bd
00000270: 5e6f b63c 1540 b1bc 40d9 15bd 8c9b 143c
00000280: d396 d03a e77e c33c 9fdb c2bb ba3c c33b
00000290: 8240 053d c1ca 9d3c 3b79 a8bc 33ed 51bd
000002a0: 34ba ebbc e0a1 263b a44b ae3c 4ad3 c33c
000002b0: a318 d7bb 0843 be3c f77c eeba 193c bcbc
000002c0: 4925 36bd 4917 833d 96be 5a3b b413 7ebc
000002d0: f55d 60bc e4f0 edbc c9fa ddbb 26d2 adbc
000002e0: 3f4d 613c ba4d 883c 4722 dfba 47f4 673c
000002f0: 86a3 5f3c 7075 07bd d391 0dbc 7d53 a7ba
00000300: 98ce 19bc 8792 c93b 925a ec39 4fc5 0c3c
00000310: 5a3a 3a3d 43fb 8e3c 97c1 293c f025 70bc
00000320: 29ea 0dbd 262e faba f8ca d33c bd9a 20bd
00000330: 10b5 46bd 5cc0 3dbd 429d 133c 8917 95bc
00000340: 91a1 423c 4266 113c 4b18 fb3b c517 9fbc
00000350: 6652 d9bc 9d6a eb3c ef70 8fbd 0b5c cebc
00000360: 4a99 993b adf5 7cbc 15a0 a73c 437a d63c
00000370: f885 8cbc b23d 863c 632a c93c f460 943c
00000380: 71f9 89bd e774 a5bc e743 65bc 2cc6 2b3c
00000390: 3852 70bc 4af3 553c 5781 243d a9aa 2d3c
000003a0: eb53 d2bb 4639 c23c 0eb4 c33c c15a 92bc
000003b0: 8178 093d 4b66 573d 3034 72bd 3150 1a3c
000003c0: b0ee c0bb af9b 7dbb cf12 b33c 7a70 e73b
000003d0: 2446 923c 62ad a13b d0fc db3b 77fd 643d
000003e0: e7a0 993a 91d3 c93c 8300 9a3b b4bd 8a3d
000003f0: e905 90bb 06e2 6f3d 68bb 153b 827b 943b

network_body._body_endoder.seq_layers.0.bias f4 [128]
-0.014600125 0.007796778 -0.0118318675 -0.00389233 -0.017157014 0.03868069 0.0018810449 0.007024317
0.01409678 0.010014661 -0.008481273 -0.0074248556 0.02619689 -0.008663129 -0.011069929 -0.0017389264
0.001693607 -0.014485515 0.003642314 -0.01959558 -0.0010009838 -0.0030945537 0.001356455 -0.002303592
-0.00678706 0.005905333 0.0038316909 0.0144438995 0.015849907 0.0041713794 0.01739379 -0.013342409
0.032689393 -0.007827376 0.013489809 0.008128155 -0.029527653 -0.014165269 -0.007480958 -0.010297991
-0.024228593 0.0031124614 -0.007993332 0.023185465 0.005624205 -0.04052193 0.019316338 0.00623446
-0.004378731 -0.0049416977 0.040744644 0.0028314018 0.015504745 0.07870531 -0.0033262705 -0.006150348
-0.0054904316 0.000504584 -0.010411969 0.023750763 0.0066288337 0.04891339 -0.0018133435 0.0018285039
-0.0066529852 -0.01906669 -0.0023739818 0.009963717 -0.03443296 0.00020043369 -0.032040086 -0.004405549
0.011249313 -0.00416922 0.021006655 -0.00589612 0.03412257 0.007960316 0.0012466727 0.010031683
0.014410086 4.511715e-05 -0.006625925 0.007408356 0.01392675 -0.00048235775 0.0059842677 0.01747117
0.021313827 -0.0034550147 0.036411665 -0.011232043 0.03506409 -0.006826127 0.0010667905 0.036377877
-0.0014416218 -0.009026846 0.007332057 -0.004078284 0.018545326 -0.012278424 0.011064765 0.016748974
0.011508042 0.008940515 0.049032565 -0.016745316 -0.007518909 -0.034483552 0.016659813 -0.025893535
0.027854368 0.015906153 0.02591318 -0.008292421 0.016025422 -0.002065395 -0.021254571 0.0063841934
0.01224142 -0.0011772992 -0.014054149 -0.008327839 0.0014647167 0.035174176 0.0013450691 -0.0009519015
00000000: 5d35 6fbc 1d7c ff3b 73da 41bc 7616 7fbb
00000010: de8c 8cbc a56f 1e3d 658d f63a 3e2c e63b
00000020: 2ef6 663c 8814 243c 0af5 0abc 344c f3bb
00000030: dc9a d63c ccef 0dbc a65e 35bc b0ec e3ba
00000040: 05fc dd3a a754 6dbc e4b3 6e3b e986 a0bc
00000050: 7133 83ba ffcd 4abb 14cb b13a dcf7 16bb
00000060: fc65 debb 8681 c13b 1b1d 7b3b 1ba6 6c3c
00000070: aad7 813c 11b0 883b 6c7d 8e3c 1f9a 5abc
00000080: 50e5 053d 653e 00bc 5c04 5d3c f42b 053c
00000090: fae3 f1bc 7215 68bc d322 f5bb e8b8 28bc
000000a0: 0b7b c6bc 70fa 4b3b 77f6 02bc 72ef bd3c
000000b0: 404b b83b 53fa 25bd 4c3d 9e3c 714a cc3b
000000c0: 757b 8fbb f7ed a1bb dbe3 263d 0a8f 393b
000000d0: 9d07 7e3c 4030 a13d 8ffd 59bb dc88 c9bb
000000e0: 14e9 b3bb 0f46 043a f796 2abc f690 c23c
000000f0: b036 d93b 6859 483d b6ad edba 69aa ef3a
00000100: 4901 dabb bf31 9cbc ce94 1bbb dc3e 233c
00000110: 9309 0dbd 822b 5239 773c 03bd 6c5c 90bb
00000120: 0a4f 383c f49d 88bb 2616 ac3c 3d34 c1bb
00000130: 1cc4 0b3d fc6b 023c 6567 a33a ee5b 243c
00000140: 4818 6c3c 2c3c 3d38 4a1e d9bb cbc1 f23b
00000150: 062d 643c f6e4 fcb9 ad17 c43b b31f 8f3c
00000160: 569a ae3c 876d 62bb 6624 153d 9a06 38bc
00000170: 5d9f 0f3d b4ad dfbb 8dd3 8b3a f800 153d
00000180: cdf4 bcba 56e5 13bc c141 f03b 20a3 85bb
00000190: 5eec 973c 712b 49bc fd48 353c 2535 893c
000001a0: 3a8c 3c3c 3d7b 123c 5fd6 483d 792d 89bc
000001b0: 2e61 f6bb a03e 0dbd 297a 883c ae1e d4bc
000001c0: d82e e43c 9f4d 823c e147 d43c efdc 07bc
000001d0: bf47 833c 945b 07bb 111e aebc 7f32 d13b
000001e0: 3d90 483c 9b4f 9aba 6043 66bc 7d71 08bc
000001f0: bdfb bf3a cc12 103d 084d b03a 0789 79ba

network_body._body_endoder.seq_layers.0.weight f4 [128, 50]
0.0755772 -0.10488884 0.054931063 -0.12848139 -0.0066160634 -0.22578308 -0.24138732 0.07873737
-0.146872 0.0019860505 -0.14699984 0.027066438 -0.14495029 0.06795148 -0.06694507 0.012626629
-0.028439598 0.12374873 0.29064766 0.008500724 0.08463986 -0.070814155 -0.19050692 0.09951048
0.12573591 0.13870655 -0.074838564 0.02829039 0.08913302 0.08598884 0.13484822 -0.084882505
-0.09660082 -0.025496984 -0.083651595 0.15788576 -0.08383162 0.035585936 0.24074763 0.059999708
0.018186381 0.114486836 -0.07578944 0.006527064 -0.04410575 0.20714447 -0.19661587 0.06853227
0.1892309 -0.019751605 -0.23611909 0.21894026 -0.020304374 0.008108419 0.01965109 -0.2316436
-0.19119702 -0.22434531 -0.10201138 -0.026714705 -0.08119467 0.1425165 0.034083184 -0.39046377
0.027810752 0.04633733 -0.05808099 0.0507361 -0.046340846 0.20932266 -0.21632248 -0.25100696
0.07238692 0.24952875 0.17689611 0.0043074326 -0.16137446 -0.003419344 -0.023291878 -0.06899006
0.116673455 0.14423518 0.09257258 0.017992027 0.05633626 0.30343485 0.07536723 -0.09048045
0.14079355 -0.055927876 -0.22214897 -0.11818148 -0.023201445 -0.003337081 -0.12121626 -0.37127516
-0.12431257 -0.11756303 0.20549527 0.049063183 0.11452824 -0.08887432 0.14135872 -0.19136062
-0.23309131 0.07216037 0.029462684 0.20240195 -0.018412344 -0.10088691 -0.064161785 -0.058050822
-0.04910116 0.12832524 0.10359814 -0.14382738 -0.1628665 0.06904315 0.0326336 -0.20468357
0.07792628 0.09906223 -0.40078235 0.083385296 0.07764112 -0.14060965 0.033436753 0.0625108
-0.037222095 -0.16243167 -6.355908e-05 0.061917085 -0.038328853 -0.05159257 -0.11078154 0.37192547
0.11479366 0.039808474 0.033880267 -0.10036264 0.16156651 -0.30548865 0.32194132 -0.057632424
-0.022849342 -0.14646515 -0.052785065 0.16138767 0.12712905 -0.047801167 -0.02964416 0.07973677
0.030844526 -0.17232525 -0.20945983 -0.09130177 0.14953153 -0.04812906 0.053525433 0.1598691
-0.10228312 0.11615325 0.042866714 0.08198256 -0.094064355 0.108454674 -0.069445804 0.13913743
0.14753923 -0.08730313 -0.2679454 -0.028433839 -0.073137544 0.1572463 -0.14286011 0.24541605
-0.03378753 -0.11914848 0.15340148 0.005127794 0.074619785 -0.012217591 0.16450377 -0.2547063
-0.116199695 -0.004112819 -0.020361157 -0.043838084 0.13357744 0.19159925 -0.09855315 -0.4469602
0.0469385 -0.27402577 -0.0122131 -0.02907765 0.1116729 -0.16703036 -0.14245301 0.10974136
0.24035017 0.13483505 0.07870957 -0.025279108 -0.106181994 -0.20587611 -0.21455638 -0.13103227
-0.17554097 -0.0034910103 0.08883953 -0.010843379 0.24760035 -0.29393673 0.10988064 -0.050542552
0.14643723 0.22173469 0.12297933 -0.06391952 0.03728902 -0.028591184 0.22584625 0.10278997
0.19703665 -0.01847857 0.087083064 -0.02749336 0.00011939121 0.039841704 -0.17343827 -0.09882694
0.059341274 0.18865341 -0.16308582 -0.053737886 0.10907874 -0.0359957 0.049435005 0.21278153
-0.111642875 0.0120985685 -0.025695201 0.0320734 0.26248246 -0.045742422 -0.033213068 -0.05500325
-0.33759135 -0.16210313 0.009577446 -0.05810412 0.10815418 0.14584456 -0.15070078 0.039670616
00000000: 38c8 9a3d f6cf d6bd 65ff 603d a090 03be
00000010: 90cb d8bb ae33 67be 3d2e 77be 0f41 a13d
00000020: 9d65 16be 6628 023b 2087 16be 6fba dd3c
00000030: d96d 14be 252a 8b3d 7f1a 89bd ecdf 4e3c
00000040: 29fa e8bc f96f fd3d c5cf 943e 9f46 0b3c
00000050: aa57 ad3d 0307 91bd 3f14 43be 27cc cb3d
00000060: eac0 003e 1709 0e3e f644 99bd 3fc1 e73c
00000070: 5f8b b63d eb1a b03d a715 0a3e e1d6 adbd
00000080: a7d6 c5bd 0ddf d0bc 8751 abbd ceac 213e
00000090: eaaf abbd 8fc2 113d 8c86 763e 41c2 753d
000000a0: 9bfb 943c 1378 ea3d 7e37 9bbd fbe0 d53b
000000b0: 3ba8 34bd ae1d 543e ac55 49be a65a 8c3d
000000c0: bfc5 413e 1ece a1bc 34c9 71be e031 603e
000000d0: 5c55 a6bc 2dd9 043c 53fb a03c fb33 6dbe
000000e0: 27c9 43be c7ba 65be 58eb d0bd ccd8 dabc
000000f0: 6449 a6bd d8ef 113e cf9a 0b3d deea c7be
00000100: 60d3 e33c 36cc 3d3d 55e6 6dbd a8d0 4f3d
00000110: e6cf 3dbd ae58 563e a483 5dbe fc83 80be
00000120: 983f 943d 7784 7f3e 4124 353e 5d25 8d3b
00000130: 593f 25be 1317 60bb 9cce bebc a94a 8dbd
00000140: 7ef2 ee3d 63b2 133e b196 bd3d 0464 933c
00000150: dac0 663d d05b 9b3e 225a 9a3d d04d b9bd
00000160: 2f2c 103e a114 65bd 057b 63be 2209 f2bd
00000170: f510 bebc eeb2 5abb 3b40 f8bd c717 bebe
00000180: 9797 febd e3c4 f0bd 5a6d 523e 7af6 483d
00000190: c88d ea3d bd03 b6bd 57c0 103e 0af4 43be
000001a0: 7daf 6ebe d1c8 933d ba5b f13c 7542 4f3e
000001b0: 7cd5 96bc cc9d cebd 4167 83bd b3c6 6dbd
000001c0: 4c1e 49bd b167 033e 432b d43d 7c47 13be
000001d0: 7ac6 26be 7f66 8d3d cfaa 053d 9298 51be
000001e0: d097 9f3d 23e1 ca3d 5833 cdbe e9c5 aa3d
000001f0: 4f02 9f3d fafb 0fbe faf4 083d aa05 803d
00000200: 3276 18bd 7d54 26be 054b 85b8 c59c 7d3d
00000210: b7fe 1cbd bb52 53bd 6fe1 e2bd 046d be3e
00000220: f018 eb3d 360e 233d 09c6 0a3d ee8a cdbd
00000230: b171 253e 0269 9cbe 7ed5 a43e fa0f 6cbd
00000240: 8b2e bbbc f6fa 15be 2735 58bd cf42 253e
00000250: 1e2e 023e 28cb 43bd 4fd8 f2bc 084d a33d
00000260: a9ad fc3c 0876 30be a37c 56be 6cfc babd
00000270: cb1e 193e fa22 45bd 7c3d 5b3d bab4 233e
00000280: d079 d1bd c1e1 ed3d 0295 2f3d 79e6 a73d
00000290: d0a4 c0bd 7c1d de3d 9a39 8ebd 0b7a 0e3e
000002a0: 8614 173e fccb b2bd 2430 89be 15ee e8bc
000002b0: 23c9 95bd 2d05 213e ec49 12be 584e 7b3e
000002c0: cb64 0abd 1e04 f4bd 4715 1d3e 0e07 a83b
000002d0: 42d2 983d 4a2c 48bc ad73 283e dd68 82be
000002e0: 1bfa edbd d4c4 86bb 71cc a6bc 908f 33bd
000002f0: 86c8 083e 9832 443e 3cd6 c9bd f8d7 e4be
00000300: 9642 403d 1b4d 8cbe 7419 48bc 4034 eebc
00000310: c3b4 e43d 020a 2bbe 34df 11be 14c0 e03d
00000320: 5b1e 763e 3312 0a3e 7c32 a13d 2216 cfbc
00000330: f275 d9bd 30d1 52be abb4 5bbe 532d 06be
00000340: 03c1 33be 6fc9 64bb 80f1 b53d 6ea8 31bc
00000350: f28a 7d3e e07e 96be 1a09 e13d b505 4fbd
00000360: a4f3 153e 6b0e 633e 96dc fb3d 3de8 82bd
00000370: 5fbc 183d 0f38 eabc 3d44 673e 8c83 d23d
00000380: fac3 493e 5f60 97bc 9b58 b23d c139 e1bc
00000390: ab61 fa38 0e31 233d cd99 31be c765 cabd
000003a0: d60f 733d 5c2e 413e f8ff 26be 421c 5cbd
000003b0: ad64 df3d 3a70 13bd 5c7c 4a3d 67e3 593e
000003c0: 05a5 e4bd 1339 463c be7e d2bc 665f 033d
000003d0: 1a64 863e 685c 3bbd 6d0a 08bd 164b 61bd
000003e0: c6d8 acbe 5dfe 25be b8ea 1c3c 96fe 6dbd
000003f0: f07f dd3d 4758 153e 4e51 1abe a87d 223d

network_body._body_endoder.seq_layers.2.bias f4 [128]
-0.0053588473 -0.0015692536 0.06562268 0.034315653 0.04863037 0.0463187 0.005551399 0.0045939577
-0.009015579 5.66394e-05 0.017577697 0.0040078308 0.012106193 -0.0096756425 0.004495182 -0.0029082873
0.004645948 0.01539371 -0.008876348 -0.0036746154 0.012518164 0.0057520433 -0.00093368604 -0.014941648
-0.010787848 -0.0047081737 -0.019835237 0.045900688 0.019597027 0.014034263 0.009056878 0.007232814
0.015990889 -0.010589871 0.008284413 -0.018032653 0.012590887 -0.0014456556 0.021415718 0.0616589
0.01909657 -0.014856647 -0.0010703525 -0.0010325866 0.0074258447 -0.0076719685 -0.00040506735 0.0009582607
0.011029514 -0.0176325 -0.006016982 0.009553698 0.0049907546 0.007830927 0.008902948 0.014550414
0.004867169 -0.0031393503 0.017626766 0.0049764896 0.005280519 -0.0025321369 -0.006939305 -0.012058711
0.0062062666 -0.011952009 -0.0041576927 0.0042079575 0.004885228 0.0063271066 -0.0057779914 0.00013083582
0.011987777 -0.012221276 -0.01653211 0.005728646 0.010315086 0.022318017 0.013162896 0.011725198
0.0031319424 0.03157368 -0.018347558 0.0016986195 -0.00037728017 0.010002495 0.044520833 -0.0037390918
-0.007849373 0.0022207615 -0.0076170387 -0.0067095095 0.010252716 0.006014671 -0.011654374 0.0011199011
0.032882877 -0.00044996143 -0.0016740704 0.0015957928 0.019233258 -0.03259074 -0.02940032 0.002832419
0.00602832 0.0067866645 -0.0083568115 0.0126622785 -0.008390403 0.0020339028 0.011245773 -0.0074263886
-0.0030952406 -0.0013801466 0.0041193203 -0.010679301 0.020607704 -0.0114748245 -0.0009029914 0.006137833
-0.011649595 0.01667416 0.0033583327 0.015222143 0.0092478115 0.060675114 0.00923359 -0.001208887
00000000: 4599 afbb 6aaf cdba 2f65 863d 928e 0c3d
00000010: a430 473d adb8 3d3d 83e8 b53b e988 963b
00000020: 14b6 13bc 1890 6d38 1aff 8f3c 1f54 833b
00000030: 0e59 463c 9686 1ebc 524c 933b f798 3ebb
00000040: 093d 983b e635 7c3c 1a6e 11bc d1d1 70bb
00000050: fc18 4d3c a37b bc3b 9cc2 74ba d0cd 74bc
00000060: 84bf 30bc 0647 9abb 827d a2bc 5c02 3c3d
00000070: f289 a03c f7ef 653c 4d63 143c 3e01 ed3b
00000080: 53ff 823c 2381 2dbc 59bb 073c 37b9 93bc
00000090: 024a 4e3c 277c bdba 0470 af3c 0b8e 7c3d
000000a0: 6970 9c3c 4b69 73bc 124b 8cba db57 87ba
000000b0: 8054 f33b 2365 fbbb 385f d4b9 c933 7b3a
000000c0: 22b5 343c 0872 90bc 1a2a c5bb 1d87 1c3c
000000d0: 7c89 a33b 4a4d 003c acdd 113c dc64 6e3c
000000e0: c67c 9f3b 8fbd 4dbb 0266 903c d211 a33b
000000f0: 3408 ad3b 35f2 25bb 1c63 e3bb e691 45bc
00000100: f05d cb3b 5cd2 43bc 413d 88bb e8e2 893b
00000110: 4314 a03b 9e53 cf3b 4e55 bdbb f930 0939
00000120: 6268 443c bf3b 48bc 596e 87bc 5eb7 bb3b
00000130: 9b00 293c 46d4 b63c 30a9 573c 0b1b 403c
00000140: 4641 4d3b 6753 013d 9e4d 96bc 36a4 de3a
00000150: b0cd c5b9 81e1 233c 7a5b 363d 8d0b 75bb
00000160: a89a 00bc 328a 113b 5a98 f9bb 72db dbbb
00000170: 02fb 273c b816 c53b fdf1 3ebc a5c9 923a
00000180: 32b0 063d cde8 ebb9 7b6c dbba ec29 d13a
00000190: 118f 9d3c de7d 05bd f1d8 f0bc 1ba0 393b
000001a0: 3789 c53b ab62 de3b 02eb 08bc 7275 4f3c
000001b0: e777 09bc 3a4b 053b 3140 383c 1059 f3bb
000001c0: 85d9 4abb 09e6 b4ba 5dfb 863b 3cf8 2ebc
000001d0: 7dd1 a83c e700 3cbc bab6 6cba e01f c93b
000001e0: f1dd 3ebc 3f98 883c 7917 5c3b 4c66 793c
000001f0: 2284 173c 7886 783d 7c48 173c 8473 9eba

network_body._body_endoder.seq_layers.2.weight f4 [128, 128]
-0.10270866 0.07783441 -0.036388785 0.14701101 -0.018352209 -0.036903147 0.10607306 0.046928562
0.01761385 0.028313769 -0.1386686 0.14497834 0.022616586 -0.00078532554 -0.047235973 0.015035228
0.029074831 0.0074241403 0.04674684 -0.015459954 0.08861075 0.12158839 0.10115351 -0.011305179
0.06606091 0.07964842 0.05498279 0.27116528 0.036583044 0.032747477 0.016010424 0.13721596
0.008444822 -0.22925684 -0.08511792 -0.048257034 0.16286509 -0.19625711 -0.080466464 -0.083926916
0.040883556 -0.14260393 -0.002742984 -0.05870838 -0.0710457 -0.00725843 0.075238325 -0.104837105
0.0024505653 0.14684854 0.012129151 -0.15058069 -0.076102294 -0.054491263 0.055500314 0.022360088
-0.12212338 -0.021699637 -0.13786155 -0.00019942441 0.02560633 -0.099561036 -0.028010434 0.1598129
-0.12479136 0.057133257 -0.1017132 -0.05464633 -0.09574697 0.056074955 -0.03230545 0.00044879262
-0.050606214 -0.03626355 -0.10292265 0.1412829 -0.13152474 0.047122058 -0.00678294 0.08324656
-0.12998666 0.05485651 -0.123237826 0.07479112 -0.124618135 0.089291245 -0.09865273 -0.02174674
-0.096119106 -0.09966425 0.117239244 0.04599171 -0.0021660144 0.15733889 -0.20808053 0.0017905401
-0.09730292 0.09882509 -0.021731041 -0.058301862 0.0016118672 0.043684836 -0.011472936 0.10031882
0.0031563605 0.035326496 0.0022730997 0.07435997 -0.103778765 0.013030413 -0.14532232 -0.18910323
-0.115164764 0.07202925 0.022755679 -0.009818259 0.09432568 0.08333299 0.17339689 -0.06877005
0.034040112 0.16009699 -0.054531284 -0.042779703 0.10430533 -0.23968753 -0.063228704 -0.06765637
0.059660405 0.04803329 -0.014201106 -0.034680314 -0.17156565 -0.13957232 -0.11132247 -0.030677993
-0.074633375 -0.00916926 0.10180422 -0.040584043 0.028987154 0.04843479 -0.18235733 -0.08836618
0.037255198 0.031625904 -0.06004001 0.086726055 -0.056299035 -0.023851736 -0.025054872 0.022709083
-0.10823307 0.049661398 0.09107311 0.0073499684 0.0010744755 0.07256616 -0.05488238 0.07260614
0.10279028 0.013384988 -0.039311327 -0.1529695 0.061010543 0.03652549 -0.047850877 0.03316413
0.080805115 0.05743484 -0.018659664 -0.02036245 -0.0283742 -0.021826094 0.11110908 -0.08465253
-0.025093075 0.016709981 -0.027559804 -0.04941912 0.111238815 0.017982729 -0.043918118 -0.024235085
-0.04659824 -0.04349579 0.013958328 -0.01812796 -0.044312004 -0.0059548253 0.10291554 -0.019928973
-0.20929725 0.036434803 0.004007756 0.024823196 0.03856648 -0.052106418 0.030415231 0.04719735
0.0101103205 0.08631419 -0.039162084 0.18096231 -0.2857525 0.037159517 0.051682524 -0.043563955
0.16317739 0.019699384 0.04015336 -0.20370464 -0.0486023 0.123891465 -0.15907964 -0.11813812
-0.007178199 0.14574656 0.116762966 0.03833751 -0.029935503 -0.16955075 0.026917245 0.053897087
-0.015465208 -0.09701417 0.048805762 0.06763503 0.0002499463 -0.0069243796 0.06547678 -0.1366117
-0.029949946 0.06650467 -0.018084086 0.1286693 -0.069169976 0.038452517 -0.00792239 0.08708924
0.08865221 0.14655744 0.017187353 0.02477937 -0.01270073 -0.042049058 0.0016614881 0.026133647
0.083432645 0.018781098 -0.04176237 0.09664047 -0.03298199 -0.052178625 -0.073613256 -0.1049109
00000000: eb58 d2bd a667 9f3d 680c 15bd 0e8a 163e
00000010: 5f57 96bc c127 17bd d53c d93d 2a38 403d
00000020: ec4a 903c 47f2 e73c 24ff 0dbe 3475 143e
00000030: 6b46 b93c 4ede 4dba 827a 41bd 5156 763c
00000040: 572e ee3c 3446 f33b 9d79 3f3d bf4b 7dbc
00000050: 8e79 b53d 5503 f93d 9229 cf3d 5c39 39bc
00000060: f14a 873d b61e a33d a235 613d 2dd6 8a3e
00000070: 1ad8 153d 3822 063d 4b28 833c 5782 0c3e
00000080: 275c 0a3c 4ec2 6abe 4e52 aebd 2ba9 45bd
00000090: 1bc6 263e a0f7 48be 9acb a4bd e0e1 abbd
000000a0: 8475 273d c406 12be a3c3 33bb 3378 70bd
000000b0: 6880 91bd 20d8 edbb 8d16 9a3d d6b4 d6bd
000000c0: aa99 203b 775f 163e 59b9 463c d331 1abe
000000d0: 85db 9bbd 3b32 5fbd 4c54 633d 812c b73c
000000e0: d31b fabd 70c3 b1bc 942b 0dbe 951c 51b9
000000f0: 5ec4 d13c a8e6 cbbd 2376 e5bc fea5 233e
00000100: 9d92 ffbd 9004 6a3d 034f d0bd d5d4 5fbd
00000110: fd16 c4bd daae 653d b852 04bd ed4b eb39
00000120: 7648 4fbd 1789 14bd 1cc9 d2bd 77ac 103e
00000130: 6cae 06be 0f03 413d 6d43 debb 2c7d aa3d
00000140: 391b 05be 38b1 603d 1d64 fcbd 162c 993d
00000150: cb37 ffbd 54de b63d 710a cabd 3826 b2bc
00000160: 18da c4bd c51c ccbd 211b f03d ce61 3c3d
00000170: b1f3 0dbb 721d 213e 1013 55be 8eb0 ea3a
00000180: c146 c7bd cf64 ca3d 4c05 b2bc efcd 6ebd
00000190: 4a45 d33a dfee 323d fbf8 3bbc f473 cd3d
000001a0: f1da 4e3b 84b2 103d 49f8 143b 0a4a 983d
000001b0: f689 d4bd 837d 553c 60cf 14be 47a4 41be
000001c0: 81db ebbd 1284 933d 1e6a ba3c c3dc 20bc
000001d0: d22d c13d 7daa aa3d f48e 313e 50d7 8cbd
000001e0: a56d 0b3d 77f0 233e 325c 5fbd c539 2fbd
000001f0: 089e d53d a670 75be 0d7e 81bd 6c8f 8abd
00000200: 785e 743d 8ebe 443d c1ab 68bc f20c 0ebd
00000210: e8ae 2fbe 0cec 0ebe 09fd e3bd 6a50 fbbc
00000220: 62d9 98bd aa3a 16bc bb7e d03d 743b 26bd
00000230: 7876 ed3c 8f63 463d e1bb 3abe 54f9 b4bd
00000240: e898 183d 2a8a 013d 83ec 75bd 6e9d b13d
00000250: d199 66bd b764 c3bc e03f cdbc 6608 ba3c
00000260: 4da9 ddbd c069 4b3d 8a84 ba3d 01d8 f03b
00000270: 6ad5 8c3a 919d 943d 59cc 60bd 87b2 943d
00000280: b683 d23d b54c 5b3c ea04 21bd 09a4 1cbe
00000290: 31e6 793d c19b 153d 48ff 43bd 1cd7 073d
000002a0: 277d a53d cb40 6b3d 27dc 98bc 27cf a6bc
000002b0: 0371 e8bc a3cc b2bc 288d e33d 4e5e adbd
000002c0: fe8f cdbc 5fe3 883c 19c5 e1bc b46b 4abd
000002d0: 2dd1 e33d 8450 933c 7ce3 33bd a888 c6bc
000002e0: ccdd 3ebd a428 32bd 79b1 643c 1681 94bc
000002f0: 8180 35bd b220 c3bb 62c5 d23d 1642 a3bc
00000300: 0552 56be a93c 153d 7e53 833b 045a cb3c
00000310: e3f7 1d3d 8a6d 55bd 5d29 f93c 0252 413d
00000320: c2a5 253c 7ec5 b03d 6c68 20bd 2f4e 393e
00000330: 274e 92be 9434 183d 0eb1 533d 1e70 32bd
00000340: f917 273e 9a60 a13c da77 243d f397 50be
00000350: 3513 47bd cfba fd3d c6e5 22be 66f2 f1bd
00000360: 1937 ebbb 963e 153e 6c21 ef3d cb07 1d3d
00000370: 4d3b f5bc b69e 2dbe 8e81 dc3c 31c3 5c3d
00000380: c961 7dbc 5daf c6bd 8de8 473d 3c84 8a3d
00000390: 390b 8339 e8e5 e2bb b118 863d f0e3 0bbe
000003a0: 9759 f5bc 9a33 883d 1425 94bc e3c1 033e
000003b0: fda8 8dbd 6380 1d3d e9cc 01bc d85b b23d
000003c0: 4a8f b53d 2713 163e 7ecc 8c3c 1bfe ca3c
000003d0: b916 50bc a23b 2cbd 4ac6 d93a 3b16 d63c
000003e0: bcde aa3d d1da 993c 050f 2bbd 70eb c53d
000003f0: 2018 07bd 41b9 55bd 8cc2 96bd 87db d6bd
