NN/Previous/BasicAgent-Level2 (3).onnx (onnx, 95028 bytes, 7 tensors)

action_model._continuous_distribution.log_sigma f4 [1, 2]
0	0xbdb66edd	-0.08907864
1	0xbddc1e41	-0.10747958

action_model._continuous_distribution.mu.bias f4 [2]
0	0xbc9fa8a1	-0.019489588
1	0x3d0c6ab0	0.034281433

action_model._continuous_distribution.mu.weight f4 [2, 128]
0	0x3d3fa56e	0.046788625
1	0xbcae44ca	-0.021273036
2	0x3c995837	0.018718822
3	0x3d1e6cb7	0.038677897
4	0x3d13794b	0.036004346
5	0xbb219dca	-0.00246607
6	0x3cdd4ec2	0.027015094
7	0x3d349543	0.04408766
8	0x3ca78e86	0.020453703
9	0x3cb8e448	0.02256979
10	0xbc4b4b49	-0.012408086
11	0x3cfeed68	0.031119063
12	0x3c65fb7a	0.0140370075
13	0xbb6d460a	-0.0036205077
14	0xbc517159	-0.012783372
15	0x3b4f010f	0.0031586324
16	0x3cbe9567	0.0232646
17	0x3bdbe1c7	0.0067102644
18	0x3d2b2e1a	0.041792013
19	0x3ceec471	0.029146405
20	0xbb425dfd	-0.0029658072
21	0x3c3713c0	0.011174142
22	0xbd0605a2	-0.032720216
23	0x3c59bf96	0.013290307
24	0xbcf60055	-0.030029455
25	0x3a36d244	0.0006974081
26	0xbc1e2673	-0.009652722
27	0x3cb895f9	0.02253245
28	0x3d3285a2	0.043584473
29	0x3bc36673	0.0059631406
30	0xbbd5f6a1	-0.0065296446
31	0x3d62685f	0.055275317
32	0x3d8ba5e6	0.06818752
33	0x3c8a3e6d	0.01687547
34	0xbbf5f662	-0.0075061778
35	0x3bbee852	0.0058260346
36	0x3d0a393a	0.03374598
37	0x3c57a7a7	0.01316253
38	0x3c089053	0.008335191
39	0xbc6ebff0	-0.014572129
40	0xbcc8158b	-0.024424335
41	0x3d173ed0	0.036925137
42	0xbcb31057	-0.021858377
43	0x3d59564f	0.053060826
44	0xbbc2a058	-0.0059395246
45	0x3cee016a	0.029053409
46	0x3a0ea522	0.0005441477
47	0xbc8f2c0b	-0.017477056
48	0x3d8552a0	0.065099
49	0x3cf9f409	0.030511873
50	0x3d7b755b	0.061391216
51	0x3bbacc74	0.0057006422
52	0x3d7e513a	0.062089182
53	0xbaadfd2e	-0.0013274306
54	0xbce378f1	-0.02776763
55	0x3d47a360	0.04873979
56	0x3c797ff3	0.015228259
57	0x3c47c846	0.012193745
58	0x3cc44cc0	0.023962379
59	0x3c7b59a2	0.015341194
60	0xbb8a0027	-0.004211444
61	0x3bff4cc4	0.0077911336
62	0x3cc7c9da	0.024388243
63	0x3d4efa1d	0.050531495
64	0xbcd88103	-0.026428705
65	0x3d35b774	0.044364408
66	0x3cbff9a4	0.023434468
67	0xb9b93163	-0.00035322746
68	0xbbb68622	-0.005570189
69	0xbcc034e3	-0.023462718
70	0x3d3b9dfe	0.04580497
71	0x3d117e5b	0.035520893
72	0x3d22c44c	0.039737985
73	0x3cbfd7e3	0.023418372
74	0x3bc0b9be	0.005881517
75	0x3cc4d09a	0.02402525
76	0xbd006c26	-0.03135314
77	0x3cddebfe	0.027090069
78	0x3da89f51	0.08233512
79	0xbbc606f7	-0.0060433107
80	0xbc58c19b	-0.013229753
81	0xbc00e907	-0.007868058
82	0xbb84ae14	-0.004049072
83	0x3d4cec3d	0.050029982
84	0x3cbcfe07	0.023070348
85	0xbd56e113	-0.05246074
86	0x3c9ed3b6	0.019388061
87	0xbc543755	-0.012952645
88	0x3691e13d	4.347558e-06
89	0xbcabe6fa	-0.020984162
90	0x3d13a149	0.036042485
91	0x3d507e90	0.05090195
92	0x3d8da31a	0.06915875
93	0xbc1ff095	-0.009761949
94	0xbce0287e	-0.027363058
95	0x3daad742	0.083418384
96	0xbc46453b	-0.012101467
97	0x3d22596c	0.03963606
98	0x3c1a0498	0.009400509
99	0xbd522f4c	-0.051314637
100	0xbd056a9b	-0.03257237
101	0xbc55ccd5	-0.013049324
102	0x3c94f6df	0.018184124
103	0x3cdd0deb	0.026984176
104	0x3cdda2f0	0.027055234
105	0x3c32f660	0.010922998
106	0xbce73c99	-0.028227137
107	0x3ce36009	0.027755754
108	0x3d048d8f	0.032361563
109	0x3d7f12a0	0.06227362
110	0xbdb1b6dd	-0.086774565
111	0x3c5f231d	0.0136192115
112	0x3d023bba	0.03179524
113	0xbd067051	-0.032821957
114	0x3c00a06c	0.007850748
115	0xbc8d6f3c	-0.017264955
116	0x3c36442d	0.011124653
117	0x3c49ceb6	0.01231735
118	0xbc3ebe00	-0.011641979
119	0xbd004d2f	-0.031323608
120	0x3c91eee6	0.017814111
121	0x3cd0d9d7	0.0254945
122	0xbc069be5	-0.008215879
123	0xbaa0669c	-0.0012237611
124	0xbcbeb823	-0.023281163
125	0x3be57bf2	0.007003301
126	0x3cfc35d4	0.030787386
127	0xbd1324ad	-0.03592365
128	0xbdaaa2a5	-0.08331803
129	0xbd1518e6	-0.036400698
130	0xbce2d66b	-0.027690133
131	0x3ca85ee3	0.020553058
132	0x3ad4d782	0.0016238543
133	0x3c1d5eef	0.009605153
134	0xbd82fb52	-0.06395592
135	0xbceba886	-0.028766882
136	0x3cf71e50	0.030165821
137	0xbc2a2793	-0.010385412
138	0x3d8ab0d3	0.06772008
139	0x3b3bca26	0.0028654425
140	0xbd1258f0	-0.03572935
141	0x3c416bd2	0.0118054915
142	0xbc59f590	-0.013303176
143	0x3d0327c3	0.03202034
144	0xbc84836a	-0.016175944
145	0xbc128075	-0.008941759
146	0xbc173983	-0.00923002
147	0x3d78bb0a	0.06072525
148	0x3d08aaad	0.033365894
149	0xbc55862e	-0.013032479
150	0xbc9e8a1b	-0.019352963
151	0xbdb93d11	-0.090448506
152	0x3cb40cce	0.021978762
153	0x3ccad969	0.024761872
154	0x3c21f9dc	0.009886231
155	0xbc87986f	-0.016552178
156	0xbc048a46	-0.008089608
157	0xbc9bdfc7	-0.019027604
158	0x3cbc5a44	0.02299226
159	0xbcb0b55c	-0.021570854
160	0xbcc60dbc	-0.024176471
161	0xbc80663f	-0.015673755
162	0x3c8ac53b	0.01693975
163	0x3d29cb08	0.04145339
164	0xbd06de36	-0.03292676
165	0xbd98aed3	-0.0745522
166	0x3c3600eb	0.011108617
167	0xbc8778a2	-0.016537014
168	0xbd55b84c	-0.052177712
169	0xbd3c4871	-0.045967523
170	0xbce6d9c9	-0.02818002
171	0xbdf156aa	-0.11784108
172	0xbaab932f	-0.0013090129
173	0xbd2a41dc	-0.041566715
174	0x3b95004e	0.0045471555
175	0xbc4436ba	-0.011975938
176	0xbd53c67b	-0.051702958
177	0xbda43efa	-0.08019824
178	0x3cf74d0a	0.030188102
179	0x3ce0c0b9	0.027435647
180	0x3d995a22	0.074878946
181	0x3cb702ab	0.02234014
182	0xbb0ebc44	-0.0021779696
183	0x3c12272d	0.008920473
184	0xbcf0a7d6	-0.029376905
185	0x3cfbf263	0.030755227
186	0x3d635831	0.055504028
187	0xbcaca4f4	-0.02107475
188	0xbc153cd8	-0.009108745
189	0x3ba89393	0.0051445453
190	0x3b9d3ec9	0.0047987443
191	0xbd074b80	-0.033030987
192	0xbc8867c7	-0.016651047
193	0xbc18a71f	-0.0093171885
194	0x38570df6	5.1272997e-05
195	0x3ce56bd8	0.028005525
196	0xbbd54966	-0.006508994
197	0xbc321f1d	-0.010871676
198	0x3cafc8d1	0.021458061
199	0xbcce872a	-0.025210936
200	0xbcafb66c	-0.02144929
201	0x3cb5af8a	0.02217843
202	0xbacfd0be	-0.0015855057
203	0x3be17438	0.0068803094
204	0xbc1b5890	-0.009481564
205	0x3ba3271e	0.0049790284
206	0xbd55832f	-0.05212706
207	0xbc3e7904	-0.011625532
208	0x39b606f3	0.00034718923
209	0x3ca10646	0.019656312
210	0xbcc2cf31	-0.023780437
211	0xbd5710f1	-0.05250639
212	0xbbcb9184	-0.006212415
213	0x3d05b20a	0.032640494
214	0x3c39d1c3	0.011341515
215	0xbc84e847	-0.01622404
216	0xbd712032	-0.058868594
217	0xbc9102e7	-0.01770158
218	0xbd0dc0a0	-0.03460753
219	0xbc50a21b	-0.012733961
220	0xbdaf772a	-0.085676506
221	0x3b6a5fb2	0.0035762605
222	0xbc53a5dd	-0.012917963
223	0xbd040b3f	-0.032237288
224	0xbaf779c8	-0.0018880898
225	0xbd688b5c	-0.05677353
226	0x3c6c80ae	0.0144349765
227	0x3cc8c000	0.024505615
228	0x3bbbe994	0.005734632
229	0x39d1a69b	0.00039987717
230	0x3d53ba1e	0.051691167
231	0x3c38dae5	0.011282657
232	0xbac16e00	-0.0014757514
233	0xbd176315	-0.036959726
234	0x3b0b8324	0.0021287883
235	0x3be10b95	0.0068678358
236	0xbcd7c76c	-0.026340209
237	0xbce6d11a	-0.02817588
238	0xbca6f931	-0.020382496
239	0xbc580162	-0.013183923
240	0x3d15eaad	0.036600757
241	0xbde2e661	-0.110790975
242	0xbb98329a	-0.004644704
243	0xbbefac70	-0.0073142573
244	0xbb877163	-0.00413339
245	0xbc3634f0	-0.01112102
246	0xbd103fd8	-0.035217136
247	0x3d3b766d	0.045767237
248	0xbb1d9fd1	-0.0024051557
249	0xbc664616	-0.014054796
250	0x3d261ad6	0.040552936
251	0xbc9bc7ea	-0.019016225
252	0x3d093aad	0.033503223
253	0xbcccecb5	-0.025015214
254	0xbc1848e1	-0.009294719
255	0x3a1f225e	0.000607049

network_body._body_endoder.seq_layers.0.bias f4 [128]
0	0xbbe9cd90	-0.0071351007
1	0xbc05be70	-0.00816308
2	0x3920570d	0.00015291218
3	0x3d2128b0	0.039345443
4	0xbb8c1449	-0.004274879
5	0x3cbd89cd	0.023136998
6	0x3cb55cba	0.022138942
7	0xbc11f41c	-0.008908298
8	0xbd3e353e	-0.046437494
9	0xbd04e9ee	-0.032449655
10	0x3cdfffb2	0.027343605
11	0xbcec90ee	-0.028877702
12	0xbd155924	-0.036461964
13	0x3c9eeeca	0.019400973
14	0xbcfb3d08	-0.03066875
15	0x3c806dfb	0.015677443
16	0xbbcdb41a	-0.0062775733
17	0x3d95704c	0.072968096
18	0x3c9210ed	0.017830336
19	0xbbf06f3d	-0.0073374794
20	0x3cd89532	0.02643833
21	0xbd3def14	-0.04637058
22	0xbd0fbd4e	-0.035092644
23	0xbbd25c3d	-0.006419687
24	0x3ca74a60	0.020421207
25	0xba1bb8eb	-0.00059403357
26	0xbc46a8ae	-0.012125177
27	0xbc497c8b	-0.01229776
28	0xbc01ef06	-0.007930523
29	0xbcdcf9f2	-0.026974652
30	0x3c13e1cc	0.009026002
31	0x3d23236e	0.03982871
32	0x3d5df572	0.054189153
33	0x3cabe45b	0.020982912
34	0xbc6da145	-0.014503782
35	0x3ce6c547	0.028170241
36	0xbca2810b	-0.019836923
37	0x3d2d666a	0.042333998
38	0xb996774d	-0.00028699116
39	0x3cde5993	0.027142322
40	0xbc178b0d	-0.009249461
41	0x3d73c0e6	0.059510134
42	0x3cff3b24	0.03115613
43	0xbc764b7f	-0.015032648
44	0xbc75a5a3	-0.014993104
45	0xbcd151ed	-0.02555176
46	0xbc930cc2	-0.01795042
47	0xbc6f683a	-0.014612252
48	0xbd51853a	-0.051152445
49	0xbc95f74e	-0.0183064
50	0xbd2345f0	-0.03986162
51	0xbd66d860	-0.056358695
52	0xbc8d19ba	-0.017224181
53	0x3c61ed3e	0.013789473
54	0x3ca1d214	0.019753493
55	0x3ca9802c	0.020691
56	0x3b5bbaf6	0.0033528185
57	0x3bf704d8	0.007538419
58	0xbd203662	-0.039114363
59	0xbd32da08	-0.043664962
60	0xbcc0147b	-0.023447266
61	0xbcc105ba	-0.023562301
62	0x3d830c0b	0.063987814
63	0x3bbcdb18	0.0057634227
64	0xbcccc262	-0.024995033
65	0xbbc89ec0	-0.00612244
66	0x3c8e0459	0.017336057
67	0xbc26eb15	-0.010187884
68	0x3c09460a	0.008378515
69	0x3ce8e66a	0.028430182
70	0xbcf5476d	-0.029941285
71	0xbc1206b4	-0.008912731
72	0x3bf4693a	0.007458833
73	0xbd11cb94	-0.035594538
74	0xbc9fd204	-0.019509323
75	0xbc2a4c45	-0.010394161
76	0x3c8da4da	0.017290521
77	0x3d945610	0.072429776
78	0x3a2d1da9	0.0006603846
79	0x3c46ceb2	0.012134241
80	0x3d8b316a	0.06796534
81	0x3d23ea89	0.040018592
82	0xbcb3e3ef	-0.021959273
83	0x3c3e5a87	0.011618263
84	0xbcdf9ce7	-0.027296497
85	0x3bb3a173	0.0054818927
86	0xbd1c1903	-0.03810979
87	0xbc9e8880	-0.019352198
88	0xbcb927ca	-0.02260198
89	0x3d05fda1	0.032712582
90	0xbcea88a0	-0.028629601
91	0xb9fd42a4	-0.00048305572
92	0x3c65c16e	0.014023168
93	0x3c7be073	0.015373337
94	0x3ce21ab1	0.027600618
95	0xbb98b722	-0.004660503
96	0x3b33293b	0.0027337808
97	0xbcb03e26	-0.02151401
98	0xbcaa39d0	-0.02077952
99	0x3cb67a0c	0.022274993
100	0x3d01a396	0.03165015
101	0x3d200a6e	0.039072447
102	0x3d167dae	0.03674095
103	0xbb880f05	-0.004152181
104	0xbccb175b	-0.02479141
105	0x3c6aa32c	0.01432113
106	0x3d314e61	0.04328764
107	0x3c42965a	0.011876667
108	0x3cf125ae	0.029436912
109	0x3d85a294	0.0652515
110	0xbc3e6567	-0.011620856
111	0x3d0aacac	0.03385608
112	0xbcaa516d	-0.02079078
113	0xbc24c3e6	-0.010056471
114	0xbcfe55dc	-0.0310468
115	0xbcd3e3b1	-0.025865408
116	0x3d2d433c	0.042300448
117	0xbc9f80ca	-0.019470591
118	0xbcae8a1b	-0.021306088
119	0x3d01702d	0.03160112
120	0xbbdc7232	-0.0067274803
121	0x3d088c2d	0.033336807
122	0x3d361f5b	0.044463497
123	0xbcd3d358	-0.025857612
124	0x3d1b0aa5	0.03785195
125	0x3c817703	0.01580382
126	0x3be586ec	0.0070046093
127	0xbc65039e	-0.013977913

network_body._body_endoder.seq_layers.0.weight f4 [128, 50]
0	0x3cfaffa8	0.030639485
1	0xbd0a02c9	-0.033694062
2	0x3cb1d455	0.021707693
3	0xbda3efb6	-0.080047056
4	0xbe94ade1	-0.2903891
5	0x3d2c810b	0.042115252
6	0x3e0ee58d	0.13954754
7	0x3e13886e	0.14407513
8	0xbe41a930	-0.18912196
9	0xbe8a86b3	-0.27055892
10	0xbe3c84c3	-0.1841002
11	0xbe0cfa6f	-0.13767408
12	0x3d5e02c0	0.05420184
13	0xbe4a1741	-0.19735433
14	0x3e8ede0b	0.2790378
15	0x3e9ed8ef	0.31024882
16	0x3d1a7648	0.037710458
17	0xbd040e03	-0.032239925
18	0xba98562a	-0.0011622359
19	0xbda7d3da	-0.08194704
20	0x3d42a7be	0.047523253
21	0x3e885524	0.26627457
22	0xbe249d4e	-0.16075632
23	0xbe117358	-0.14204156
24	0xbc851b54	-0.016248383
25	0xbb3b6d71	-0.0028599168
26	0xbd4d2110	-0.05008036
27	0x3d3a9b8d	0.0455585
28	0xbdbac385	-0.09119324
29	0xbe10fc5f	-0.14158772
30	0x3c0c19ea	0.0085511
31	0x3edff757	0.43743393
32	0xbdc44597	-0.09583586
33	0x3d0980e0	0.03357017
34	0x3cdc636e	0.02690288
35	0xbd904971	-0.07045258
36	0x3e49f473	0.19722156
37	0xbe2a966c	-0.16658944
38	0x3c3fa618	0.011697315
39	0xbdae5e39	-0.08514065
40	0x3e0e8d81	0.13921167
41	0xbe17c677	-0.14821802
42	0xbd0b2bc8	-0.0339773
43	0xbe12a89a	-0.14322129
44	0x3db018cc	0.0859848
45	0x3b1ff96e	0.0024410146
46	0x3e0eb63b	0.13936703
47	0xbf0bb291	-0.54569346
48	0x3e984c78	0.2974584
49	0x3e5f4100	0.2180214
50	0xbdae87b9	-0.08521981
51	0x3dced4e0	0.100991964
52	0x3e2f7bcf	0.17137073
53	0xbe9788ba	-0.29596502
54	0xbd581f98	-0.052764505
55	0xbd5fe7e3	-0.054664504
56	0x3da001ea	0.07812865
57	0x3e75b309	0.23994078
58	0x3d73c83a	0.059517123
59	0x3e431fd0	0.19055104
60	0x3dc51d98	0.09624785
61	0x3e1b4c75	0.15165885
62	0xbdef5455	-0.11686007
63	0x3e2e353e	0.17012498
64	0xbd62bc5a	-0.055355407
65	0x3d959bde	0.0730512
66	0xbd94c17c	-0.07263467
67	0x3db1160d	0.08646784
68	0xbe3011e1	-0.1719432
69	0x3e1fe155	0.15613301
70	0x3c08f993	0.008360284
71	0x3e62d01a	0.22149697
72	0xbda90940	-0.082537174
73	0xbd953e9e	-0.07287334
74	0x3e1d32a8	0.15351355
75	0x3e55cb10	0.20878243
76	0x3d33c0db	0.043885093
77	0xbdaa4e25	-0.08315686
78	0xbe0038f4	-0.12521726
79	0x3d2fea64	0.04294814
80	0x3e0fbd44	0.14037043
81	0x3a976691	0.0011550953
82	0xbbb352a3	-0.0054724975
83	0xbe243fed	-0.16040011
84	0xbe143947	-0.14474975
85	0xbc057832	-0.008146333
86	0xbd5e5d11	-0.054287974
87	0xbba47e3f	-0.0050199325
88	0xbdbe5516	-0.092935726
89	0x3cb38085	0.021911869
90	0xb9b7a317	-0.0003502599
91	0xbe5e4ee5	-0.21709783
92	0xbe6ee17b	-0.23328201
93	0xbe9e4b32	-0.30916744
94	0xbc19b34b	-0.009381126
95	0x3e2867b6	0.16445813
96	0xbdc2fc71	-0.095208056
97	0x3e381e9e	0.1798043
98	0x3d4c9905	0.04995062
99	0x3e2caf1e	0.16863677
100	0xbbb7ebc8	-0.005612824
101	0xbe2a2599	-0.16615905
102	0xbcf8eb61	-0.030385675
103	0x3e870cc9	0.26376942
104	0x3d94234d	0.072332956
105	0xbd6df485	-0.05809452
106	0xbc9acd80	-0.018896818
107	0xbdcfcd2f	-0.101465575
108	0x3daea66f	0.085278384
109	0x3d9226cc	0.07136306
110	0xbd53414c	-0.051575944
111	0xbd7857fb	-0.06063078
112	0x3cc0c605	0.023531923
113	0xbcc2b0d1	-0.023765953
114	0xbda5d4ee	-0.08097254
115	0x3ba94619	0.005165827
116	0xbe40be88	-0.18822682
117	0x3e30029b	0.17188494
118	0x3d883089	0.06649882
119	0xbcd7d1d3	-0.02634517
120	0xbdc96f3c	-0.098356694
121	0x3dec8ee6	0.11550693
122	0xbea69726	-0.32537192
123	0xbcdb00c2	-0.02673376
124	0x3e6ea723	0.23305945
125	0x3e11d998	0.14243162
126	0xbd2672fa	-0.040636994
127	0xbd9bd7a5	-0.0760949
128	0x3e2f450d	0.17116185
129	0xbe2c964c	-0.16854209
130	0x3e30c1eb	0.17261474
131	0x3eaa6f4b	0.33288035
132	0x3de1699c	0.110064715
133	0xbd79ec40	-0.06101632
134	0x3df704bc	0.1206145
135	0x3e0b5d43	0.13609795
136	0x3d62d3b4	0.055377677
137	0xbe302fdd	-0.17205758
138	0xbe0fe24f	-0.14051174
139	0xbd98bcb1	-0.07457865
140	0x3d411408	0.047138244
141	0x3e54e5cb	0.20790784
142	0xbd93a37a	-0.07208915
143	0x3d87514b	0.06607302
144	0x3d4674bf	0.04845118
145	0xbde8cdb7	-0.11367362
146	0x3c3f7af5	0.01168703
147	0xbe39ba3e	-0.18137452
148	0x3e3fef81	0.18743707
149	0xbd199702	-0.037497528
150	0xbc8b106b	-0.016975602
151	0xbd3ea7a6	-0.0465466
152	0x3e6dc3f6	0.23219284
153	0x3d7733aa	0.060352005
154	0x3e111bfb	0.1417083
155	0xbd186789	-0.037208114
156	0x3db4753a	0.08811422
157	0x3e59cbfb	0.21269219
158	0x3e0148d6	0.12625441
159	0x3e8272ee	0.2547831
160	0x3ebd0e1e	0.36924833
161	0x3e834595	0.25639024
162	0x3e06f4af	0.13179277
163	0x3e85735d	0.26064578
164	0x3dbdf572	0.092753306
165	0xbc0eb557	-0.008710227
166	0xbe140fb2	-0.14459112
167	0x3e6bcaab	0.2302653
168	0xbe25e8ac	-0.16202039
169	0x3e0ffa32	0.14060286
170	0x3d912c08	0.070884764
171	0xbe86283e	-0.26202577
172	0xbe37abe4	-0.17936665
173	0x3c340dd7	0.010989628
174	0xbd9b52d0	-0.075841546
175	0x3e765d52	0.24059036
176	0xbde0b11d	-0.10971282
177	0xbc27aedb	-0.01023456
178	0x3e68c149	0.22729982
179	0x3cc78425	0.024355004
180	0xbcbf848f	-0.023378639
181	0xbd1052f0	-0.035235345
182	0x3e75c597	0.24001156
183	0xbdfc1785	-0.123091735
184	0x3e20d8bf	0.15707682
185	0x3e2c019f	0.16797493
186	0xbd3ac590	-0.045598567
187	0xbe26515a	-0.1624197
188	0x3ea4e4b4	0.32205737
189	0x3e04ba9a	0.12961808
190	0xbe187941	-0.14890005
191	0xbe66289e	-0.22476432
192	0x3dadd1ff	0.08487319
193	0xbd4f8e4d	-0.050672818
194	0xbded572a	-0.11588891
195	0xbcedeee8	-0.029044583
196	0xbd917c95	-0.0710384
197	0xbd9e8b42	-0.07741405
198	0xbd8c7b3c	-0.068594426
199	0xbd588073	-0.052856874
200	0x3e0a79d5	0.13523038
201	0xbe1e7aa9	-0.15476479
202	0xbe024747	-0.12722503
203	0xbda4c7d6	-0.08045928
204	0xbd35d0ed	-0.0443887
205	0xbe0d5eac	-0.13805646
206	0x3e2ad110	0.16681314
207	0xbe1f3dcd	-0.15550919
208	0xbe352913	-0.1769145
209	0x3cc532b4	0.024072029
210	0xbbbbf46e	-0.0057359254
211	0xbdcf28f2	-0.101152316
212	0xbe4c290f	-0.19937538
213	0x3e6254dd	0.22102685
214	0x3d4d2799	0.05008659
215	0x3d869c1c	0.06572744
216	0xbe1b4593	-0.15163259
217	0xbdd45381	-0.103674896
218	0xbd50b63d	-0.050955046
219	0xbdd107c9	-0.10206563
220	0xbdcb8e24	-0.099392205
221	0x3dacbadc	0.08434078
222	0x3e294f35	0.16534121
223	0xbdc59cce	-0.09649049
224	0xbdb9642b	-0.09052309
225	0x3de14ca5	0.11000947
226	0xbe6dcb1e	-0.23222014
227	0xbde89fc3	-0.11358597
228	0xbe93fe80	-0.28905106
229	0x3e66296c	0.22476739
230	0x3da30704	0.079603225
231	0x3cacf514	0.021112956
232	0x3d8c0f51	0.06838859
233	0xbe313211	-0.17304255
234	0xbe015abd	-0.1263227
235	0xbe3cf205	-0.18451698
236	0x3e8c6b7a	0.27425748
237	0xbd476df7	-0.048688855
238	0x3e17c66a	0.14821783
239	0x3d05379c	0.032523736
240	0x3d63b3b0	0.055591285
241	0xbd8b1fe7	-0.06793194
242	0x3d57d206	0.05269053
243	0x3cb4d435	0.022073844
244	0x3e804274	0.250507
245	0x3dee7525	0.11643437
246	0xbe051e2c	-0.12999791
247	0x3e2108c5	0.15726002
248	0x3bc974c4	0.0061479528
249	0xbd88361f	-0.06650948
250	0x3caba283	0.020951515
251	0x3d328ffd	0.04359435
252	0xbd441fa0	-0.047881722
253	0xbd69230b	-0.056918185
254	0xbdc5a95d	-0.09651444
255	0x3e1fc18f	0.1560118

network_body._body_endoder.seq_layers.2.bias f4 [128]
0	0x3d11d636	0.035604678
1	0x3c596371	0.013268338
2	0xbd2d2eaf	-0.04228085
3	0x3ad7668e	0.0016433762
4	0xbc8a3979	-0.016873108
5	0x3cdcc8df	0.026951252
6	0xbad5d002	-0.0016312602
7	0xbbf44d8a	-0.0074555324
8	0xbc50d361	-0.012745709
9	0x3c34c2e6	0.0110327955
10	0x3d381c7d	0.044949044
11	0xbc53dd02	-0.01293111
12	0x39e06f8c	0.00042807718
13	0x3be54a1c	0.00699736
14	0xbc9bf566	-0.019037914
15	0x3d5f35bc	0.054494604
16	0xbcedaaa2	-0.029012028
17	0xbd221577	-0.03957125
18	0x3c6dd670	0.014516458
19	0xbc483c52	-0.012221413
20	0x3d39d085	0.045364875
21	0xbd514051	-0.051086728
22	0xbc1fabc3	-0.009745541
23	0x3d394979	0.045236085
24	0x3d0f6e90	0.03501755
25	0x3cfe6d6d	0.031058038
26	0x3cd65f17	0.02616839
27	0xbc8e1e26	-0.01734836
28	0xbcab4ad1	-0.020909699
29	0xbd1afa51	-0.037836377
30	0x3d13db33	0.036097717
31	0xbc8203c1	-0.01587093
32	0x3ac7dc13	0.0015248082
33	0xbd1a488d	-0.037666846
34	0x3d1865bd	0.0372064
35	0x3d03350c	0.03203301
36	0x3cd83969	0.026394563
37	0xbd350e23	-0.044202935
38	0x3c657b86	0.014006501
39	0xbba029f0	-0.004887812
40	0x3c19182f	0.009344145
41	0xbc4fe35f	-0.012688487
42	0xbc593020	-0.013256103
43	0x3cd7b096	0.02632932
44	0x3c206174	0.00978886
45	0x3c8b6812	0.017017398
46	0x3c8b256c	0.016985618
47	0xbbbb0651	-0.00570754
48	0x3c3f7ba1	0.01168719
49	0x3cea6e2e	0.02861699
50	0x3c8bec1e	0.017080363
51	0xbc9bfc6c	-0.019041263
52	0xbb7d5ab0	-0.003865879
53	0x3c9531cc	0.018212222
54	0x3c925079	0.017860638
55	0xbbcf3591	-0.0063235243
56	0xbd12ec7c	-0.03587006
57	0x3cd5b7da	0.026088644
58	0xbc85d622	-0.016337458
59	0xbd0029ee	-0.031289987
60	0xba2ed2ac	-0.0006668966
61	0x3bf468a9	0.0074587655
62	0xbca9351a	-0.020655204
63	0xbb963b47	-0.004584703
64	0xbb75fffc	-0.0037536612
65	0xbcaa5eea	-0.020797212
66	0xbcf3e179	-0.0297706
67	0x3d481a9a	0.048853494
68	0xbc30bd76	-0.0107873585
69	0xbb0be65b	-0.002134702
70	0xbc897d73	-0.016783452
71	0xbd286805	-0.041114826
72	0xbd1f5a15	-0.03890427
73	0x3c51cf6a	0.012805799
74	0xbcc1fb9f	-0.023679553
75	0xbc278cec	-0.0102264695
76	0x3c3ddad0	0.0115878135
77	0xbb381991	-0.002809141
78	0x3d2c2fb9	0.0420377
79	0xbc880e5f	-0.016608415
80	0x3c0029e0	0.007822484
81	0x3cd8b1be	0.026451942
82	0xbc3ad99a	-0.011404419
83	0x3c596cac	0.013270538
84	0x397f917e	0.00024372895
85	0x3cfc487b	0.03079628
86	0x3c16d74e	0.009206606
87	0xbca55d37	-0.02018605
88	0x3bebf135	0.007200385
89	0xbb322899	-0.0027184843
90	0xbd1037c7	-0.035209443
91	0x3c7f986a	0.015600303
92	0x3d6316e1	0.05544174
93	0x3d0656ed	0.032797743
94	0x3ac1f25a	0.0014796958
95	0x3c40c73a	0.011766249
96	0x3c765cb1	0.015036748
97	0xbd149288	-0.036272556
98	0x3c992820	0.01869589
99	0x3d2a2d1e	0.041546933
100	0x3d24c0a3	0.040222775
101	0x3c9552df	0.018227993
102	0xbcaadbdb	-0.020856788
103	0x373dac95	1.130546e-05
104	0xbc9d9fb2	-0.019241188
105	0xbd09d863	-0.033653628
106	0x3c972aa9	0.01845296
107	0xbb302d04	-0.00268823
108	0xbd2acb37	-0.041697707
109	0xbcfcceb0	-0.030860275
110	0x3cde197c	0.027111761
111	0xbb1da157	-0.0024052465
112	0x3c838b7c	0.016057722
113	0x3d4445b5	0.04791804
114	0xbd0129c0	-0.031533957
115	0x3c0b6003	0.008506778
116	0xbbf01853	-0.0073271184
117	0xbd1814c5	-0.037129182
118	0x3a5a98ce	0.000833881
119	0x3d56d209	0.0524464
120	0xbcefaeec	-0.029258214
121	0xbca614d8	-0.020273611
122	0x3d1f30df	0.038864966
123	0xbcf325b3	-0.029681062
124	0x3d33818d	0.04382472
125	0xbd5fcf52	-0.054641075
126	0xbc9ceda6	-0.019156288
127	0x3c73a7a9	0.014871516

network_body._body_endoder.seq_layers.2.weight f4 [128, 128]
0	0x3dbe34f8	0.09287447
1	0x3e0092ae	0.12555954
2	0xbcce4061	-0.025177183
3	0xbc129bd5	-0.008948286
4	0x3e370b31	0.17875363
5	0xbdce5ee9	-0.100766964
6	0xbcc2ed06	-0.023794662
7	0xbd26ada0	-0.040692925
8	0xbe060b0e	-0.13090155
9	0x3d2a04df	0.04150855
10	0xbe20f237	-0.15717398
11	0x3898f659	7.2938106e-05
12	0xbe20cc48	-0.15702927
13	0x3ddf85d5	0.10914198
14	0x3cb51000	0.022102356
15	0x3caf3e89	0.021392124
16	0x3d0aff21	0.033934716
17	0xbd73a85b	-0.05948673
18	0xbd84304d	-0.06454525
19	0xbdb59f8d	-0.088683225
20	0x3e2b41ee	0.16724369
21	0xbd50d268	-0.05098191
22	0xbdb05f0b	-0.08611878
23	0xbd040cd2	-0.03223879
24	0xbcf2c004	-0.029632576
25	0xbd096dc7	-0.033551957
26	0xbcc17dcf	-0.02361956
27	0x3ca7fa5b	0.020505121
28	0x3e2aed72	0.1669214
29	0xbb44e5a0	-0.0030044094
30	0x3d07ef4d	0.0331872
31	0x3d977e07	0.07397085
32	0xbd077031	-0.03306598
33	0x3df66a06	0.12031941
34	0x3c1f62e7	0.00972817
35	0xbc742849	-0.014902183
36	0x3e3fc2ef	0.18726705
37	0x3d8311e7	0.06399899
38	0xbe2715be	-0.16316888
39	0x3d909f06	0.07061581
40	0x3dc8c7bf	0.098037235
41	0xbc517d50	-0.0127862245
42	0x3aec4a00	0.0018027425
43	0x3d8304e0	0.06397414
44	0xbc4cd104	-0.012501005
45	0xbe508e7e	-0.20366856
46	0xbdb1ff6d	-0.08691297
47	0xbd215e2d	-0.039396454
48	0x3c99a3f4	0.018754937
49	0xbbed0b17	-0.007233988
50	0xbd18eda2	-0.037336
51	0x3d475c39	0.048671935
52	0xbd3762cb	-0.04477195
53	0xbe58884d	-0.21145745
54	0xbd7d2b54	-0.0618089
55	0x3ded156d	0.11576352
56	0x3ca4e12d	0.020126903
57	0xbd4d4e4a	-0.05012349
58	0x3c71a1d2	0.014748054
59	0xbe1665ef	-0.14687322
60	0x3d91f6f0	0.07127178
61	0x3de3af98	0.11117476
62	0x3ce9583a	0.028484453
63	0xbc9a539f	-0.018838702
64	0xbc4bed02	-0.012446644
65	0x3dd671ba	0.1047091
66	0xbd2e7db7	-0.04260036
67	0x3d81cd33	0.06337967
68	0x3dcb6494	0.09931293
69	0x3dbdcab1	0.09267176
70	0x3c55e90f	0.013056054
71	0xbdf98f24	-0.12185505
72	0x3d2d3d2a	0.04229466
73	0x3c349c8a	0.01102365
74	0x3dfcd70e	0.12345706
75	0xbcce1bc8	-0.025159732
76	0xbd25fcec	-0.04052441
77	0x3de14cdb	0.11000987
78	0xbc5a09de	-0.013308017
79	0x3c4d4882	0.012529494
80	0xbe591f25	-0.21203287
81	0x3d9a2c03	0.07527926
82	0x3cd9361c	0.02651506
83	0xbd058064	-0.032593146
84	0xbddc7919	-0.10765285
85	0xbde662e9	-0.11249334
86	0x3bf57399	0.007490587
87	0xbcf26cd9	-0.029592918
88	0x3d95683e	0.07295273
89	0x3db553c0	0.08853865
90	0xbd89d712	-0.067304745
91	0xbd514baf	-0.051097568
92	0xbdab27f4	-0.0835723
93	0xbe403e99	-0.18773879
94	0x3d544e72	0.051832624
95	0xbccd8c91	-0.025091441
96	0x3da2fa1e	0.07957862
97	0x3db0b03c	0.08627364
98	0x3d442b64	0.047892943
99	0x3ac0e74e	0.0014717372
100	0x3dc613e2	0.09671761
101	0xbd7a44c5	-0.06110074
102	0xbce69a8d	-0.028149867
103	0x3cebdbac	0.028791271
104	0x3aec4c73	0.0018028155
105	0xbd6ba88b	-0.057533782
106	0xbc8ecdf8	-0.017432198
107	0xbe41c4f0	-0.18922782
108	0x3d81cdff	0.06338119
109	0xbc7d1db7	-0.015448979
110	0xbdc047f5	-0.09388725
111	0x3ccdce3c	0.025122754
112	0xbdc77822	-0.097397104
113	0x3d88c729	0.06678612
114	0xbd983e32	-0.07433738
115	0xbd87a933	-0.06624069
116	0xbc4e91ca	-0.012608001
117	0xbd69a135	-0.057038505
118	0x3b6738c4	0.0035281638
119	0x3dd07385	0.101782836
120	0x3b02135c	0.0019847965
121	0xbd970a85	-0.07375053
122	0xbd762118	-0.060090154
123	0x3cc13392	0.023584161
124	0x3d706614	0.0586911
125	0x3d14e6ca	0.03635291
126	0x3bc3f6ca	0.0059803473
127	0xbdbde669	-0.09272463
128	0x3ca99b35	0.020703891
129	0x3def84f4	0.11695281
130	0xbd1ee885	-0.038795967
131	0xbdd77cf7	-0.10521882
132	0xbe26b13c	-0.16278547
133	0x3d1928e5	0.037392516
134	0xbdcfec2d	-0.10152469
135	0x3e815690	0.25261354
136	0x3d59e68c	0.053198382
137	0xbd1a7578	-0.037709683
138	0xbcb4d2dc	-0.022073202
139	0x3bcfcc57	0.006341498
140	0x3d1cc910	0.038277686
141	0x3e89af92	0.26891762
142	0xbdb50b40	-0.088400364
143	0xbca4ce0e	-0.020117786
144	0xbdebe6c0	-0.115186214
145	0xbd3a8b28	-0.045542866
146	0x3dc2ef2c	0.09518275
147	0xbe3c652d	-0.1839797
148	0xbe7915c1	-0.24324705
149	0x3d09b27f	0.033617493
150	0xbca63c78	-0.020292506
151	0xbcf77390	-0.030206472
152	0x3d9c5aca	0.07634504
153	0xbe24459f	-0.16042183
154	0xbe13408d	-0.14380093
155	0xbe45d17b	-0.19318192
156	0x3e137bff	0.1440277
157	0xbdfdb4b9	-0.12387986
158	0xbdc48728	-0.095960915
159	0xbcf98c18	-0.03046231
160	0xbdccc4ec	-0.09998497
161	0x3e05c654	0.13063937
162	0xbe2bda2a	-0.16782442
163	0x3da74fa6	0.081694886
164	0xbc8838b4	-0.0166286
165	0xbc83047c	-0.01599335
166	0xbd95b102	-0.07309152
167	0xbcc10ad8	-0.023564741
168	0xbe002e1e	-0.12517592
169	0x3a3e6368	0.00072627375
170	0xbd79dff3	-0.06100459
171	0xbc5b65bf	-0.013390957
172	0x3d6b8d7a	0.05750797
173	0xbd6d468e	-0.057928614
174	0xbe59dcf2	-0.2127569
175	0xbcced2e3	-0.025247043
176	0x3c27bb8f	0.010237589
177	0xbdc74378	-0.097296655
178	0xbe12cd66	-0.14336166
179	0xbcbd82fd	-0.02313375
180	0x3d666bcd	0.05625515
181	0xbad50f9c	-0.0016255262
182	0xbdfe1382	-0.124060646
183	0x3cb1b272	0.021691535
184	0xbce718bd	-0.028210038
185	0xbdd34c87	-0.10317331
186	0xbd894b77	-0.06703847
187	0x3dc16d83	0.09444716
188	0xbbc51f15	-0.006015668
189	0xbd44508e	-0.047928385
190	0x3b4a0cc5	0.0030830365
191	0xbca5159e	-0.02015191
192	0xbe389b93	-0.18028097
193	0xbdc2f91f	-0.09520172
194	0xbd95d034	-0.07315102
195	0xbe2392ac	-0.1597392
196	0xbdf452b6	-0.11929838
197	0x3a4ae7e8	0.0007740245
198	0x3c260e1d	0.010135201
199	0x3c386543	0.011254611
200	0x3c702c7d	0.014659044
201	0xbdeb0418	-0.1147539
202	0xbdcbe81e	-0.09956382
203	0xbd2bffb2	-0.041991897
204	0x3c8a54b2	0.016886089
205	0xba0127d4	-0.00049268943
206	0x3e4380d9	0.1909212
207	0x3dbcaa1e	0.09212135
208	0xbcff1519	-0.03113799
209	0x3d923d0e	0.071405515
210	0x3ce0660a	0.027392406
211	0xbdfeb6fa	-0.12437244
212	0xbd405305	-0.046954174
213	0x3cb6c9ca	0.022313017
214	0x3dcbfa28	0.09959823
215	0x3db2ce5f	0.087307684
216	0xbcd6b3c8	-0.026208773
217	0xbe91b31d	-0.28456965
218	0xbdf3b6ee	-0.119001254
219	0x3dd95d9c	0.10613558
220	0xbdd42809	-0.103591986
221	0xbe1baa47	-0.15201674
222	0xb9edb619	-0.00045339836
223	0x3d4a43ac	0.049380943
224	0xbd8d70c9	-0.06906278
225	0xbbb4834f	-0.0055088173
226	0x3cf4414c	0.029816292
227	0xbce1b427	-0.027551724
228	0xbd87802b	-0.06616243
229	0x3d6de64f	0.058080968
230	0x3e0b9eb5	0.1363476
231	0x3d93dcc3	0.07219841
232	0xbd44ba51	-0.048029248
233	0x3e084b2c	0.13309926
234	0x3c18fcaf	0.009337588
235	0x3d40916e	0.047013693
236	0x3abec2f1	0.0014553947
237	0xbe415e65	-0.18883665
238	0xbd2219b6	-0.0395753
239	0x3c88d4c0	0.01670301
240	0x3cf88996	0.030339044
241	0xbc04f254	-0.008114416
242	0xbd8986d5	-0.0671517
243	0xbca7537c	-0.02042555
244	0xbb5e86db	-0.0033954892
245	0xbdd252f3	-0.102697276
246	0xbcb73f2d	-0.022368992
247	0xbe0ac24d	-0.13550682
248	0x3e34f17c	0.17670244
249	0xbd6fe549	-0.058568273
250	0xbd139ad1	-0.036036316
251	0xbc7f8dd8	-0.015597783
252	0xbcf4c170	-0.029877394
253	0x3d3bb017	0.04582223
254	0xbdc334fd	-0.09531591
255	0xbdad498a	-0.08461292
