NN/BasicAgent-Level3.onnx (onnx, 95028 bytes, 7 tensors)

action_model._continuous_distribution.log_sigma f4 [1, 2]
-0.7040555 -0.51325536
00000000: fb3c 34bf b464 03bf

action_model._continuous_distribution.mu.bias f4 [2]
0.010929526 0.062777296
00000000: c111 333c 6291 803d

action_model._continuous_distribution.mu.weight f4 [2, 128]
0.014043752 -0.035249874 0.0998855 -0.1285742 0.096778266 -0.021481039 -0.012570518 -0.040974367
-0.011770646 -0.016465146 0.04630975 -0.0037729468 0.07148619 0.00539504 0.024145793 -0.0055244705
0.010313268 0.065310106 0.11728048 -0.06957164 0.022687282 -0.015807146 -0.12836123 -0.07227959
0.1414126 -0.0072153206 0.031150332 -0.015710855 0.020392764 -0.019660095 0.0077798995 0.07212766
-0.0052723545 -0.070348464 0.010516657 -0.1012605 0.019417606 0.06349732 0.004879745 0.05875889
0.103343114 -0.17366135 -0.03239202 0.026014 0.056569826 0.078432195 -0.00096901506 0.03331434
0.058752153 -0.003007001 -0.018447302 0.07707262 -0.016823942 0.015793182 0.0004884788 0.114757545
0.025975136 0.0028819742 -0.016339665 0.03441947 0.025965901 0.013451564 0.038849957 0.011346334
0.01652039 -0.025508523 0.029249312 -0.0021260031 -0.018123256 -0.0011099495 -0.023800615 -0.040561523
-0.03477713 -0.03774832 0.06440204 0.17894384 0.014346503 -0.01536412 -0.07072865 -0.12228844
-0.09515157 0.04412182 0.008439883 0.019225158 -0.03390569 0.0049369764 -0.014789944 -0.061146084
-0.0006602631 0.024092155 -0.013621722 -0.035178673 0.0044687167 0.0948483 0.047348652 -0.031676635
-0.027865598 0.092686586 -0.11280716 0.030456705 0.044307586 0.0045889323 0.023949875 -0.0029712718
-0.048170898 0.0004137975 0.015152208 0.01588442 0.06598704 0.06903038 -0.0020644553 -0.0135604
-0.01848931 0.0025556688 -0.010976808 0.07996122 0.033196934 -0.037457183 0.04185184 0.031895142
-0.015788317 -0.01179814 -0.06994415 0.00033975256 -0.0013146976 0.07557693 0.105208375 0.04838776
-0.011610826 0.02684018 -0.081797875 -0.112908155 -0.13957855 -0.024260411 0.03930382 0.06352416
0.038032323 -0.010671 -0.030302308 -0.006368166 -0.083738804 0.008188214 -0.04493872 -0.010219503
-0.042248745 -0.051646024 0.026689798 -0.0826353 0.005857889 -0.024566418 0.072195046 0.03864635
-0.09531818 0.02437955 0.06215098 0.009882916 0.023448424 0.073121764 0.004005002 -0.10920605
-0.050521795 -0.06642114 -0.008773035 -0.08673843 0.041441932 0.02705387 -0.018260395 -0.03283567
-0.1433247 -0.10655752 0.050103445 0.014160712 0.013677391 0.041937776 0.00011652942 0.031939093
-0.030277517 -0.02755311 0.0064731613 -0.10215946 0.04142466 -0.06141882 -0.010136971 -0.06171458
-0.0007492446 0.008351551 -0.018443324 0.0151601955 0.0053574513 -0.032272168 0.038829476 0.04177295
-0.00018929981 -0.0851921 -0.021878807 -0.099458314 -0.016404223 -0.013506782 -0.038382504 -0.042489156
0.0009924204 0.04800204 -0.026602129 -0.024259271 -0.018703705 0.014044099 -0.0075230286 -0.05588563
-0.06816667 -0.020972695 -0.02178568 0.015304544 -0.104685634 0.023946838 -0.02082086 -0.11811224
-0.12780398 0.03553703 0.024767702 0.017960956 0.03899039 0.00023149638 -0.04969294 0.1022608
-0.014785465 -0.05532174 -0.11976687 -0.08886551 -0.15210065 -0.0050442135 -0.113947496 0.098827854
0.13364045 0.0188804 0.0045287088 -0.01217711 0.03225819 -0.04105482 -0.0066286526 0.031468127
0.033127785 -0.007256723 -0.02334233 -0.06832793 -0.008249695 0.034061875 -0.0088619795 -0.15034479
0.02644917 -0.038714357 -0.03617186 -0.0011036071 -0.017532853 -0.025032043 -0.01508267 0.053786628
00000000: c417 663c 2c62 10bd c590 cc3d f5a8 03be
00000010: af33 c63d 01f9 afbc 93f4 4dbc bdd4 27bd
00000020: abd9 40bc eae1 86bc 4baf 3d3d 8b43 77bb
00000030: 5a67 923d e0c8 b03b 66cd c53c 9e06 b5bb
00000040: fbf8 283c 4ec1 853d c030 f03d 937b 8ebd
00000050: aeda b93c fd7d 81bc 2071 03be 5207 94bd
00000060: 77ce 103e 7f6e ecbb fb2e ff3c 0db4 80bc
00000070: ba0e a73c 350e a1bc 87ee fe3b abb7 933d
00000080: b7c3 acbb db12 90bd 0e4e 2c3c aa61 cfbd
00000090: ac11 9f3c e20a 823d 45e6 9f3b 29ad 703d
000000a0: 8ea5 d33d 48d4 31be 7fad 04bd 501b d53c
000000b0: c3b5 673d 0fa1 a03d 8005 7eba 9e74 083d
000000c0: 19a6 703d 1b11 45bb cc1e 97bc 40d8 9d3d
000000d0: 5dd2 89bc b460 813c 420d 003a 0106 eb3d
000000e0: cfc9 d43c 81df 3c3b c3da 85bc 6efb 0c3d
000000f0: 71b6 d43c f363 5c3c 2221 1f3d f9e5 393c
00000100: c555 873c 40f7 d0bc 419c ef3c 6a54 0bbb
00000110: 3977 94bc ba7b 91ba 82f9 c2bc d723 26bd
00000120: 7772 0ebd fb9d 1abd 37e5 833d 0e3d 373e
00000130: 980d 6b3c cab9 7bbc 2fda 90bd 5d72 fabd
00000140: d4de c2bd 15b9 343d 6f47 0a3c 147e 9d3c
00000150: b1e0 0abd 5cc6 a13b 8551 72bc 5174 7abd
00000160: 8215 2dba e95c c53c a52d 5fbc 8317 10bd
00000170: 506e 923b d33f c23d a9f0 413d 5cbf 01bd
00000180: 6546 e4bc 77d2 bd3d 7107 e7bd 5780 f93c
00000190: df7b 353d c15e 963b 8732 c43c abb9 42bb
000001a0: d94e 45bd f6f2 d839 f740 783c 0b20 823c
000001b0: 3724 873d cd5f 8d3d d04b 07bb 712c 5ebc
000001c0: e576 97bc 027d 273b 12d8 33bc b5c2 a33d
000001d0: 82f9 073d b46c 19bd d66c 2b3d 7ba4 023d
000001e0: 8056 81bc fc4c 41bc e13e 8fbd d120 b239
000001f0: ee51 acba 14c8 9a3d 7d77 d73d 3e32 463d
00000200: 553b 3ebc f0df db3c a585 a7bd 643c e7bd
00000210: aeed 0ebe c5bd c6bc 0bfd 203d f418 823d
00000220: c8c7 1b3d 6bd5 2ebc 8c3c f8bc 0cac d0bb
00000230: 407f abbd dc27 063c aa11 38bd b46f 27bc
00000240: 050d 2dbd c88a 53bd 90a4 da3c b23c a9bd
00000250: 89f3 bf3b 833f c9bc ffda 933d a34b 1e3d
00000260: 2e36 c3bd 9fb7 c73c 0792 7e3d f4eb 213c
00000270: e916 c03c ddc0 953d 643c 833b 6ca7 dfbd
00000280: f1ef 4ebd cf07 88bd c7bc 0fbc eba3 b1bd
00000290: 04bf 293d 14a0 dd3c d396 95bc b27e 06bd
000002a0: b6c3 12be d43a dabd 4539 4d3d 5502 683c
000002b0: 2317 603c f2c6 2b3d 4261 f438 91d2 023d
000002c0: 8e08 f8bc 0fb7 e1bc d01c d43b fb38 d1bd
000002d0: e7ac 293d 4d92 7bbd 8a15 26bc 6dc8 7cbd
000002e0: f468 44ba f2d4 083c 7416 97bc 7862 783c
000002f0: 8f8d af3b d22f 04bd a80b 1f3d 1d1a 2b3d
00000300: c87e 46b9 3279 aebd 2f3b b3bc cdb0 cbbd
00000310: 2662 86bc 8d4b 5dbc f936 1dbd 1c09 2ebd
00000320: 1a14 823a c99d 443d b5ec d9bc 61bb c6bc
00000330: 8338 99bc 3819 663c bd83 f6bb 55e8 64bd
00000340: f89a 8bbd eece abbc e277 b2bc e9bf 7a3c
00000350: 6c65 d6bd 292c c43c 8290 aabc d5e4 f1bd
00000360: 0cdf 02be 478f 113d a3e5 ca3c db22 933c
00000370: 63b4 1f3d d6bd 7239 d38a 4bbd 1c6e d13d
00000380: bc3e 72bc 0d99 62bd 5548 f5bd 1fff b5bd
00000390: 46c0 1bbe ee49 a5bb 4e5d e9bd 4266 ca3d
000003a0: 0bd9 083e 12ab 9a3c 9065 943b 8082 47bc
000003b0: 2a21 043d 1929 28bd 2b35 d9bb b9e4 003d
000003c0: 00b1 073d cec9 edbb 6a38 bfbc 84ef 8bbd
000003d0: bb29 07bc 7784 0b3d d631 11bc fcf3 19be
000003e0: eeab d83c f292 1ebd f228 14bd e9a6 90ba
000003f0: 0fa1 8fbc 0010 cdbc 4e1d 77bc 5e4f 5c3d

network_body._body_endoder.seq_layers.0.bias f4 [128]
0.13645707 -0.026097465 0.09113663 -0.015831154 0.04025808 -0.058951315 -0.005045771 -0.051566828
0.05596556 -0.061943866 -0.0093698865 0.12477151 -0.090806104 0.007859162 -0.005413651 -0.045409575
-0.065360434 0.022241138 0.049886897 -0.049908474 -0.033415575 -0.01878996 0.0585412 -0.031408347
-0.04593709 -0.057200104 -0.018323485 -0.08685024 0.023150623 -0.0016930636 0.05871081 0.122574344
-0.027613843 0.09019247 -0.03226694 0.058597036 0.038444065 0.023621008 -0.077240825 -0.045141794
-0.011254052 -0.039912663 0.05771652 0.014347894 -0.04632353 -0.0046227253 -0.0053747664 -0.020733973
-0.026381293 0.056170903 0.027901394 -0.05132815 -0.07170178 -0.035461947 -0.06970071 -0.05044717
0.09256901 0.03473092 0.048205763 -0.009140194 -0.024889605 -0.06745969 0.062413607 -0.06385781
0.040434863 -0.022082198 -0.013827489 -0.04914588 0.1015818 -0.013580669 -0.09475232 -0.05805894
-0.0018377374 -0.030813038 -0.029376535 -0.042704165 -0.065084755 0.045025527 0.048707973 0.1061923
0.021522997 -0.005384086 0.024182914 -0.03862102 0.048552796 0.0023321577 0.052581076 -0.057822246
-0.057543963 -0.032003563 0.06632513 -0.07998268 0.02908877 0.04552744 0.0289294 -0.033367347
-0.02892464 -0.05086141 0.054088134 0.1010204 -0.032016892 -0.025836093 -0.006550787 0.04418134
-0.038816564 -0.027287241 -0.069336124 -0.033635188 0.08659986 0.028478492 -0.047474552 -0.017974192
0.04304512 0.07177952 -0.07060298 0.08396612 -0.040511157 -0.04582388 -0.029018136 0.062697224
-0.06503033 -0.029514404 0.056742296 -0.0048417575 0.10769502 -0.0040393737 -0.046967864 -0.037312433
00000000: 67bb 0b3e 5aca d5bc d7a5 ba3d 56b0 81bc
00000010: a8e5 243d ef76 71bd ff56 a5bb bd37 53bd
00000020: 253c 653d dab8 7dbd 2784 19bc 3588 ff3d
00000030: 8df8 b9bd b7c3 003c ff64 b1bb 64ff 39bd
00000040: b1db 85bd 0c33 b63c 3456 4c3d d46c 4cbd
00000050: c5de 08bd 67ed 99bc e6c8 6f3d 0aa6 00bd
00000060: 8828 3cbd a84a 6abd 221b 96bc 8ade b1bd
00000070: 60a6 bd3c cae9 ddba bf7a 703d 4208 fb3d
00000080: 6d36 e2bc d4b6 b83d 572a 04bd 7203 703d
00000090: 8677 1d3d d880 c13c 7030 9ebd 9ae6 38bd
000000a0: ea62 38bc 767b 23bd 2868 6c3d 6e13 6b3c
000000b0: bebd 3dbd 3b7a 97bb cf1e b0bb 4bda a9bc
000000c0: 951d d8bc 7613 663d 7791 e43c 773d 52bd
000000d0: 62d8 92bd 8c40 11bd 3fbf 8ebd b1a1 4ebd
000000e0: d294 bd3d 0242 0e3d 6873 453d c1c0 15bc
000000f0: 49e5 cbbc 4e28 8abd 69a5 7f3d e2c7 82bd
00000100: 079f 253d bae5 b4bc b18c 62bc 314d 49bd
00000110: 1e0a d03d 7481 5ebc 810d c2bd 36cf 6dbd
00000120: 3ce0 f0ba a06b fcbc 0fa7 f0bc 90ea 2ebd
00000130: 284b 85bd b06c 383d 0382 473d 597b d93d
00000140: ff50 b03c fd6c b0bb 3f1b c63c 1331 1ebd
00000150: 4cdf 463d 1dd7 183b 415f 573d 05d7 6cbd
00000160: 38b3 6bbd 2b16 03bd 78d5 873d f6cd a3bd
00000170: 924b ee3c fb7a 3a3d 59fd ec3c 33ac 08bd
00000180: 5ef3 ecbc 0e54 50bd 858b 5d3d c9e3 ce3d
00000190: 2524 03bd 37a6 d3bc fca7 d6bb 7ef7 343d
000001a0: 1efe 1ebd 7e89 dfbc 1900 8ebd 0dc5 09bd
000001b0: 445b b13d ba4b e93c ad74 42bd 9d3e 93bc
000001c0: 1450 303d 2401 933d 4c98 90bd 6ef6 ab3d
000001d0: 07ef 25bd d2b1 3bbd 71b7 edbc 6767 803d
000001e0: 9f2e 85bd 31c8 f1bc 9c6a 683d 9ba7 9ebb
000001f0: 358f dc3d b95c 84bb 6061 40bd ecd4 18bd

network_body._body_endoder.seq_layers.0.weight f4 [128, 50]
0.16462919 -0.14878258 -0.051420845 0.2651633 0.07174014 -0.048250176 -0.17776279 0.4249644
0.23828147 0.45700273 0.085420035 0.31355453 0.36411953 0.2540664 0.11561876 0.11992908
0.220821 0.0599514 -0.18313688 0.17194833 0.2534287 0.24940349 0.13389944 0.41567728
0.20488371 -0.21282136 -0.24444014 0.10665801 0.15865287 0.027570399 -0.14157756 0.12813094
0.20983227 -0.40056932 -0.040468566 -0.013012183 0.19483146 0.104333036 0.44088086 0.22972438
-0.0040627304 0.16602375 0.073599614 0.023537679 0.063017935 0.080065034 0.12150489 0.29972824
-0.06992558 0.16180468 -0.08550009 -0.2771879 -0.22555967 0.12742737 -0.29965857 -0.4751805
0.097286254 -0.00083891815 0.10508943 0.11832074 0.11154987 -0.17005345 0.018142354 -0.051944192
0.23986886 -0.2188174 0.051976327 -0.09817115 0.08194372 -0.03435343 -0.16027386 0.06332904
-0.11311614 0.22160004 0.008837495 0.22769709 -0.05494857 0.08897904 0.10125015 0.06960257
0.064761184 -0.025137106 -0.13340789 0.2586834 0.12240534 0.23388538 -0.20027111 -0.15121992
-0.1510714 -0.020633731 -0.21875793 0.048772965 -0.13411732 0.15591784 0.25297937 0.08276167
0.24243264 -0.0051171035 -0.13501437 0.07209783 -0.06455358 0.05076536 -0.097128324 0.2825778
0.061632816 -0.1559757 -0.019098736 0.076948345 0.08781116 0.1745155 -0.05599194 0.15082769
-0.06775957 0.17841811 0.0175074 -0.029060075 0.0015453476 0.06560872 -0.019441867 0.24961244
0.06683575 -0.18662293 0.2811956 -0.040197548 0.18209943 -0.07605445 0.1751345 0.22353905
0.030429017 -0.059400298 -0.1070769 -0.13875559 0.060307708 0.05957562 0.02621768 -0.01801663
0.16800971 -0.13193867 0.012148743 0.10989358 0.10297173 -0.38468114 0.102216884 -0.032220103
0.14656012 0.10285037 0.06716917 0.24032894 -0.11333534 -0.11610149 -0.051941454 0.004744908
-0.06878304 0.052826 -0.25440696 -0.06555595 0.25255334 -0.2243694 -0.20305777 0.4182128
-0.1682902 0.26982537 0.020945799 0.09409449 0.18966193 -0.16770004 -0.137369 0.12507369
-0.1333897 0.32458806 -0.1915418 -0.07405359 -0.13807122 -0.00072658475 -0.42045107 0.40519655
0.059069216 0.1402418 0.022207523 -0.07815096 0.013963017 -0.16555457 -0.19797939 -0.004337723
-0.018552303 0.1684584 0.0091652125 -0.1229813 -0.10694762 -0.052974142 0.08022987 -0.1453953
-0.031694166 -0.1693061 -0.012017499 -0.020344427 -0.30737832 -0.13041164 0.013759677 -0.1000552
-0.09465395 0.032138016 0.37612203 -0.026416127 0.20086643 0.1569385 -0.14906871 -0.2551059
0.03197453 -0.16509935 -0.0013099188 0.032757025 0.0068864864 0.19906858 -0.070405535 -0.11962101
-0.016393632 0.12514949 -0.060685102 0.11062642 0.30313432 -0.24404779 0.14058559 -0.07466213
0.1496928 -0.1296389 -0.1090316 0.09053006 0.14676839 0.04817179 0.13452932 0.02508258
0.25717705 0.09180435 -0.065257594 0.022096701 0.05204445 -0.21844636 0.11101939 0.022170622
0.15252765 -0.20890464 0.17742664 -0.31293648 -0.066819735 0.22123817 0.09908611 0.27214277
-0.14252825 0.24985443 -0.19156371 -0.0547222 -0.0006091257 0.08861197 0.02714502 -0.17267916
00000000: 8e94 283e 765a 18be aa9e 52bd 7cc3 873e
00000010: 7fec 923d faa1 45bd 7307 36be ef94 d93e
00000020: 0f00 743e 43fc e93e b3f0 ae3d 388a a03e
00000030: e06d ba3e fe14 823e 87c9 ec3d 619d f53d
00000040: e61e 623e 998f 753d 3c88 3bbe 3913 303e
00000050: 68c1 813e a163 7f3e ef1c 093e a7d3 d43e
00000060: 09cd 513e d8ed 59be 844e 7abe 846f da3d
00000070: e675 223e 51db e13c b5f9 10be c234 033e
00000080: 45de 563e 6c17 cdbe 5ec2 25bd 0d31 55bc
00000090: e681 473e 8fac d53d 23bb e13e de3c 6b3e
000000a0: a720 85bb 2102 2a3e 65bb 963d 17d2 c03c
000000b0: 8c0f 813d 23f9 a33d 8ed7 f83d fb75 993e
000000c0: 2435 8fbd 20b0 253e ac1a afbd 93eb 8dbe
000000d0: 1df9 66be 527c 023e d96c 99be dc4a f3be
000000e0: 043e c73d d8ea 5bba 2139 d73d 2552 f23d
000000f0: 4274 e43d 7e22 2ebe 469f 943c 6fc3 54bd
00000100: 2fa0 753e ab11 60be 21e5 543d f50d c9bd
00000110: 1cd2 a73d 2fb6 0cbd d51e 24be a8b2 813d
00000120: 6fa9 e7bd 1feb 623e 24cb 103c 6d29 693e
00000130: c011 61bd a53a b63d 3d5c cf3d cb8b 8e3d
00000140: 83a1 843d 55ec cdbc 149c 08be 2772 843e
00000150: a7af fa3d a67f 6f3e df13 4dbe 65d9 1abe
00000160: 76b2 1abe 1208 a9bc 1402 60be 29c6 473d
00000170: 0d56 09be eda8 1f3e 8386 813e f37e a93d
00000180: 4340 783e 60ad a7bb 3541 0abe 07a8 933d
00000190: ab34 84bd 57ef 4f3d 37eb c6bd 0aae 903e
000001a0: b172 7c3d 18b8 1fbe f474 9cbc 1897 9d3d
000001b0: 56d6 b33d 31b4 323e ce57 65bd 9372 1a3e
000001c0: 88c5 8abd 3db3 363e ae6b 8f3c 650f eebc
000001d0: 438d ca3a dd5d 863d 8d44 9fbc 679a 7f3e
000001e0: 2fe1 883d 151a 3fbe dff8 8f3e 2fa6 24bd
000001f0: 4678 3a3e 6fc2 9bbd 7556 333e 6ce7 643e
00000200: 4646 f93c ba4d 73bd 224b dbbd f215 0ebe
00000210: 3705 773d 9105 743d 76c6 d63c 9d97 93bc
00000220: bd0a 2c3e ee1a 07be 850b 473c e30f e13d
00000230: d8e2 d23d edf4 c4be 1657 d13d 3af9 03bd
00000240: db13 163e 37a3 d23d fd8f 893d ca18 763e
00000250: 5c1c e8bd 9ec6 edbd 90c0 54bd 2c7b 9b3b
00000260: 1fde 8cbd 1360 583d a141 82be 3342 86bd
00000270: ac4e 813e 18c1 65be 60ee 4fbe fd1f d63e
00000280: 4454 2cbe 8d26 8a3e 8696 ab3c 9db4 c03d
00000290: bd36 423e 8fb9 2bbe 76aa 0cbe 5113 003e
000002a0: 4f97 08be 6830 a63e 8923 44be 69a9 97bd
000002b0: 8b62 0dbe 4778 3eba 5d45 d7be ec75 cf3e
000002c0: 90f2 713d 8c9b 0f3e 8dec b53c 9c0d a0bd
000002d0: 23c5 643c 2387 29be 1cbb 4abe 7523 8ebb
000002e0: 00fb 97bc 5c80 2c3e b029 163c 9fdd fbbd
000002f0: 5b07 dbbd 6afb 58bd 8f4f a43d 81e2 14be
00000300: bed1 01bd 945e 2dbe 0be5 44bc 5ba9 a6bc
00000310: b160 9dbe a18a 05be 4570 613c bee9 ccbd
00000320: eed9 c1bd 27a3 033d 1193 c03e a266 d8bc
00000330: eeaf 4d3e 7cb4 203e 78a5 18be 3e9d 82be
00000340: baf7 023d ce0f 29be 95b1 abba 3b2c 063d
00000350: 09a8 e13b a2d8 4b3e c730 90bd dcfb f4bd
00000360: f04b 86bc 3027 003e f190 78bd 1b90 e23d
00000370: 6c34 9b3e aae7 79be abf5 0f3e 75e8 98bd
00000380: 1249 193e 0fc0 04be f64b dfbd d367 b93d
00000390: 744a 163e c84f 453d 0ec2 093e fc79 cd3c
000003a0: b6ac 833e eb03 bc3d c6a5 85bd 2404 b53c
000003b0: 902c 553d 67b0 5fbe 225e e33d 2a9f b53c
000003c0: 3530 1c3e 19eb 55be 54af 353e 3639 a0be
000003d0: c9d8 88bd 428c 623e a9ed ca3d 4c56 8b3e
000003e0: edf2 11be d7d9 7f3e 4729 44be 6324 60bd
000003f0: bcad 1fba 317a b53d 3c5f de3c ced2 30be

network_body._body_endoder.seq_layers.2.bias f4 [128]
-0.017568605 0.05453558 0.040715512 -0.04639089 0.024366593 0.007815496 0.051780634 0.06429534
0.06935841 -0.04139426 -0.06517173 -0.021562822 0.07447253 0.047549166 -0.033750135 -0.043454662
-0.000553319 -0.011981654 -0.030676788 -0.019359589 0.029767856 -0.0547147 0.073632464 0.054230146
-0.02895848 0.028512256 0.012292242 -0.022760745 0.059522398 0.06451957 0.041647423 -0.007208857
-0.028241595 0.029648323 -0.0223782 0.034170065 0.055245306 0.011964882 -0.045492113 0.058550507
0.008076649 -0.057437576 0.025988137 0.042408507 0.030449234 0.05758608 -0.01321835 0.042248715
-0.05523213 -0.046186913 -0.027042521 -0.062073868 0.038667105 -0.028959068 -0.060056508 -0.010020074
0.029767102 -0.0037212688 -0.041686706 0.049123935 -0.04003591 -0.034260202 0.05767778 0.03634199
0.00080617884 -0.024921944 0.0075458405 -0.0069723725 -0.065105855 -0.058744088 -0.029535415 -0.028960243
-0.040967505 0.06957457 0.008182086 -0.00042914972 -0.028448978 0.006382175 -0.019649262 -0.07088666
-0.07111982 -0.0434968 -0.05642195 0.030910097 -0.039735325 0.0034211087 -0.049538393 -0.039380264
0.020981 0.037049733 0.019467184 0.043303363 0.070694104 0.08382862 0.03276389 0.06039679
-0.033247497 -0.032346513 -0.06554067 0.017449988 -0.05416737 -0.031310398 0.0051462427 0.07677202
0.066540256 0.03097413 0.028564664 -0.04361122 0.060434997 0.046788342 -0.05333099 0.019930085
0.044390757 -0.051708926 -0.0635283 -0.038706943 -0.023155283 0.0035079387 0.010586277 -0.035078242
-0.0060150684 -0.029665468 1.6628637e-05 -0.05241842 -0.047342554 0.055088818 0.0561892 -0.04202744
00000000: 09ec 8fbc b360 5f3d 4fc5 263d 6004 3ebd
00000010: 739c c73c 910c 003c ee17 543d 46ad 833d
00000020: c80b 8e3d 078d 29bd c278 85bd 84a4 b0bc
00000030: 0e85 983d eac2 423d 953d 0abd 84fd 31bd
00000040: 9c0c 11ba b34e 44bc e34d fbbc 0098 9ebc
00000050: b8db f33c 851c 60bd 9ecc 963d 6e20 5e3d
00000060: 563a edbc 8992 e93c 6665 493c be74 babc
00000070: c2cd 733d d622 843d 7d96 2a3d 4738 ecbb
00000080: eb5a e7bc 0ae1 f23c 7d52 b7bc e9f5 0b3d
00000090: e748 623d 5a08 443c f055 3abd a8d2 6f3d
000000a0: ec53 043c aa43 6bbd 13e5 d43c 8bb4 2d3d
000000b0: ac70 f93c 62df 6b3d c791 58bc fd0c 2d3d
000000c0: 163b 62bd 7d2e 3dbd 4788 ddbc 2b41 7ebd
000000d0: 6661 1e3d 913b edbc d0fd 75bd 3d2b 24bc
000000e0: 23da f33c 88e0 73bb aebf 2abd 2e36 493d
000000f0: b2fc 23bd 6d54 0cbd 893f 6c3d 57db 143d
00000100: bf55 533a 1b29 ccbc 1943 f73b 8078 e4bb
00000110: 3856 85bd a49d 70bd 41f4 f1bc 083e edbc
00000120: 8bcd 27bd 1d7d 8e3d 280e 063c 80ff e0b9
00000130: d50d e9bc 9021 d13b 7df7 a0bc 062d 91bd
00000140: 45a7 91bd b329 32bd b41a 67bd 2c37 fd3c
00000150: 82c1 22bd ae34 603b c5e8 4abd 334d 21bd
00000160: 59e0 ab3c 76c1 173d a579 9f3c de5e 313d
00000170: 12c8 903d 57ae ab3d 6e33 063d a062 773d
00000180: 872e 08bd c77d 04bd 303a 86bd 47f3 8e3c
00000190: 9bde 5dbd 553f 00bd d0a1 a83b a63a 9d3d
000001a0: 4246 883d 75bd fd3c 7100 ea3c aea1 32bd
000001b0: b08a 773d 22a5 3f3d 9971 5abd 6b44 a33c
000001c0: 15d3 353d bdcc 53bd 201b 82bd 2c8b 1ebd
000001d0: 26b0 bdbc 72e5 653b 1072 2d3c 34ae 0fbd
000001e0: 0d1a c5bb ff04 f3bc ba7d 8b37 b2b4 56bd
000001f0: 44ea 41bd d0a4 613d a626 663d f724 2cbd

network_body._body_endoder.seq_layers.2.weight f4 [128, 128]
-0.041297827 0.03387175 0.091526344 -0.034688525 0.10617369 -0.015247215 -0.027111117 -0.0026230498
-0.004538565 -0.04705314 0.108859666 -0.06733173 0.12038061 0.014481949 0.096495345 -0.17046422
0.008413009 -0.06221973 0.07629509 -0.0188027 -0.19265138 0.05865781 -0.0033037304 -0.12655734
-0.10447922 0.03915374 -0.096559614 0.0013374361 0.07738591 0.09767489 0.1092853 -0.14608468
0.053575195 0.082648754 0.10523072 -0.017746983 -0.14536656 0.050389633 -0.026019199 -0.17763078
-0.07868311 0.00568962 0.042016674 -0.30444992 0.024867209 0.027966673 -0.024436595 0.030591583
-0.0016253514 0.19161749 0.11569831 0.0111687565 -0.011145596 -0.02755976 -0.089712135 -0.049030665
-0.041729387 -0.052331816 0.17933106 0.018080804 0.24907377 -0.013695353 -0.17100641 0.06337839
-0.06299244 -0.07406278 0.016520828 0.064480454 -0.09456261 -0.002030867 0.053899977 -0.09381766
-0.024274265 0.06159536 -0.040605564 -0.022754306 0.12556237 0.041715585 -0.27440214 -0.11055104
-0.040553797 -0.117337056 -0.015465776 0.16933975 0.27981663 -0.017661547 0.015781386 0.011073015
-0.10795145 0.17446898 0.12589337 -0.09852088 -0.11224148 -0.052675333 -0.16143714 -0.018160118
0.026347993 0.0073084626 0.01764958 0.053943895 -0.07923663 -0.009600701 0.037237465 -0.05490526
0.0078479815 -0.19991234 0.05408736 -0.010081332 -0.055915672 0.036157947 -0.042848628 -0.007925498
-0.07318009 -0.06341168 0.0040524923 -0.15195705 -0.07384539 0.07189958 0.01639849 -0.005167582
0.07158829 -0.10081284 0.037337206 0.22321412 -0.0022582537 0.13652077 -0.010203305 -0.086360745
-0.07790901 0.052947175 0.08380802 -0.15699778 0.13044941 -0.016116863 0.082672834 0.0017323068
-0.09723915 -0.05942663 0.08319824 -0.062525116 -0.15906973 -0.052973863 -0.010844931 0.03637481
-0.023264185 -0.03270723 0.19033602 0.101576276 -0.08598453 0.21349457 0.042353023 -0.23967637
-0.059909426 0.09629829 -0.13660543 -0.08269282 -0.24226597 -0.023399094 0.0052262805 -0.015467418
0.09906032 0.004080748 -0.037859485 -0.12445437 0.01863268 -0.01903958 -0.06936125 0.01116192
-0.052302904 -0.08526547 0.07749172 -0.12736338 -0.011156901 -0.050217126 -0.10020862 -0.11289107
0.034064814 0.06427571 0.16025859 -0.074519485 -0.12960745 -0.07187317 -0.047894042 0.05379669
-0.0704173 0.07830246 0.09414727 0.020405628 -0.06403134 -0.061123367 0.032429762 -0.12753175
0.09014746 -0.1381196 0.08617035 -0.1939136 0.10489334 0.06342094 0.14550641 0.10574725
-0.064416505 -0.0965723 -0.13527729 -0.050851535 0.07129703 -0.009544934 -0.061937183 0.22013561
0.06863851 -0.1883642 0.07433168 -0.0312578 0.0290734 0.06824617 -0.13185364 -0.04943652
0.119956106 0.06557963 0.12142191 0.17866397 -0.24740455 -0.053875726 0.027670706 -0.14678322
0.105009586 -0.021907503 0.21874736 0.22023563 -0.16879216 -0.08765155 0.12441835 0.05068295
-0.033010755 0.08596928 -0.053845335 0.09172384 -0.065229096 0.095100805 -0.1234704 -0.076835126
-0.18659034 0.11784168 0.0024337734 -0.011983553 -0.115152426 -0.16912137 -0.137548 0.02207409
-0.08715907 0.043437876 -0.07348203 -0.044148304 -0.0792495 -0.12512551 0.028221156 0.14986672
00000000: e927 29bd 1bbd 0a3d 2a72 bb3d 8e15 0ebd
00000010: 9771 d93d 74cf 79bc 2218 debc 79e7 2bbb
00000020: 3eb8 94bb cbba 40bd d1f1 de3d 38e5 89bd
00000030: 1c8a f63d b245 6d3c 5a9f c53d 2c8e 2ebe
00000040: b8d6 093c 1eda 7ebd 9a40 9c3d 1f08 9abc
00000050: 6746 45be 2c43 703d 6683 58bb 3f98 01be
00000060: 34f9 d5bd ac5f 203d 0cc1 c5bd e94c af3a
00000070: 817c 9e3d c609 c83d f9d0 df3d 3997 15be
00000080: aa71 5b3d c043 a93d 3483 d73d 1f62 91bc
00000090: f9da 14be 5c65 4e3d 3726 d5bc d8e4 35be
000000a0: 9c24 a1bd fe6f ba3b ad19 2c3d dce0 9bbe
000000b0: 51b6 cb3c 5d1a e53c 412f c8bc 339b fa3c
000000c0: be09 d5ba 6037 443e 3cf3 ec3d 29fd 363c
000000d0: 059c 36bc 01c5 e1bc ffba b7bd 61d4 48bd
000000e0: 6fec 2abd e359 56bd 90a2 373e 321e 943c
000000f0: 320d 7f3e 7962 60bc 4e1c 2fbe 88cc 813d
00000100: 2e02 81bd 3aae 97bd b056 873c 540e 843d
00000110: 0baa c1bd 4b18 05bb 39c6 5c3d 7923 c0bd
00000120: d3da c6bc 6b4b 7c3d 0552 26bd 3d67 babc
00000130: 6c93 003e f6dd 2a3d 707e 8cbe 9568 e2bd
00000140: bd1b 26bd 694e f0bd 2b64 7dbc 6667 2d3e
00000150: 2044 8f3e f3ae 90bc f747 813c 976b 353c
00000160: a615 ddbd ffa7 323e 31ea 003e 51c5 c9bd
00000170: dcde e5bd 17c2 57bd c74f 25be 87c4 94bc
00000180: bfd7 d73c d47b ef3b da95 903c 46f4 5c3d
00000190: d046 a2bd 424c 1dbc 5086 183d 57e4 60bd
000001a0: d294 003c d2b5 4cbe b58a 5d3d 2c2c 25bc
000001b0: d507 65bd 5b1a 143d 0b82 2fbd f3d9 01bc
000001c0: 71df 95bd fcdd 81bd c5ca 843b a19a 1bbe
000001d0: 403c 97bd 1640 933d 2056 863c d254 a9bb
000001e0: e29c 923d f676 cebd e6ee 183d 3e92 643e
000001f0: 36ff 13bb 1acc 0b3e c32b 27bc e7dd b0bd
00000200: c28e 9fbd 23df 583d 8aa3 ab3d 07c4 20be
00000210: 8894 053e 8307 84bc 6050 a93d 920e e33a
00000220: 5225 c7bd 5769 73bd d763 aa3d 2b0d 80bd
00000230: 2de3 22be 1ffb 58bd f0ae 31bc c1fd 143d
00000240: 8894 bebc 04f8 05bd 72e7 423e 3907 d03d
00000250: a818 b0bd 529e 5a3e 5d7a 2d3d b96d 75be
00000260: 9663 75bd 0a38 c53d 4be2 0bbe da5a a9bd
00000270: 9214 78be 75af bfbc 3841 ab3b 0e6b 7dbc
00000280: 23e0 ca3d ccb7 853b 8c12 1bbd efe1 febd
00000290: 90a3 983c e5f8 9bbc 450d 8ebd 7ce0 363c
000002a0: 923b 56bd aa9f aebd fbb3 9e3d 8c6b 02be
000002b0: 6fcb 36bc 79b0 4dbd 2d3a cdbd 6f33 e7bd
000002c0: 8c87 0b3d fca2 833d d41a 243e ac9d 98bd
000002d0: d1b7 04be 3e32 93bd 8b2c 44bd eb59 5c3d
000002e0: f236 90bd 0a5d a03d 49d0 c03d b429 a73c
000002f0: dd22 83bd 7f5c 7abd 12d5 043d af97 02be
00000300: 3b9f b83d 396f 0dbe 157a b03d 4991 46be
00000310: 52d2 d63d d6e2 813d a2ff 143e 0492 d83d
00000320: cdec 83bd b3c7 c5bd 2186 0abe b349 50bd
00000330: 2d04 923d 5b62 1cbc d8b1 7dbd 3b6b 613e
00000340: 5992 8c3d 8be2 40be 353b 983d 2e08 00bd
00000350: 572b ee3c a6c4 8b3d a404 07be f37d 4abd
00000360: 8cab f53d 9d4e 863d 0dac f83d b0f3 363e
00000370: 9e57 7dbe cbac 5cbd adad e23c 574e 16be
00000380: 440f d73d 5d77 b3bc 4fff 5f3e 7385 613e
00000390: dad7 2cbe a882 b3bd 0ccf fe3d ed98 4f3d
000003a0: 4936 07bd a910 b03d ed8c 5cbd b5d9 bb3d
000003b0: d596 85bd 36c4 c23d 0dde fcbd bc5b 9dbd
000003c0: 8a11 3fbe fb56 f13d f17f 1f3b aa56 44bc
000003d0: 09d5 ebbd 272e 2dbe 62d9 0cbe b9d4 b43c
000003e0: 7480 b2bd eaeb 313d bf7d 96bd dad4 34bd
000003f0: 904d a2bd e720 00be 0e30 e73c a976 193e
