NN/BasicAgent.onnx (onnx, 72461 bytes, 7 tensors)

action_model._continuous_distribution.log_sigma f4 [1, 2]
0	0xbd952cd5	-0.07283942
1	0xbdae909f	-0.08523678

action_model._continuous_distribution.mu.bias f4 [2]
0	0x3ab22fb1	0.0013594535
1	0x3ab2f95d	0.0013654638

action_model._continuous_distribution.mu.weight f4 [2, 128]
0	0x3c3522dd	0.011055675
1	0xbc4f7940	-0.012663186
2	0x3c2ca15a	0.010536516
3	0x3c4f6fd2	0.012660937
4	0xbba42026	-0.005008715
5	0xbc99ff4b	-0.018798491
6	0xbc093188	-0.008373626
7	0xbc782ef7	-0.015147916
8	0xbc4a13c8	-0.012333818
9	0xbc992565	-0.018694589
10	0xbbec237a	-0.0072063776
11	0xbc35275b	-0.011056746
12	0x3c91d418	0.01780133
13	0x3b4914ae	0.0030682492
14	0x3d2b62e6	0.041842364
15	0xbd0c9ae5	-0.034327406
16	0xbc1a9617	-0.009435198
17	0xbc9b6cd1	-0.018972786
18	0x3bbcc09b	0.005760265
19	0x3c860746	0.01636089
20	0xbc3dab0f	-0.011576428
21	0xbb9a59e5	-0.0047104233
22	0x3c93a4bd	0.01802289
23	0x3c46f9da	0.01214453
24	0xbb718652	-0.0036853743
25	0x3c85d7eb	0.01633831
26	0x3d20d6a7	0.03926721
27	0x3cba8e67	0.02277298
28	0xbc223bce	-0.009901954
29	0x3c0dad25	0.008647238
30	0xbbe0e0a3	-0.0068627163
31	0x3cc51169	0.024056153
32	0x3cc6419d	0.024201209
33	0xbc9d96ea	-0.019237
34	0x3c68613f	0.0141833415
35	0x3ac8a6a8	0.0015308456
36	0xbb18cf65	-0.0023316976
37	0xbcb040cd	-0.021515274
38	0x3ce4e390	0.027940542
39	0x3c51abe0	0.012797326
40	0x3d1a768c	0.03771071
41	0x3d015877	0.031578507
42	0x39946d4a	0.00028310186
43	0x3c8c23c8	0.017106906
44	0x3bbb27fb	0.005711553
45	0x3c41baa2	0.011824282
46	0x3c3b6bb8	0.011439256
47	0x3c97e098	0.018539712
48	0x3c518b5c	0.0127895735
49	0xbcd17847	-0.025570048
50	0x3d205b30	0.039149463
51	0x3cb2f9ab	0.021847567
52	0xbca9abbb	-0.02071177
53	0xbc86e92d	-0.016468609
54	0x3ce631d0	0.028099924
55	0x3c9e8079	0.01934837
56	0x3bd84734	0.006600285
57	0x3ca0b49e	0.019617375
58	0x3b587f87	0.0033034997
59	0x3c2beeaa	0.010493914
60	0x3c0cba94	0.008589406
61	0x3b257b1e	0.0025250386
62	0x3d390b38	0.045176715
63	0xbd521ccd	-0.051296998
64	0x3cbabf0c	0.022796176
65	0x3d15eb26	0.03660121
66	0xbab2ca34	-0.0013640583
67	0x3b434c0d	0.0029799968
68	0xbcb5a49e	-0.022173222
69	0x3cf47e7c	0.029845469
70	0x3cf76826	0.030201029
71	0xbc9c0887	-0.019047035
72	0x3ce1c0fb	0.02755784
73	0xbbecba0d	-0.0072243274
74	0x3c7803f9	0.015137666
75	0x3c654b0b	0.013994942
76	0xbba6f1a0	-0.005094722
77	0x3c2e4ef1	0.010638938
78	0xbc8663ca	-0.016405005
79	0x3ad74532	0.001642382
80	0x3ce5e593	0.028063571
81	0x3c92bb52	0.017911587
82	0xbd597213	-0.053087305
83	0xbb2de7ca	-0.0026535862
84	0x3ccfe16a	0.02537604
85	0xbbcd5ae8	-0.0062669404
86	0x3c9d7eb0	0.019225448
87	0x3a57cc70	0.00082320627
88	0x3be6758a	0.0070330547
89	0x3b2193de	0.0024654786
90	0xbbb0d105	-0.005396011
91	0xbca81ed7	-0.020522518
92	0x3c19890c	0.009371053
93	0x3c357786	0.01107586
94	0x3c7d1145	0.015446012
95	0xba1ce511	-0.0005985061
96	0xbbe07975	-0.0068504163
97	0xbc17bb25	-0.009260927
98	0x3d2d583d	0.04232048
99	0x3c58787d	0.01321232
100	0x3cac2a1d	0.021016175
101	0x3c38f239	0.011288219
102	0xbc5e889b	-0.013582374
103	0x3c47087f	0.012148022
104	0x3cdd908d	0.027046466
105	0x3c268fc0	0.010166109
106	0x3d04d20e	0.032426886
107	0xbbd55763	-0.0065106614
108	0xbbb1df7d	-0.005428253
109	0x3c060752	0.008180456
110	0xbd0a1634	-0.03371258
111	0xbbd6f10c	-0.0065594967
112	0x3c55c4af	0.013047381
113	0xbcbbcf04	-0.022925861
114	0xbb3973db	-0.0028297815
115	0xbbac5300	-0.005258918
116	0xbcd41df5	-0.02589319
117	0xbc90404f	-0.01760879
118	0x3b32e6e6	0.002729827
119	0x3c9124ce	0.017717745
120	0x3c9d1648	0.019175664
121	0xbcd25525	-0.025675366
122	0xbd000644	-0.031255975
123	0xbcbd64d3	-0.023119366
124	0xbcd038bb	-0.025417676
125	0x3c688646	0.0141921695
126	0x3c84d36d	0.016214097
127	0x384d0b87	4.8886544e-05
128	0xbca38b65	-0.01996393
129	0xbc47d7a6	-0.012197411
130	0x3c91aae3	0.01778168
131	0x3c2e0992	0.010622399
132	0xbd1a13ee	-0.037616663
133	0x3cb73c30	0.022367567
134	0x3c3e54b1	0.011616872
135	0xbd654541	-0.05597425
136	0xbcd5bab3	-0.026090002
137	0x3b8ea042	0.0043526003
138	0xbc0e9720	-0.008703023
139	0x3ce7f462	0.028314773
140	0x3d19d88b	0.037560027
141	0x3c33fc2e	0.010985417
142	0xbce4b0e2	-0.027916376
143	0x3ae370d9	0.0017352357
144	0x3afce981	0.0019295664
145	0xbc56e68d	-0.013116491
146	0xbc7db950	-0.0154860765
147	0x3c961bea	0.018323857
148	0xbc822ba8	-0.015889958
149	0x3bb55d63	0.005534814
150	0xbcd3cbe3	-0.025854057
151	0xbd0f868a	-0.035040416
152	0x3ae2ffb0	0.0017318632
153	0xbbd65ed0	-0.0065420642
154	0x3c11f8ab	0.008909385
155	0xbb901f16	-0.004398237
156	0x3b72484b	0.003696936
157	0xbca3bedd	-0.019988472
158	0xbb8def50	-0.004331507
159	0xbcd6b3ee	-0.026208844
160	0x3d2d0380	0.042239666
161	0x3cf7ab34	0.030233003
162	0x3b9025c6	0.004399034
163	0x3c3f610f	0.011680855
164	0x3cc18ce3	0.02362675
165	0xbcc79d91	-0.024367126
166	0xbbf8e291	-0.007595368
167	0xbd120a50	-0.035654366
168	0x3a99839b	0.0011712195
169	0xbab435dd	-0.0013748963
170	0xbb193916	-0.0023379973
171	0xbc88fbe2	-0.01672167
172	0xbcc32931	-0.023823353
173	0xbba369e2	-0.0049869874
174	0xbcf061dd	-0.02934354
175	0xbc414f74	-0.011798728
176	0x3bdd3fdd	0.006751998
177	0xbc7991a7	-0.01523248
178	0x3b250717	0.0025181228
179	0x3cf506eb	0.029910525
180	0xbcb171c6	-0.021660697
181	0x3c0ca47f	0.008584141
182	0xbc47e16d	-0.012199742
183	0xbc332800	-0.01093483
184	0x3c2e55eb	0.010640602
185	0xbce8b499	-0.028406428
186	0xbbd788fc	-0.006577609
187	0x3bf0dbd2	0.0073504234
188	0xbc340d3f	-0.010989486
189	0x39db224d	0.0004179649
190	0x3b3b63b7	0.002859337
191	0x3c835cf5	0.016035536
192	0x3ab4f10b	0.0013804747
193	0x3d1c8566	0.038213156
194	0x3cbc5598	0.022990033
195	0x3c07a47f	0.008278965
196	0xbcd8d05f	-0.026466547
197	0xbb01d958	-0.0019813385
198	0xbcf2a89a	-0.029621411
199	0xbbb9e196	-0.005672644
200	0x3cc909e5	0.02454085
201	0x3c84678a	0.016162653
202	0xbb457c45	-0.0030133885
203	0xbc65e048	-0.014030524
204	0xbbae3028	-0.0053157993
205	0xbb9798c6	-0.0046263663
206	0xbaa9b5a1	-0.0012947806
207	0x3d241fb0	0.040069282
208	0xbc7a329e	-0.015270857
209	0xbc952dd6	-0.018210333
210	0xbcce0121	-0.025147023
211	0x3c6d4001	0.014480592
212	0xbc9dcebf	-0.019263623
213	0x3a412ec1	0.00073693326
214	0xbb60f864	-0.003432774
215	0x3cb34073	0.021881318
216	0xbd1e3641	-0.03862596
217	0x3a95d046	0.0011429868
218	0x3cc3c8fc	0.023899548
219	0xbc51088b	-0.012758384
220	0xbc112d35	-0.008860876
221	0xbc73cd44	-0.014880482
222	0x3b80b17b	0.0039274073
223	0xbd25fe35	-0.040525634
224	0xbb6f20a4	-0.0036487961
225	0xbc13c828	-0.009019889
226	0x3ce5e3e0	0.02806276
227	0x3cf80a7a	0.030278433
228	0x3c311761	0.010808797
229	0x3a8fdbf0	0.0010975581
230	0x3c01cce0	0.007922381
231	0xbbb35466	-0.0054727076
232	0xbc6072f9	-0.013699287
233	0x3c27b8ed	0.010236961
234	0x3c19e105	0.009392028
235	0x3c4f7b79	0.0126637155
236	0x3c1ecb20	0.009691983
237	0xbd1ae013	-0.03781135
238	0x3c84cc42	0.016210679
239	0x3c8f86d5	0.017520348
240	0x3d1bfdfa	0.038084008
241	0x3cc9289e	0.0245555
242	0x3ca6cb1e	0.020360526
243	0xbbcf632c	-0.006328961
244	0xbbe15319	-0.006876361
245	0xbcefb354	-0.029260315
246	0x3c44ee15	0.012019654
247	0x3c3905f2	0.011292921
248	0xbc7184bb	-0.014741118
249	0xbb88a7c3	-0.0041703894
250	0xbbeeed23	-0.0072914525
251	0xbc2e3838	-0.010633521
252	0xbd68c17e	-0.056825154
253	0xb97304a3	-0.00023176013
254	0x3c9cedfc	0.019156449
255	0xbcd02e5b	-0.025412729

network_body._body_endoder.seq_layers.0.bias f4 [128]
0	0x3b05ad84	0.0020397613
1	0xba9eb315	-0.0012107814
2	0xbb9a76c0	-0.004713863
3	0x3c29bb43	0.010359588
4	0xbc5ba87c	-0.013406869
5	0x2eda0433	9.914238e-11
6	0x3ace549f	0.0015741772
7	0xbb11ce5f	-0.002224825
8	0xbaf3a80f	-0.0018589514
9	0xba0a9b21	-0.0005287398
10	0xba3f5cad	-0.00072998815
11	0x3a6d0b8f	0.0009042555
12	0xbaee01cc	-0.0018158494
13	0xbc1ac375	-0.009446015
14	0x3ac66c9d	0.001513857
15	0xbb75a136	-0.0037480122
16	0xbb9b00de	-0.004730328
17	0xbae3a09e	-0.0017366593
18	0x3aa80fe5	0.001282212
19	0x3ade4f96	0.0016960974
20	0x3b23e0a5	0.0025005725
21	0xbcdd5a93	-0.027020728
22	0xb975c114	-0.00023436948
23	0x3b41edb1	0.0029591138
24	0x3aab03f0	0.0013047438
25	0xbbe1c0c6	-0.0068894355
26	0xbb85b7af	-0.0040807347
27	0x3a6e7718	0.0009096726
28	0x39f97e73	0.00047587193
29	0x3c8cfd8e	0.017210748
30	0xba927efb	-0.0011176759
31	0xbbbec61f	-0.0058219577
32	0xbad026d3	-0.0015880711
33	0x3c01d4cb	0.007924269
34	0x3a30cfaa	0.00067448115
35	0x3b383725	0.002810904
36	0x3c74c828	0.014940299
37	0x3ac99fa3	0.0015382658
38	0x3bc3d3ce	0.005976177
39	0xbb8848c8	-0.004159067
40	0xb8845df2	-6.311749e-05
41	0xbb810631	-0.0039375057
42	0xbb6d72fc	-0.0036231866
43	0x3c84b966	0.016201686
44	0xbba2f368	-0.004972864
45	0xba56b523	-0.00081904436
46	0x3a9beeaf	0.0011896695
47	0xb9ff29d5	-0.00048668557
48	0x3b071295	0.002061044
49	0x3bb31bd8	0.0054659657
50	0x39ba6432	0.00035551336
51	0xb99a88f2	-0.000294752
52	0xbb961130	-0.0045796856
53	0x3aee4289	0.0018177788
54	0xbaa220a8	-0.0012369351
55	0x3c2276f1	0.009916053
56	0xbc1b50c3	-0.009479704
57	0x3a59c104	0.00083066546
58	0xbaac0740	-0.0013124719
59	0x3b30b153	0.0026961162
60	0x3a265fea	0.000634669
61	0x3ac38a67	0.0014918566
62	0xbb5acf62	-0.003338777
63	0xba3d5c9c	-0.00072235777
64	0xbb27e987	-0.002562137
65	0x362fdf53	2.6207024e-06
66	0xbb696797	-0.0035614723
67	0x3bdd401e	0.006752028
68	0x393ec47e	0.00018193011
69	0xbb6ab135	-0.003581119
70	0x3c26b84e	0.010175778
71	0x3c804bc3	0.015661126
72	0xb9be0168	-0.00036240672
73	0xbbbbb5bb	-0.005728451
74	0xbb233a05	-0.0024906409
75	0xba85634a	-0.0010176685
76	0xbaf7b277	-0.0018897791
77	0xbc0d635a	-0.008629644
78	0xb49d3539	-2.9282253e-07
79	0x3ca36fb8	0.019950733
80	0x3c60e578	0.013726585
81	0x3b5ca3a9	0.0033666885
82	0xbad2071c	-0.0016023847
83	0x3958a037	0.0002065905
84	0x3c2c3ab8	0.0105120465
85	0x3b087983	0.002082438
86	0x3b50ceb1	0.003186148
87	0x3aa7f708	0.001281471
88	0xba2efb0b	-0.00066749816
89	0x3c6ac576	0.014329305
90	0x3cac036b	0.020997724
91	0x3bb0842b	0.0053868494
92	0x3a02b3d5	0.00049859035
93	0xb9e624d8	-0.0004389647
94	0xbb973aee	-0.0046151793
95	0x3b0e67b8	0.0021729302
96	0x3aa3bd7c	0.0012492384
97	0xb987591d	-0.000258156
98	0xb9e245c7	-0.00043158067
99	0x36803bdf	3.821667e-06
100	0xbab515ff	-0.001381576
101	0xbb303ca0	-0.0026891604
102	0x39d4325e	0.00040473317
103	0xb9fed011	-0.00048601677
104	0x3b3234d2	0.0027192128
105	0x3aa567f4	0.0012619481
106	0xbc1f729d	-0.009731916
107	0x3c31b9ab	0.010847489
108	0x3991abbe	0.00027784513
109	0xb53f2d0c	-7.1218597e-07
110	0xb9ed7cc5	-0.00045297123
111	0x3bf25d49	0.0073963744
112	0xbc86b696	-0.016444486
113	0xb787db88	-1.6195481e-05
114	0xbb19fb5d	-0.0023495771
115	0xbb8340f2	-0.004005545
116	0xba76e2dd	-0.00094179605
117	0x3b8f3488	0.004370276
118	0x3cbc7bf8	0.023008332
119	0xba494b33	-0.0007678747
120	0x3b144b47	0.0022627877
121	0x39184658	0.00014522055
122	0xb80f0cee	-3.41059e-05
123	0x3afc7c91	0.0019263198
124	0xbb791d04	-0.003801168
125	0x3aa398de	0.0012481471
126	0x3b0abd47	0.0021169947
127	0x3b674cc3	0.0035293556

network_body._body_endoder.seq_layers.0.weight f4 [128, 6]
0	0x3e82a856	0.25519055
1	0x3e17c30c	0.14820498
2	0xbe4778ac	-0.19479626
3	0x3d51bafc	0.051203713
4	0xbf390fc7	-0.722897
5	0x3f4e3e73	0.8056404
6	0x3e913751	0.28362516
7	0xbe99072d	-0.29888287
8	0xbed943b9	-0.4243448
9	0x3ed18de8	0.40928578
10	0x3d74f981	0.059808258
11	0xbe89de57	-0.26927444
12	0x3ec35e27	0.3815777
13	0x3bd48152	0.0064851427
14	0x3dfcf18b	0.12350758
15	0x3ec76d36	0.3895051
16	0xbf21a894	-0.63147855
17	0xbf3d8686	-0.7403339
18	0xbe277acc	-0.16355437
19	0xbecb7e06	-0.39744586
20	0xbed61340	-0.41811562
21	0xbe2166a9	-0.15761818
22	0xbf0e68bc	-0.5562856
23	0x3f344189	0.704125
24	0x3cd9e7f3	0.02659986
25	0x3e96ab8c	0.29427755
26	0xbe383194	-0.17987663
27	0x3f09fd7b	0.53902406
28	0x3cdfd93b	0.027325263
29	0x3e85992c	0.26093423
30	0xbe95c06e	-0.29248375
31	0xbe8cca9a	-0.27498323
32	0xbe03799b	-0.12839358
33	0xbf58fbf4	-0.8475945
34	0xbede9d7c	-0.43479526
35	0xbdfd2187	-0.123599105
36	0xbd45b4a8	-0.04826799
37	0x3f67a3ed	0.90484506
38	0x3e89b0f2	0.2689281
39	0x3e0d156d	0.13777705
40	0xbefe0454	-0.49612677
41	0xbf0e3165	-0.5554412
42	0xbe18f128	-0.14935744
43	0xbdb55645	-0.08854345
44	0xbf1201a9	-0.57033783
45	0x3f242663	0.64121073
46	0x3e97fec4	0.29686558
47	0x3ef87a44	0.4853078
48	0x3ec68e59	0.38780478
49	0xbf2d01c2	-0.6758081
50	0xbe54cbe2	-0.207809
51	0xbe1b9dc0	-0.15196896
52	0xbe756e9d	-0.23967977
53	0x3ea6bc6a	0.32565624
54	0x3f50d45b	0.8157403
55	0x3f20b498	0.62775564
56	0xbe576411	-0.21034266
57	0x3dead4f2	0.11466397
58	0xbeada307	-0.33913442
59	0x3e5c1b0d	0.21494694
60	0xbedc54b9	-0.43033388
61	0xbe6582c4	-0.22413164
62	0x3c2d0737	0.010560802
63	0x3f1521c6	0.5825466
64	0xbf06e81e	-0.5269793
65	0xbdd3347f	-0.10312747
66	0xbee2184e	-0.44159168
67	0x3f05f8ea	0.5233294
68	0xbde61f4c	-0.11236438
69	0x3f23022c	0.6367519
70	0x3dd8a938	0.10579151
71	0x3c457a07	0.012053019
72	0xbf7d1f96	-0.9887632
73	0x3ed87d7a	0.4228323
74	0x3f299552	0.6624347
75	0x3e430f64	0.1904884
76	0x3e0b5cda	0.13609639
77	0xbdff75b3	-0.12473621
78	0xbc850897	-0.016239448
79	0x3d90b746	0.07066207
80	0xbe949c80	-0.2902565
81	0xbdb5df77	-0.08880513
82	0x3efcfa63	0.4940978
83	0xbeb87b94	-0.36031783
84	0xbeab5120	-0.3346033
85	0x3ef2f66d	0.47453633
86	0x3e1cb859	0.15304698
87	0x3ed78d5f	0.42100045
88	0x3dc8d16d	0.0980557
89	0x3e0e3789	0.13888372
90	0xbe51d0a2	-0.20489743
91	0x3e62a3aa	0.22132745
92	0x3ec9635d	0.3933362
93	0x3ee03f01	0.43798068
94	0xbe89ea30	-0.26936483
95	0x3e6f8d02	0.23393634
96	0x3eea74ed	0.45792332
97	0x3d6346c9	0.055487428
98	0xbedbf306	-0.4295885
99	0x3ec90db1	0.39268258
100	0x3e163813	0.14669828
101	0x3e8009b0	0.2500739
102	0x3d98fb7a	0.0746984
103	0x3e9f7de6	0.3115074
104	0x3ee023f6	0.43777436
105	0x3f2ba070	0.67041683
106	0x3d5a46a7	0.053290036
107	0xbebe4d7d	-0.37168494
108	0x3ed32750	0.4124093
109	0x3f584dc1	0.84493643
110	0xbf067fce	-0.52538764
111	0x3e8df637	0.2772691
112	0x3f0a4869	0.5401674
113	0x3e8e7eac	0.27831018
114	0x3e93b171	0.28846315
115	0xbe9b7321	-0.30361274
116	0xbf217b45	-0.6307872
117	0x3cc40357	0.023927374
118	0xbf454070	-0.7705145
119	0xbcce4469	-0.025179105
120	0xbebd21c4	-0.36939824
121	0x3e4b97e0	0.19882154
122	0xbb48d14f	-0.0030642336
123	0xbd61c7f4	-0.05512233
124	0xbeb2582c	-0.34832895
125	0xbd8c974e	-0.068647966
126	0x3d9f43de	0.077766165
127	0xbdc3c3a4	-0.095588
128	0x3eebceb0	0.46056128
129	0xbea7bede	-0.32762808
130	0x3e727425	0.23677118
131	0x3e08c855	0.1335767
132	0xbfae3276	-1.360915
133	0x3d05a604	0.032629028
134	0x3f2e4b38	0.68083525
135	0x3f35e499	0.7105194
136	0xbe8d8d98	-0.2764709
137	0xbedff067	-0.437381
138	0x3f1c1e5c	0.60983825
139	0xbee9aa00	-0.45637512
140	0x3e24e82b	0.1610419
141	0x3e8ef43d	0.27920714
142	0x3e7f8706	0.24953851
143	0xbe8df54f	-0.27726218
144	0xbe5945f4	-0.21218091
145	0x3e42162a	0.18953767
146	0x3e8380ce	0.25684208
147	0x3e8b4544	0.27201283
148	0xbcc9bf04	-0.024627216
149	0xbe9efb80	-0.31051254
150	0x3d00282f	0.031288322
151	0x3b51dc80	0.0032022297
152	0xbea59263	-0.32338247
153	0xbc325e2a	-0.010886708
154	0x3e2c7706	0.16842279
155	0xbf72f352	-0.9490253
156	0x3eead194	0.4586302
157	0xbed8e633	-0.42363128
158	0x3e130ecb	0.14361112
159	0x3d84d712	0.06486334
160	0xbe9ce556	-0.3064372
161	0x3e77afef	0.24188207
162	0x3f136521	0.57576185
163	0x3ebc880a	0.3682254
164	0x3e60f02b	0.21966617
165	0x3ed20960	0.41022778
166	0x3eb0e116	0.34546727
167	0xbeab5fb8	-0.33471465
168	0x3ea5fd37	0.3241975
169	0xbf2e2398	-0.6802306
170	0xbe981ac8	-0.29707932
171	0xbf4e403d	-0.8056677
172	0xbf1aa399	-0.6040588
173	0xbe1cece0	-0.15324736
174	0x3de55ab5	0.111989416
175	0x3e16bc29	0.14720215
176	0x3f57759d	0.8416384
177	0xbf16c9ca	-0.58901656
178	0x3ed35fd5	0.41284052
179	0xbec7d182	-0.3902703
180	0xbc59094b	-0.0132468445
181	0x3ed22d33	0.4105011
182	0xbf340fae	-0.70336425
183	0x3e65a5ae	0.22426483
184	0x3f27424e	0.6533555
185	0x3d4cb25d	0.049974788
186	0xbf288059	-0.65820843
187	0x3c8f543e	0.017496224
188	0x3e98f0b9	0.29871157
189	0x3f83fa02	1.0310671
190	0x3ee8d394	0.4547392
191	0x3ccd63fd	0.025072092
192	0x3e38d04c	0.18048209
193	0xbf125462	-0.5716001
194	0xbf2ce7ab	-0.67541
195	0x3d1a1e9e	0.037626855
196	0x3ca17e92	0.019713674
197	0x3e76effe	0.24114987
198	0x3e23dfd8	0.16003358
199	0xbde01c3c	-0.10942885
200	0xbf2afd36	-0.6679262
201	0xbe71c609	-0.236107
202	0x3ecbb42f	0.39785907
203	0xbe099778	-0.13436687
204	0xbebce1fc	-0.36891162
205	0x3f4e292f	0.8053159
206	0x3ebc7580	0.36808395
207	0x3eb0b923	0.34516248
208	0xbe824d43	-0.2544957
209	0xbea32dae	-0.31870788
210	0x3eefd189	0.4683955
211	0x3f3af9a2	0.7303716
212	0xbe872e79	-0.26402643
213	0xbe03cf9b	-0.12872164
214	0x3f0f5bea	0.55999625
215	0x3df6b6d8	0.120465934
216	0x3e2e6a31	0.17032696
217	0x3e4d0297	0.20020519
218	0x3f8318a4	1.0241895
219	0x3d04bba0	0.032405496
220	0xbed48b44	-0.415125
221	0x3f29adbf	0.6628074
222	0x3ee4d5e2	0.4469443
223	0xbe81e273	-0.2536808
224	0xbf20aa1d	-0.6275957
225	0x3e5f5b08	0.2181207
226	0x3f43e96e	0.7652806
227	0xbea4402c	-0.3208021
228	0xbeb91cb8	-0.36154723
229	0xbed1158e	-0.40836757
230	0x3ef209d9	0.47273138
231	0xbcd15a3e	-0.025555726
232	0xbd7c2120	-0.061555028
233	0xbf17e5dd	-0.5933512
234	0xbf08ae13	-0.53390616
235	0x3f9c9ee6	1.2235992
236	0x3e4956c8	0.1966201
237	0x3d3979b3	0.045282077
238	0xbd4f91d1	-0.05067617
239	0xbec1dfc1	-0.37866023
240	0xbea39df3	-0.31956443
241	0x3f4fd7b3	0.81188506
242	0x3d8abf61	0.06774784
243	0xbf0aba12	-0.5419017
244	0xbec256b6	-0.3795678
245	0x3f185aa3	0.595133
246	0x3ef01860	0.46893597
247	0x3d2ebd2c	0.042660877
248	0xbe26fe6f	-0.16307996
249	0x3dd53b30	0.1041168
250	0x3f2bb051	0.6706591
251	0xbd3b7acc	-0.045771405
252	0x3e679fa7	0.22619496
253	0xbf32b32d	-0.6980465
254	0x3f6aaafa	0.9166714
255	0x3e84a709	0.25908688

network_body._body_endoder.seq_layers.2.bias f4 [128]
0	0x39a7936a	0.00031962554
1	0xbb0ce41e	-0.0021498273
2	0x3aabf8f6	0.0013120461
3	0xbb25b5d9	-0.0025285392
4	0x39fe7a21	0.00048537648
5	0x39adf95e	0.00033182924
6	0x392d5375	0.00016529656
7	0x3a453810	0.00075233076
8	0x3afbfa1c	0.0019224319
9	0xba99c3bc	-0.0011731307
10	0xbb1d8f14	-0.002404158
11	0xbb23422b	-0.0024911265
12	0xbb61202b	-0.003435145
13	0x3b03b7b0	0.00200985
14	0xba74ba6e	-0.00093356415
15	0xbac0f82b	-0.0014722397
16	0xba4fc9ed	-0.00079265126
17	0xbaf1d958	-0.0018451614
18	0x3af8a4db	0.0018970029
19	0xbb2dd120	-0.0026522353
20	0xbaac4276	-0.0013142365
21	0xbac62954	-0.0015118518
22	0xba8db870	-0.0010812413
23	0x3b3d3850	0.0028872676
24	0xba14326c	-0.00056532654
25	0xb7d501d1	-2.5392425e-05
26	0x3b1a5fa2	0.0023555537
27	0x39567b15	0.00020454482
28	0xbad2d05b	-0.0016083823
29	0x38f3d45b	0.00011626697
30	0xba85343c	-0.0010162662
31	0xbbee0ce7	-0.0072647217
32	0x3b7f9252	0.0038997126
33	0x3b8950e4	0.004190551
34	0x3a809754	0.0009810724
35	0xba688e26	-0.00088712794
36	0x3bc79440	0.006090671
37	0xbb0dcc7a	-0.002163677
38	0xb8fc4418	-0.0001202898
39	0xbaa2fd43	-0.0012435097
40	0x3a8b5cfe	0.0010632572
41	0x3a3328d9	0.0006834395
42	0xba09c8dd	-0.0005256066
43	0xbabf9c1e	-0.001461867
44	0x3a86f102	0.0010295215
45	0xbb7aa07a	-0.0038242624
46	0x3aa796df	0.0012786052
47	0xb9a2ae62	-0.00031028973
48	0xbb65ca6d	-0.0035063282
49	0xbb0389ea	-0.0020071217
50	0x3a9a2fee	0.0011763552
51	0xbab74c4c	-0.001398453
52	0xbb7152f8	-0.0036823135
53	0xbb30af25	-0.0026959863
54	0xb7a9fd12	-2.0264215e-05
55	0xba4a9d74	-0.0007729151
56	0x3b6305a5	0.0034640816
57	0xb9a27a7d	-0.0003099031
58	0xbb95c975	-0.0045711347
59	0xbb11fe4f	-0.0022276824
60	0xbb1487ed	-0.0022664026
61	0xba311840	-0.00067556277
62	0xb9ad41c5	-0.00033046133
63	0x3bdc06ba	0.006714669
64	0xb87bc98a	-6.003076e-05
65	0xbba625dc	-0.005070431
66	0xbb43696f	-0.0029817482
67	0xbb832d6b	-0.004003217
68	0xb8997b7e	-7.318611e-05
69	0x3a1a3682	0.0005882756
70	0xbb9b84be	-0.0047460487
71	0x3ac1b16c	0.0014777607
72	0x3ba3f476	0.0050035072
73	0xba4ca942	-0.0007807204
74	0xb9159baa	-0.00014267737
75	0xbb7e9b30	-0.0038849823
76	0xa9ee0403	-1.0570019e-13
77	0xbaa37824	-0.0012471718
78	0xbafcb3f0	-0.00192797
79	0x3b05f057	0.0020437443
80	0xb97f703b	-0.00024360504
81	0xbac2365a	-0.0014817223
82	0xba6ceb6d	-0.0009037767
83	0xbac9bd9a	-0.0015391589
84	0xba2a020f	-0.0006485292
85	0xbb3d2607	-0.0028861777
86	0x39846b47	0.0002525693
87	0x3b06ea7f	0.0020586548
88	0x3b3c8b96	0.0028769723
89	0xbadb9ed4	-0.0016755708
90	0xb8b3d108	-8.57432e-05
91	0xbb05a825	-0.0020394411
92	0xbac5f27e	-0.0015102176
93	0x39a5683f	0.00031548922
94	0xbab9a232	-0.0014162718
95	0x3c085313	0.008320588
96	0xbb40c2e3	-0.0029413037
97	0xbb08a0e4	-0.0020847851
98	0x3ae26f38	0.0017275577
99	0x3af67e96	0.0018806036
100	0x3b0d0897	0.0021520013
101	0x3512016a	5.4391296e-07
102	0xbb1a75c8	-0.0023568738
103	0xbb05df50	-0.0020427294
104	0xb9d1bce4	-0.0004000432
105	0x3a9d948f	0.0012022423
106	0xbb982da5	-0.004644113
107	0xbb5cea8e	-0.0033709141
108	0xba77082c	-0.000942352
109	0xbb0586e1	-0.0020374584
110	0x398a172a	0.0002633867
111	0x3b1989aa	0.0023428001
112	0xb7f5bc92	-2.9294086e-05
113	0x3b490a2c	0.003067623
114	0x3a510860	0.0007973965
115	0xb81de094	-3.764087e-05
116	0x3a869a4e	0.0010269375
117	0xba71012b	-0.00091935945
118	0x3a5eb02c	0.00084948796
119	0x3a83beb6	0.0010051343
120	0x3be3da13	0.0069534867
121	0xbb07d2d1	-0.0020725022
122	0xbb03ec3b	-0.0020129818
123	0xbb62567e	-0.0034536417
124	0x377c5d7d	1.5042137e-05
125	0x3a80e0fa	0.0009832673
126	0x3ac453ea	0.0014978622
127	0xbb6ff81a	-0.0036616386

network_body._body_endoder.seq_layers.2.weight f4 [128, 128]
0	0xbe044730	-0.12917781
1	0x3e249d1b	0.16075556
2	0x3dad57f2	0.0846404
3	0x3e04174e	0.12899515
4	0xbcc1c9e8	-0.023655847
5	0x3ceb529c	0.028725915
6	0x3be65b45	0.007029923
7	0xbdb99060	-0.090607405
8	0x3d402cf9	0.04691789
9	0x3e41507b	0.18878357
10	0x3d6e17c2	0.058128126
11	0xbda1000b	-0.07861336
12	0xba670091	-0.0008812035
13	0x3e1b26f0	0.15151572
14	0x3be9a9ff	0.007130861
15	0xbd7cf448	-0.061756402
16	0xbdd7f055	-0.105438866
17	0x3db44738	0.088026464
18	0xbc0ec158	-0.008713089
19	0xbd2529a9	-0.040322933
20	0x3dc6ee06	0.09713368
21	0xbcdc718a	-0.026909608
22	0xbd3d6ace	-0.046244435
23	0xbe303196	-0.17206416
24	0xbdcbf5e1	-0.09959007
25	0xbda7dc29	-0.08196289
26	0x3d82a102	0.06378366
27	0x3dab564c	0.08366069
28	0xbe1198b8	-0.14218414
29	0xbd91856a	-0.07105525
30	0x3da4b205	0.08041767
31	0xbca1ea7d	-0.019765133
32	0xbdd774b8	-0.10520309
33	0x3dcae137	0.099062376
34	0x3bf9a138	0.0076180957
35	0xbc946d14	-0.018118419
36	0x3d03eaf7	0.0322065
37	0xbddb9d4e	-0.10723363
38	0x3d76aa30	0.060220897
39	0xbe64012c	-0.22266072
40	0x3cd33dd5	0.02578632
41	0x3e0379b2	0.12839392
42	0xbd05ad4a	-0.032635964
43	0x3db49d4b	0.08819064
44	0xbc8e098f	-0.017338542
45	0xbce0f778	-0.027461752
46	0x3d86f3af	0.06589448
47	0xbd2b8d4f	-0.04188281
48	0x3cf6158b	0.03003957
49	0xbe387922	-0.18014959
50	0x3b86e3ef	0.0041165273
51	0xbd662aff	-0.056193348
52	0xbd7682fd	-0.060183514
53	0xbd0ec0ba	-0.034851767
54	0xbc8c93ef	-0.017160384
55	0x3dd6ac81	0.10482121
56	0xbd0cda3d	-0.034387816
57	0x3d1f2f6b	0.03886358
58	0x3d00baab	0.03142802
59	0xbb9d4361	-0.004799292
60	0x3dd5b0aa	0.104340866
61	0xbdfef490	-0.1244899
62	0x3e4b88ca	0.198764
63	0xbe0c3d72	-0.13695315
64	0x3d55b22f	0.052171882
65	0xbbcd01d2	-0.0062563205
66	0x3c22a3b9	0.00992673
67	0x3d2c9c5c	0.042141303
68	0x3da13683	0.078717254
69	0xbe16f108	-0.14740384
70	0xbd709853	-0.058739018
71	0x3dd364ad	0.10321937
72	0x3d994a2c	0.0748485
73	0x3ca05288	0.019570604
74	0x3c17e812	0.0092716385
75	0xbc35c20e	-0.0110936295
76	0x3d682519	0.056676004
77	0x3b2736f2	0.0025514928
78	0xbc2574dc	-0.010098662
79	0xbe2e4f02	-0.17022327
80	0x3d8d0acd	0.06886826
81	0xbcbc3147	-0.022972716
82	0xbdfdce3e	-0.12392853
83	0xbdc0c640	-0.09412813
84	0xbe030e7d	-0.12798496
85	0xbdd5a181	-0.10431195
86	0x3cdb07e3	0.02673716
87	0x3d4b5f4b	0.049651425
88	0x3d804fc1	0.06265212
89	0xbdb48951	-0.088152535
90	0x3d067faf	0.032836612
91	0xbdc4a0a6	-0.09600954
92	0xbd5c474c	-0.05377893
93	0x3d7612e6	0.060076617
94	0x3cc05927	0.023480011
95	0x3d0c0407	0.03418353
96	0xbb5225c3	-0.0032065965
97	0xbd4edef4	-0.050505593
98	0x3cc0b5c3	0.02352417
99	0x3dd741b1	0.105105765
100	0xbd3a7e09	-0.045530353
101	0x3c116502	0.00887418
102	0xbe1254c3	-0.14290147
103	0x3d2819bb	0.041040163
104	0xbd20b021	-0.03923047
105	0xbd2c563c	-0.042074427
106	0xbdec48ae	-0.115373
107	0xbe1a7577	-0.15083872
108	0x3bd6f675	0.0065601417
109	0xbde7d519	-0.11319942
110	0x3e2d8888	0.16946614
111	0x3d3e5b32	0.04647369
112	0x3dd2f76e	0.103011
113	0xbc62764d	-0.01382215
114	0x39f61af1	0.0004694085
115	0x3b40aff9	0.0029401763
116	0x3deb92c9	0.115026064
117	0x3dbd2aeb	0.092367016
118	0xbc34a2b1	-0.011025117
119	0x3e02423f	0.12720583
120	0x3dc43bab	0.09581693
121	0x3d10b774	0.035331205
122	0xbd76313b	-0.060105544
123	0x3c05f4d0	0.008176044
124	0xbdf8de02	-0.1215172
125	0x3c175e90	0.009238854
126	0xbd9965ab	-0.07490095
127	0x3dab3cac	0.083611816
128	0xbe6b1758	-0.22958124
129	0x3e207589	0.15669836
130	0x3d5c5d40	0.053799868
131	0x3b7adabb	0.0038277346
132	0x3c9a8039	0.01885997
133	0x3d6b6480	0.05746889
134	0x3e1fcf55	0.15606435
135	0x3e2fd252	0.17170075
136	0xbb959ce9	-0.0045658243
137	0xbe0fc9e7	-0.14041863
138	0xbd49201d	-0.04910289
139	0xbd360e63	-0.044447314
140	0xbd89807c	-0.067139596
141	0x3d8cde7d	0.06878374
142	0x3d98345c	0.07431862
143	0x3d085dbf	0.03329253
144	0xbdb53199	-0.088473506
145	0x3ddce45e	0.10785745
146	0xbb4e2bb7	-0.0031459162
147	0xbdb3f38a	-0.08786686
148	0xbd9b6bf9	-0.075889535
149	0xbe1b8c66	-0.15190277
150	0x3dd0a4c2	0.10187675
151	0x3e356be4	0.17716938
152	0xbd883aa5	-0.066518106
153	0x3d0fb411	0.035083834
154	0x3b57fbd1	0.003295649
155	0xbe0f860f	-0.14015983
156	0xbc783459	-0.015149199
157	0xbd9227a0	-0.07136464
158	0x3e0a3b88	0.13499272
159	0xbdcf4bd3	-0.10121884
160	0xbd28bae0	-0.041193843
161	0x3dc82ca5	0.0977414
162	0x3db87df1	0.090083964
163	0xbda10657	-0.07862537
164	0xbdf19183	-0.11795332
165	0x3c25470c	0.01008774
166	0x3d888177	0.066653185
167	0xbaab4292	-0.0013066104
168	0xbe2b734d	-0.16743203
169	0xbdcce3ef	-0.100044124
170	0xbda5d56d	-0.08097348
171	0x3dd5525f	0.10416102
172	0x3d022726	0.031775616
173	0xbe31cacb	-0.17362516
174	0x3d97931d	0.074011065
175	0xbcd16d82	-0.025564913
176	0xbdc92641	-0.098217495
177	0x3df2b4ee	0.11850916
178	0xbdd9fb46	-0.1064363
179	0x3d46a1b2	0.04849405
180	0x3b4365d3	0.002981533
181	0x3d9a8d32	0.07546462
182	0xbca6d0bb	-0.020363202
183	0x3d6df7ca	0.05809764
184	0xbc720ae4	-0.014773104
185	0x3c44cbdd	0.012011495
186	0xbe1361af	-0.14392732
187	0xbe386c79	-0.18010129
188	0x3d9c88cb	0.07643279
189	0x3d2b5358	0.04182753
190	0xbdb71c8d	-0.089409925
191	0x3c82cd04	0.0159669
192	0xbddfed88	-0.10933977
193	0x3dfb96b2	0.12284602
194	0x3d76ad82	0.060224064
195	0xbd2f961c	-0.042867765
196	0x3e34f733	0.17672424
197	0xbd24e482	-0.040256985
198	0x3d770778	0.060309857
199	0xbd063732	-0.032767482
200	0x3d45b3d9	0.04826722
201	0xbd4ebc2c	-0.050472423
202	0x3d7b0137	0.061280455
203	0x3cd1dd50	0.025618225
204	0x3dcfd1c7	0.10147434
205	0xbdc7937f	-0.097449295
206	0xbd34d5aa	-0.04414908
207	0xbc144e0a	-0.009051809
208	0xbcd7c9e0	-0.026341379
209	0x3d5bda4f	0.053674992
210	0xbe06f062	-0.13177636
211	0xbe1c227c	-0.1524753
212	0xbd83ed2f	-0.064417236
213	0x3cbfef89	0.023429649
214	0xbd4a2b58	-0.049357742
215	0x3d6bb447	0.057544973
216	0x3da30a6a	0.07960971
217	0xbd299c02	-0.041408546
218	0xbde2dfa8	-0.11077815
219	0xbd8d8667	-0.06910401
220	0xbcd3347b	-0.02578186
221	0x3d6665a3	0.056249272
222	0xbe3ae6dc	-0.18252128
223	0xbe0d2561	-0.1378379
224	0x3dd36f97	0.103240184
225	0x3d93fbcf	0.07225763
226	0xbc5f7d0a	-0.0136406515
227	0xbdb5341a	-0.08847828
228	0x3d916c46	0.0710073
229	0xbc4717c4	-0.012151662
230	0x3d80aa88	0.06282526
231	0xbc1cb842	-0.009565415
232	0x3c8fdac5	0.017560372
233	0x3b87fcf0	0.0041500255
234	0x3df55771	0.11979569
235	0x3d9e0260	0.07715297
236	0x3d27d7e3	0.04097737
237	0x3e42ed55	0.19035847
238	0xbd2614b3	-0.040547084
239	0xbd92d869	-0.07170183
240	0xbdb1be64	-0.08678892
241	0xbccb55eb	-0.024821242
242	0xbd55eac4	-0.052225843
243	0x3d45fc38	0.048336238
244	0x3d26723d	0.04063629
245	0xbd9077ad	-0.07054076
246	0xbdff81e2	-0.12475945
247	0xbd9b3077	-0.07577603
248	0x3d44f12b	0.04808156
249	0x3c1ef5a1	0.009702117
250	0x3d9ed148	0.07754761
251	0x3d1cf545	0.038319845
252	0x3df5d96d	0.12004361
253	0x3c627440	0.0138216615
254	0x3d6fff69	0.058593187
255	0xbe0221ab	-0.12708156
