NN/BasicAgent-Final.onnx (onnx, 95028 bytes, 7 tensors)

action_model._continuous_distribution.log_sigma f4 [1, 2]
0.008003492 0.0090458
00000000: 1421 033c d634 143c

action_model._continuous_distribution.mu.bias f4 [2]
0.0010371568 0.0014206232
00000000: 35f1 873a 3434 ba3a

action_model._continuous_distribution.mu.weight f4 [2, 128]
0.010226614 -0.004245468 0.030662313 -0.0038423953 0.017391289 0.012692964 -0.019353295 -0.008320556
0.0114074405 -0.02860653 0.027931243 0.023170233 0.013395704 0.017741082 0.030305797 0.022676984
-0.03822041 0.021917263 -0.02698007 0.01478587 0.044737305 0.021459876 0.029921962 -0.006314382
-0.0048420727 0.021186214 0.012679351 0.012938396 -0.00063309737 -0.0023361852 0.014192804 0.016680775
0.0023147084 -0.0396152 0.029412638 0.0074764774 -0.0136114815 -0.0007058754 -0.005683556 -0.025110934
0.028786203 -0.009808195 -0.00072946394 0.024130952 -0.0065836264 0.0010870321 -0.012718455 -0.008909131
-0.03484823 0.006919554 -0.018609056 0.007219115 -0.0063341702 -0.009432605 -0.02639928 0.0010292325
-0.0016476555 0.016397987 -0.02556571 0.02746056 0.03487786 -0.010868393 0.01395153 0.009181472
-0.0108542945 -0.0009843505 0.028038234 0.0048916023 0.015392404 -0.028738713 -0.04477217 -0.030463507
-0.0117461225 -0.026556786 -0.014206713 -0.00022405434 0.0100356275 0.027535804 -0.01814713 -0.004856334
0.015277768 0.025135292 0.017026693 -0.006417936 0.0009805722 -0.011105784 0.029351342 0.020392777
-0.0029754734 0.01641663 -0.004794741 -0.0030078404 0.010532216 0.0011002873 -0.005822674 -0.012887968
0.0001312086 0.0034908324 0.013743358 -0.003344557 0.007738578 0.0018285768 0.01664534 0.004530111
0.01827327 0.017264422 0.02242515 0.001915763 -0.020502577 -0.00053556944 -0.03532701 0.017199297
0.008228778 0.004678263 -0.0023942185 0.002131086 0.00836072 0.010062379 0.019528195 0.0031244126
0.018138807 0.0051539815 0.050321255 -0.021003326 0.0009310788 -0.00017721143 -0.023508573 0.02050793
-0.02791491 -0.0074315807 -0.008131648 -0.011721118 -0.02901541 -0.022577256 -0.029041033 0.014647674
0.028576685 -0.0024462384 -0.00207638 -0.03424377 0.01240111 -0.016046444 -0.028358513 -0.0272264
0.029205704 0.0041482667 -0.0052944217 -0.0141392965 0.00025025694 -0.0065908516 0.018383823 0.02360902
0.0011492576 -0.0011664067 -0.011276778 -0.03156712 -0.011768851 0.004024177 -0.014666444 0.004673175
-0.0131883435 0.0061702235 -0.006273031 0.0025784604 0.003229362 0.036226828 -0.02465231 -0.0016053792
-0.0024962989 0.024146548 0.012263548 -0.02568013 -0.01292243 0.01369241 0.0033652843 -0.048715465
0.01478626 0.0009546086 0.010684016 -0.006074798 0.001966951 0.012632584 -0.0102287 0.007625844
-0.010702487 0.006626316 0.01209363 0.016151695 -0.025731616 0.0015093622 0.0043794718 -0.01051069
0.0047179307 -0.020267224 5.6586687e-05 -0.008749292 0.0057866476 -0.030917598 0.00015270624 0.0045434823
-0.013118464 -0.016440965 -0.0073664878 0.014763489 0.020716626 -0.01018703 0.009402417 0.0045659775
-0.019014888 0.00581219 0.005143571 -0.02797028 -0.005539795 -0.005906859 -0.016308317 -0.0264717
-0.0013599662 -0.0011301056 0.016235167 -0.0038470256 -0.022079604 -0.009287919 0.001020161 -0.007732292
0.022188481 0.015869528 -0.013039628 0.0020852375 0.0021486732 -0.0041280426 0.003947465 0.037064083
0.009845726 0.016105697 0.0030926599 -0.008872265 0.006555325 0.0316476 0.012354621 0.0012928619
-0.0018600795 0.011004874 0.013764796 0.002043489 0.009371585 -0.01995826 0.01661047 0.00013733015
0.030360369 -0.016652483 -0.036575895 -0.010319822 0.0064129177 0.007828767 0.019010363 0.00081577373
00000000: 878d 273c 911d 8bbb 882f fb3c b2d0 7bbb
00000010: 2d78 8e3c 26f6 4f3c cd8a 9ebc f152 08bc
00000020: 46e6 3a3c 3e58 eabc 10d0 e43c 80cf bd3c
00000030: a879 5b3c bf55 913c dd43 f83c 15c5 b93c
00000040: 018d 1cbd d58b b33c 4f05 ddbc 6f40 723c
00000050: 773e 373d 9fcc af3c e71e f53c e0e8 cebb
00000060: 40aa 9ebb b68e ad3c 0dbd 4f3c 91fb 533c
00000070: 72f6 25ba af1a 19bb ef88 683c 1fa6 883c
00000080: 5db2 173b 8c43 22bd c6f2 f03c 3dfd f43b
00000090: b102 5fbc 7f0a 39ba 203d babb 72b5 cdbc
000000a0: 0bd1 eb3c 8db2 20bc 7f39 3fba 46ae c53c
000000b0: 76bb d7bb bf7a 8e3a 1161 50bc 9bf7 11bc
000000c0: 05bd 0ebd 6dbd e23b 0572 98bc 538e ec3b
000000d0: df8e cfbb 368b 1abc 4e43 d8bc 50e7 863a
000000e0: 25f6 d7ba 1255 863c 2e6f d1bc f8f4 e03c
000000f0: 16dc 0e3d 5811 32bc f594 643c e26d 163c
00000100: 36d6 31bc 5205 81ba 70b0 e53c bc49 a03b
00000110: 6c30 7c3c 736d ebbc 0663 37bd 9b8e f9bc
00000120: cf72 40bc 9e8d d9bc 46c3 68bc 21f0 6ab9
00000130: 796c 243c c492 e13c 4aa9 94bc e221 9fbb
00000140: 9a4f 7a3c 87e8 cd3c 907b 8b3c 8d4d d2bb
00000150: 8b86 803a 09f5 35bc 3a72 f03c c10e a73c
00000160: 2900 43bb 2b7c 863c 341d 9dbb 301f 45bb
00000170: 518f 2c3c 8437 903a 21cc bebb 0e28 53bc
00000180: 0a95 0939 73c6 643b d22b 613c 5b30 5bbb
00000190: e693 fd3b dbac ef3a cf5b 883c 5371 943b
000001a0: d3b1 953c 1e6e 8d3c f3b4 b73c 571a fb3a
000001b0: 05f5 a7bc 7565 0cba 0eb3 10bd 8ae5 8c3c
000001c0: ffd1 063c 1d4c 993b 52e8 1cbb b1a9 0b3b
000001d0: 67fb 083c addc 243c 98f9 9f3c f2c2 4c3b
000001e0: d697 943c bbe2 a83b a91d 4e3d 2b0f acbc
000001f0: a413 743a d5d1 39b9 0d95 c0bc 3f00 a83c
00000200: cfad e4bc 9e84 f3bb 9b3a 05bc ef09 40bc
00000210: bab1 edbc f0f3 b8bc 76e7 edbc ccfc 6f3c
00000220: a719 ea3c 1251 20bb e013 08bb 3243 0cbd
00000230: 062e 4b3c d573 83bc 1d50 e8bc e609 dfbc
00000240: cd40 ef3c 2fee 873b d47c adbb 82a8 67bc
00000250: eb34 8339 12f8 d7bb ac99 963c b467 c13c
00000260: b0a2 963a 1de2 98ba 3cc2 38bc 864c 01bd
00000270: 24d2 40bc 3edd 833b 864b 70bc 6f21 993b
00000280: ec13 58bc 962f ca3b ff8d cdbb 63fb 283b
00000290: b4a3 533b 9562 143d a4f3 c9bc 966b d2ba
000002a0: f298 23bb fbce c53c 0ced 483c 235f d2bc
000002b0: 9ab8 53bc 2156 603c 1a8c 5c3b de89 47bd
000002c0: 1242 723c b33e 7a3a 030c 2f3c 190f c7bb
000002d0: f6e7 003b e6f8 4e3c 4796 27bc 37e2 f93b
000002e0: 7c59 2fbc 9121 d93b 5c24 463c 8f50 843c
000002f0: 1ccb d2bc cbd5 c53a ac81 8f3b 0735 2cbc
00000300: df98 9a3b 7307 a6bc 7e57 6d38 3159 0fbc
00000310: eb9d bd3b e746 fdbc c51f 2039 7ee1 943b
00000320: d3ee 56bc 34af 86bc 9462 f1bb 90e2 713c
00000330: eab5 a93c 80e7 26bc 980c 1a3c 329e 953b
00000340: 1cc5 9bbc 2f74 be3b 678b a83b ee21 e5bc
00000350: 2b87 b5bb 538e c1bb 0599 85bc 2edb d8bc
00000360: e540 b2ba 0d20 94ba 9dff 843c 611e 7cbb
00000370: 49e0 b4bc 5b2c 18bc ecb6 853a 2b5f fdbb
00000380: 9ec4 b53c d000 823c 2aa4 55bc 7ba8 083b
00000390: c1d0 0c3b 8844 87bb bd59 813b 82d0 173d
000003a0: f84f 213c 18f0 833c 39ae 4a3b fa5c 11bc
000003b0: 0dce d63b eaa0 013d 096b 4a3c 3f75 a93a
000003c0: e9cd f3ba c94d 343c bd85 613c 0eec 053b
000003d0: 478b 193c 817f a3bc ae12 883c 4800 1039
000003e0: 4fb6 f83c ca6a 88bc 9bd0 15bd 7814 29bc
000003f0: 7423 d23b 3b44 003c 9fbb 9b3c a6d9 553a

network_body._body_endoder.seq_layers.0.bias f4 [128]
-0.001961714 -0.0010875136 -0.00013125912 -0.00032729885 -0.003849352 0.0032916458 0.0 -8.672387e-27
-4.2084807e-08 -0.0022180711 -5.4670202e-24 0.0030603544 0.0 0.0 -0.002165978 -1.0446846e-21
0.00200887 -0.00029098825 -0.0011832854 -1.7818664e-12 -0.0018223462 -0.0019936578 -4.0962917e-28 0.0021522196
0.00077622145 0.0016749616 -0.0034467638 0.0024750351 8.3962837e-10 -0.0006233324 -0.0023859502 -0.0008221906
-0.0017872019 -0.00021809172 0.0010694265 0.0010285104 -0.0025405139 -0.002134689 -0.0034339172 -0.0044728257
0.0015487514 0.0012736701 0.0 0.001372045 3.4520686e-10 -0.00041840077 -0.002979255 0.0009884818
-0.0008646704 -0.0017412826 1.7319705e-16 0.0033129842 -0.0026117896 1.2165692e-11 -0.0023596557 -2.615384e-31
-0.0022677276 0.0010591992 0.0008099026 0.0018622908 -0.00066344114 -0.002264049 0.0 -0.0008393183
-0.0077715167 3.816347e-11 8.513622e-32 0.0014984431 -0.00613189 -0.0016873766 -0.003156322 0.001835328
-0.0010507943 -0.00021997992 2.8151101e-28 6.384388e-05 0.0010864348 -0.0006225213 -0.0008025816 0.00014573055
2.82471e-14 0.0004633316 0.005058603 6.024784e-17 0.0002120593 0.0014467596 -0.0016235723 -0.00048231272
0.0 -0.0011834374 -0.0017683957 0.00050213677 -5.4244036e-11 -0.0010665883 1.6658201e-07 -0.0005321022
0.0007629149 8.96258e-15 -0.0013895751 -0.0026916265 -0.004859784 -0.0041559776 -0.0010304552 0.0011232335
0.0018054434 0.00076769135 1.7048505e-21 0.0013377549 0.0019253356 -0.0013141981 -0.0034752153 0.0010420325
0.0045438167 1.30326e-22 0.0 -0.0014950174 -0.00016018977 0.000107843094 -0.003596224 0.003254216
0.0012117146 -0.0018513473 -0.0019523511 0.0009036464 -0.0019817264 -0.00020684053 1.4982721e-26 1.0274918e-28
00000000: 1990 00bb e78a 8eba 9aa2 09b9 4f99 abb9
00000010: 6945 7cbb a7b8 573b 0000 0000 3ac6 2b94
00000020: bcc0 34b3 0f5d 11bb bf7e d398 3a90 483b
00000030: 0000 0000 0000 0000 15f3 0dbb 47de 9d9c
00000040: 3fa7 033b c88f 98b9 7818 9bba 81c6 faab
00000050: cbdb eeba 07a8 02bb 11d1 0192 410c 0d3b
00000060: 577b 4b3a 638a db3a 1ae3 61bb 3334 223b
00000070: 98cb 6630 2167 23ba 9a5d 1cbb 4788 57ba
00000080: 8b40 eaba 8daf 64b9 002c 8c3a 15cf 863a
00000090: c07e 26bb 23e6 0bbb 920b 61bb c890 92bb
000000a0: 79ff ca3a 47f1 a63a 0000 0000 31d6 b33a
000000b0: 8cc7 bd2f cd5c dbb9 9b3f 43bb f28f 813a
000000c0: 0cab 62ba c03b e4ba bfae 4725 a71e 593b
000000d0: 8f2a 2bbb 6805 562d 74a4 1abb 85bf a98c
000000e0: 289e 14bb d4d4 8a3a a54f 543a 1c18 f43a
000000f0: c8ea 2dba 7060 14bb 0000 0000 b305 5cba
00000100: 35a8 febb 3fd8 272e b906 dd0b 6867 c43a
00000110: 06ee c8bb f72a ddba 4cda 4ebb 638f f03a
00000120: ceba 89ba 69aa 66b9 c66d b211 ece3 8538
00000130: b466 8e3a b230 23ba 5764 52ba 3fcf 1839
00000140: 616d fe28 51eb f239 a3c2 a53b 0cec 8a24
00000150: 3c5c 5e39 32a1 bd3a 0cce d4ba ebde fcb9
00000160: 0000 0000 921d 9bba 83c9 e7ba d4a1 033a
00000170: 5b91 6eae c4cc 8bba b7dd 3234 c67c 0bba
00000180: 5afe 473a 9b74 2128 6722 b6ba 0066 30bb
00000190: d33e 9fbb de2e 88bb 5710 87ba 7639 933a
000001a0: a1a4 ec3a e53e 493a 9bd0 001d 9b57 af3a
000001b0: 8b5b fc3a 2c41 acba 70c0 63bb cf94 883a
000001c0: 4ce4 943b f28d 1d1b 0000 0000 76f4 c3ba
000001d0: 9df8 27b9 d229 e238 a0ae 6bbb af44 553b
000001e0: 65d2 9e3a e8a8 f2ba 08e6 ffba afe2 6c3a
000001f0: dadf 01bb 55e3 58b9 b661 9414 0440 0211

network_body._body_endoder.seq_layers.0.weight f4 [128, 50]
-0.22570412 0.09214571 0.09781436 0.044301476 -0.31239277 0.029845767 -0.10553031 -0.16749473
0.14413232 0.11661784 0.106113516 -0.009116122 0.17308822 -0.024988769 -0.0101441685 -0.036456704
-0.035231117 -0.074612945 -0.036137354 0.028712222 0.13274549 0.24426804 0.06397752 -0.11977808
0.06535876 -0.2349724 0.24967484 -0.21938267 -0.05837614 0.2718725 0.19842666 -0.24881528
-0.16022626 0.12030398 0.034647994 0.032141734 -0.12643018 -0.057355586 0.10430309 0.2774247
0.3480632 0.109000504 -0.035696685 -0.16844708 0.104269646 -0.24242365 -0.11910894 -0.096792795
-0.07818744 -0.15462211 9.880092e-05 -0.048033662 0.19478345 0.21835674 0.11921669 -0.08467018
0.078050666 0.05359741 -0.024113597 -0.08030118 -0.024818573 -0.0012959819 0.119369574 -0.04784747
-0.04882668 -0.028003138 -0.16681358 -0.055213787 0.24588841 0.19003546 -0.16812389 -0.16959809
0.14679518 0.2961281 0.021211222 0.15049094 -0.0813615 -0.18134016 -0.07336641 -0.27293092
-0.027845418 -0.068290144 -0.17810339 0.13267434 0.12501606 0.07028247 -0.044732004 -0.05763591
-0.10809067 -0.031335354 0.01273816 -0.12458946 -0.0061274637 0.15411879 0.14126214 -0.090883456
-0.010766007 -0.05828325 0.13688472 -0.14198223 0.0034788195 -0.17772715 -0.020715332 -0.20551147
0.07931231 0.022167686 -0.16820839 0.1663622 -0.09202266 -0.05592595 0.09923129 -0.31834006
0.08735815 0.05016464 -0.15790062 -0.18049066 0.08484036 -0.16331464 0.032143343 -0.028417293
-0.04431113 -0.080121964 -0.18277112 -0.15936631 0.048988443 0.12372777 0.040211033 0.21340953
0.07824345 0.18361217 0.06615823 -0.05087682 -0.13933091 -0.13786362 -0.11301352 -0.051414017
0.08326074 0.23484859 0.0056080716 -0.23123321 0.16515392 0.0833959 -0.027264148 0.030542683
0.081430465 -0.048463803 0.112897664 0.03910133 0.039419066 -0.13065284 0.14969023 -0.11613233
-0.053179674 -0.019074595 -0.094931565 -0.18647969 -0.32835004 0.011103394 0.074533924 -0.08889805
0.012713817 -0.039301064 -0.084295824 -0.06079211 0.04873143 -0.11789081 0.0145134125 -0.0663417
-0.0035695028 0.24675253 -0.18831089 -0.009040622 0.14082909 -0.17962128 -0.047304355 0.15641993
-0.23266429 0.3003831 0.16995925 0.1406868 0.28476232 -0.0027327356 -0.047319848 -0.17779785
-0.13227026 -0.108167626 -0.046068013 -0.053545516 -0.021258656 -0.065464936 -0.061256077 -0.06004509
0.2569245 0.2282271 -0.05889389 0.028706621 -0.09355291 0.1987789 0.35977522 -0.055904288
-0.020693365 -0.06424547 -0.056227475 -0.04246712 0.09475605 -0.26279736 -0.09064464 0.08320821
-0.0596877 -0.11199601 -0.11473263 0.31597918 0.0076481756 -0.012471158 0.09982824 0.1007162
-0.101151735 0.13739385 -0.13144505 0.2106698 -0.08476644 0.008745783 -0.016276266 0.14900872
-0.067165904 0.09652344 -0.29343295 -0.04153829 -0.012657573 -0.13353683 0.06618646 0.113340035
-0.0034067486 -0.07055576 0.23709899 -0.21215008 -0.0007174231 0.14673033 -0.13324593 -0.1206747
0.006009371 0.07822978 0.054336425 -0.052906454 0.08950913 0.11823666 0.09358927 -0.0425029
-0.24683084 -0.15691125 -0.10118056 0.03693279 -0.062492512 0.00013631392 -0.06629469 -0.012121656
00000000: fb1e 67be e4b6 bc3d e552 c83d 7775 353d
00000010: f2f1 9fbe 1c7f f43c 4620 d8bd bd83 2bbe
00000020: 6c97 133e 56d5 ee3d 0b52 d93d c95b 15bc
00000030: 0a3e 313e 3fb5 ccbc ba33 26bc a053 15bd
00000040: 814e 10bd acce 98bd c304 14bd e535 eb3c
00000050: 6fee 073e 6721 7a3e a506 833d 364e f5bd
00000060: d0da 853d 9b9c 70be c3aa 7f3e daa5 60be
00000070: d21b 6fbd df32 8b3e 5c30 4b3e 6fc9 7ebe
00000080: 5a12 24be ef61 f63d 0eeb 0d3d 0da7 033d
00000090: ea76 01be b1ed 6abd dc9c d53d 9c0a 8e3e
000000a0: 5735 b23e a83b df3d b036 12bd 647d 2cbe
000000b0: 538b d53d e83d 78be 63ef f3bd 4d3b c6bd
000000c0: bd20 a0bd 4255 1ebe 5733 cf38 f2be 44bd
000000d0: 5075 473e e998 5f3e e127 f43d 8f67 adbd
000000e0: 07d9 9f3d f588 5b3d e189 c5bc f274 a4bd
000000f0: 5250 cbbc f0dd a9ba 0978 f43d b5fb 43bd
00000100: 7cfe 47bd d666 e5bc 2ed1 2abe da27 62bd
00000110: 2cca 7b3e a898 423e ab28 2cbe 1fab 2dbe
00000120: 7a51 163e 1a9e 973e 28c3 ad3c 4c1a 1a3e
00000130: dca0 a6bd 3cb1 39be 2141 96bd 9abd 8bbe
00000140: 131c e4bc b4db 8bbd bc60 36be c8db 073e
00000150: 3604 003e 41f0 8f3d e838 37bd a213 6cbd
00000160: a45e ddbd 8059 00bd b7b3 503c c228 ffbd
00000170: e4c8 c8bb 51d1 1d3e 06a7 103e 1b21 babd
00000180: e863 30bc 6bba 6ebd 822b 0c3e ca63 11be
00000190: e8fc 633b 1bfe 35be 33b3 a9bc 9971 52be
000001a0: 7e6e a23d 0299 b53c d23e 2cbe da5a 2a3e
000001b0: 6076 bcbd 9c12 65bd c639 cb3d 78fd a2be
000001c0: d4e8 b23d 7079 4d3d b3b0 21be 8bd2 38be
000001d0: c8c0 ad3d f43b 27be bda8 033d 62cb e8bc
000001e0: 967f 35bd fc16 a4bd 5a28 3bbe ec30 23be
000001f0: 1ba8 483d fc64 fd3d 53b4 243d 0788 5a3e
00000200: 1a3e a03d d404 3c3e f77d 873d 3664 50bd
00000210: c3ac 0ebe 1f2c 0dbe a273 e7bd 8197 52bd
00000220: 9b84 aa3d 267c 703e eac3 b73b 66c8 6cbe
00000230: 1c1e 293e 78cb aa3d 1059 dfbc a634 fa3c
00000240: 04c5 a63d fb81 46bd e436 e73d b728 203d
00000250: e375 213d dcc9 05be 6548 193e c9d6 edbd
00000260: eed2 59bd 5342 9cbc 7b6b c2bd 88f4 3ebe
00000270: 7f1d a8be 03eb 353c 3ea5 983d 2e10 b6bd
00000280: 9d4d 503c 27fa 20bd 4aa3 acbd 2601 79bd
00000290: 9c9a 473d bd70 f1bd aac9 6d3c 28de 87bd
000002a0: 52ee 69bb b2ac 7c3e 92d4 40be 1e1f 14bc
000002b0: 8035 103e a4ee 37be 36c2 41bd 8c2c 203e
000002c0: 8c3f 6ebe d0cb 993e cc09 2e3e 3310 103e
000002d0: 5ecc 913e b217 33bb 75d2 41bd a410 36be
000002e0: db71 07be fd86 ddbd d0b1 3cbd 8b52 5bbd
000002f0: a226 aebc 7b12 86bd a7e7 7abd d7f1 75bd
00000300: 9c8b 833e 5db4 693e b83a 71bd 262a eb3c
00000310: ab98 bfbd b28c 4b3e 7534 b83e e5fb 64bd
00000320: 2285 a9bc 2193 83bd c84e 66bd 01f2 2dbd
00000330: 760f c23d 608d 86be e6a3 b9bd 1169 aa3d
00000340: 177b 74bd 2a5e e5bd f1f8 eabd 06c8 a13e
00000350: 8c9d fa3b d453 4cbc c072 cc3d 4c44 ce3d
00000360: a428 cfbd f9b0 0c3e 8899 06be d3b9 573e
00000370: 079a adbd 794a 0f3c ce55 85bc be95 183e
00000380: 478e 89bd 15ae c53d d83c 96be 0e24 2abd
00000390: b661 4fbc e1bd 08be c48c 873d d21e e83d
000003a0: c243 5fbb 8a7f 90bd 14ca 723e df3d 59be
000003b0: 7311 3cba 7a40 163e 9f71 08be 4c24 f7bd
000003c0: 42ea c43b ef36 a03d df8f 5e3d 70b4 58bd
000003d0: 9050 b73d 1026 f23d bbab bf3d 8517 2ebd
000003e0: 39c1 7cbe 58ad 20be c137 cfbd d646 173d
000003f0: 26f8 7fbd 7def 0e39 83c5 87bd e999 46bc

network_body._body_endoder.seq_layers.2.bias f4 [128]
-0.00026205246 -0.00078328047 0.0015297342 -0.0017340742 -5.340551e-19 0.002602603 -0.0014591666 -0.00081166445
-0.0023215122 0.003405002 0.0018905941 -0.0013673571 0.00016626054 0.0022525876 0.0026714012 -0.0019052139
4.5803577e-23 -2.0240808e-05 -0.0013402584 0.0005871204 4.982212e-19 -0.00015890446 0.0011323548 4.4614076e-06
-0.0023168363 -0.00015521319 -0.0019271405 -0.00024107739 0.0010198985 -0.0028090056 -0.0024702982 0.0009159649
0.00011349948 -0.0012011726 0.0008480638 -4.197584e-05 -0.0011751298 0.0011488367 -0.0018879541 -0.0019755305
-0.0031892825 -5.7340563e-05 -0.00018327664 0.00061170774 -0.0011624504 -0.0023350185 -0.0013910905 -0.0012661054
-0.00016916973 0.0006639659 -0.0025239158 0.00049930735 -0.0013705014 -0.00094366266 -0.0033203806 -0.0011830361
-0.0011502865 0.0012731819 -0.0010207446 -0.0022537669 -0.0021840227 -0.001531135 -7.003409e-09 0.00043929165
0.00038938448 -0.0017042112 0.0009047092 1.9022406e-09 0.0009674936 1.6022528e-15 -0.0011101058 -0.001988586
0.0023757026 -0.0012382902 -0.0017240471 -0.0019410251 0.0044935155 0.0008199023 -1.0208592e-27 -0.0023219397
0.00017712162 0.0010061085 -0.0018711125 -0.0016036737 -0.0024379997 9.4583676e-30 0.00077550055 -0.0008673799
-0.0021131746 3.163251e-19 -0.0011143088 -0.00063739397 0.00014001544 -0.0018817526 -0.0013958242 -0.0014489423
-0.0010637853 -0.00025278828 -0.004010212 -7.163494e-22 -0.00027086824 -0.0026282757 -0.00092665205 0.0
2.5604937e-18 -0.002152238 3.7425724e-14 -0.0016413444 -0.0020338574 -2.0517608e-24 -0.0009949608 0.00090679864
0.00054541515 -0.001681723 -0.0020699555 -0.0018221667 0.00093868445 0.00033584458 -0.003078288 -0.00456851
-0.0015216339 -0.004042168 -6.3853946e-08 -4.0397004e-05 0.0006398433 -0.0012126865 0.0016852245 0.000868153
00000000: 1664 89b9 1055 4dba 5d81 c83a e049 e3ba
00000010: 10a0 1da1 6f90 2a3b 8241 bfba e1c5 54ba
00000020: 8324 18bb 7426 5f3b d0cd f73a e438 b3ba
00000030: 3956 2e39 26a0 133b ad12 2f3b 5fb8 f9ba
00000040: 157e 5d1a ceca a9b7 9cab afba fce8 193a
00000050: 880c 1321 979f 26b9 866b 943a 33b3 9536
00000060: 10d6 17bb b9c0 22b9 1b98 fcba b8c9 7cb9
00000070: 1dae 853a 4b17 38bb bae4 21bb 5d1d 703a
00000080: 9206 ee38 aa70 9dba 9950 5e3a 370f 30b8
00000090: d006 9aba 9094 963a 3a75 f7ba e777 01bb
000000a0: 4803 51bb f680 70b8 f32d 40b9 035b 203a
000000b0: 5d5d 98ba 1c07 19bb 4055 b6ba 73f3 a5ba
000000c0: 2763 31b9 ff0d 2e3a 4868 25bb f3e3 023a
000000d0: 65a2 b3ba 2160 77ba be9a 59bb 1b10 9bba
000000e0: 36c5 96ba e5e0 a63a 81ca 85ba efb3 13bb
000000f0: d221 0fbb 5eb0 c8ba a3a2 f0b1 ba50 e639
00000100: 4d26 cc39 d75f dfba 022a 6d3a 92b8 0231
00000110: 659f 7d3a b2e8 e626 f880 91ba f052 02bb
00000120: adb1 1b3b 204e a2ba 6cf9 e1ba ff69 feba
00000130: 573e 933b b6ee 563a f8c2 a192 af2b 18bb
00000140: b9b9 3939 66df 833a 1e40 f5ba 5c32 d2ba
00000150: d9c6 1fbb a7d6 3f0f f64a 4b3a e160 63ba
00000160: 307d 0abb b3b9 ba20 000e 92ba c916 27ba
00000170: 1cd1 1239 24a5 f6ba 17f4 b6ba 70ea bdba
00000180: b66e 8bba ab88 84b9 1968 83bb da80 589c
00000190: 5203 8eb9 263f 2cbb 91ea 72ba 0000 0000
000001a0: 5cee 3c22 900c 0dbb ec8c 2829 6122 d7ba
000001b0: 774a 05bb 4fbf 1e98 5869 82ba 3ab6 6d3a
000001c0: 31fa 0e3a 436d dcba 17a8 07bb c5d5 eeba
000001d0: 0c12 763a 4c14 b039 1abd 49bb 71b3 95bb
000001e0: 9071 c7ba 2a74 84bb 1420 89b3 f46f 29b8
000001f0: 28bb 273a 02f3 9eba c0e2 dc3a c394 633a

network_body._body_endoder.seq_layers.2.weight f4 [128, 128]
0.08260546 -0.05586091 0.08608381 -0.102506146 0.10383849 0.09184536 0.063931376 0.1146443
0.06400773 0.032126434 -0.17403051 0.013432421 0.09592744 -0.084499 -0.06896129 -0.08745767
0.071755655 -0.10432682 -0.07846695 0.06629239 0.059869673 -0.04173256 -0.016787117 0.051623445
-0.039408784 0.20972522 0.042954903 -0.13730113 -0.045184176 0.1608034 -0.08854423 -0.19000335
-0.03971765 0.021292184 -0.07134629 0.000116926865 0.16136488 0.029675405 -0.04488769 -0.020227497
0.13419744 0.042308003 0.16965866 -0.08528197 -0.19374782 0.13603579 0.06218784 0.013021811
0.043252394 0.10237465 -0.050735712 -0.057471745 0.025498524 -0.02067015 -0.09150989 0.032286704
0.22963212 0.11680365 -0.19903499 0.13851252 0.03179561 0.016781472 0.05210324 -0.021644419
0.0772865 -0.04787481 -0.19755277 0.05299506 0.004666269 -0.07081969 -0.065729216 -0.016061924
0.08393569 0.044627514 0.12262636 0.13980128 -0.051937014 0.09171071 0.10388241 0.15389137
0.049003713 0.058498476 -0.1549173 0.13267288 0.072983675 0.07130002 -0.052635297 0.082093604
0.06834757 0.12611724 0.011140719 0.07477421 0.04926593 -0.082297914 0.115548335 -0.024867369
0.015467682 0.008583683 -0.11252628 0.1436876 -0.009206442 0.048572876 -0.10327149 -0.079664394
-0.01600451 -0.04573036 0.032812677 0.07999914 -0.024233162 0.0076056183 0.07702104 -0.095866196
-0.12434806 -0.11234322 -0.050020855 -0.022564784 -0.017597236 -0.06971688 0.032558456 0.066378616
0.019933661 0.124145515 0.273366 0.0037923383 -0.108452015 0.056378186 0.076438904 0.12929116
-0.015509529 0.043531295 0.021678505 -0.0063709677 0.08032354 -0.06884587 0.1683165 0.07803305
-0.05949457 -0.08607057 0.043445226 0.08895245 0.05199496 0.07114874 0.025696034 0.05281384
0.07207403 -0.075239174 0.08876707 0.048587132 -0.07764933 0.02437891 0.027278794 0.024789117
-0.022044092 0.04231733 -0.015317343 0.079798356 -0.0715525 0.04527681 -0.062045187 -0.06564909
-0.05398996 0.025535403 0.000866631 -0.073628955 0.06267149 0.09583667 0.1081402 -0.16521557
0.03435129 0.07995502 -0.052784648 0.08582073 -0.016814882 0.0116995 0.14747603 0.14251685
0.09088991 0.060160186 -0.08050402 -0.08492807 0.04447026 0.013356175 0.04447369 0.07828545
-0.0018408651 -0.01652371 -0.08385768 -0.11390977 -0.08436077 0.14954758 0.065882996 -0.13795319
0.03560417 -0.048385926 0.0068640443 0.017492343 -0.11993776 0.060691956 -0.09587088 0.058768522
0.11741472 0.09814446 0.1049929 0.03172673 -0.033277925 -0.011121268 0.07947215 0.021863153
0.035121325 0.002804803 -0.0347202 0.055411223 -0.09550146 -0.048859898 -0.116949506 -0.01671158
-0.060832944 0.0020651612 -0.14946753 -0.054562114 -0.047776096 0.11811492 -0.04258184 0.015549931
0.03327057 0.16649924 -0.071246676 0.052521016 0.17074995 0.10476871 -0.104454465 0.08626042
-0.17091843 -0.08213972 0.09011237 0.0036241072 0.14156605 0.003097833 0.029803019 0.11367602
0.043448854 0.20220612 0.056148864 -0.012727185 -0.10176326 0.11585777 0.08974031 -0.085178815
0.08399852 0.035868086 -0.058791824 0.024918342 -0.12775944 -0.014937132 0.049600463 -0.07268387
00000000: 0d2d a93d 69ce 64bd b54c b03d beee d1bd
00000010: 46a9 d43d 6c19 bc3d 74ee 823d a1ca ea3d
00000020: 7c16 833d 0297 033d 0e35 32be a813 5c3c
00000030: 9b75 c43d d00d adbd 943b 8dbd 021d b3bd
00000040: a1f4 923d 4da9 d5bd 48b3 a0bd 4ec4 873d
00000050: e739 753d c3ef 2abd 2385 89bc 1b73 533d
00000060: 1b6b 21bd 35c2 563e 7bf1 2f3d ab98 0cbe
00000070: 0b13 39bd a6a9 243e ad56 b5bd 3d90 42be
00000080: f9ae 22bd f26c ae3c 011e 92bd a236 f538
00000090: d63c 253e d619 f33c 28dc 37bd 23b4 a5bc
000000a0: 0e6b 093e 284b 2d3d 00bb 2d3e 50a8 aebd
000000b0: d465 46be f74c 0b3e adb8 7e3d 6f59 553c
000000c0: 6c29 313d cda9 d13d 40d0 4fbd 7e67 6bbd
000000d0: 48e2 d03c 7254 a9bc 8a69 bbbd 103f 043d
000000e0: af24 6b3e c136 ef3d d4cf 4bbe 3ad6 0d3e
000000f0: 1d3c 023d 4c79 893c 356a 553d a34f b1bc
00000100: 6248 9e3d 6018 44bd 464b 4abe 5911 593d
00000110: 80e7 983b ea09 91bd 0a9d 86bd 4c94 83bc
00000120: 7ae6 ab3d 57cb 363d 8723 fb3d 1128 0f3e
00000130: e8bb 54bd d3d2 bb3d 4dc0 d43d b395 1d3e
00000140: 1eb8 483d 199c 6f3d a4a2 1ebe 66db 073e
00000150: 7778 953d bf05 923d 1c98 57bd b120 a83d
00000160: d0f9 8b3d e124 013e 9087 363c 3923 993d
00000170: 12cb 493d cf8b a8bd 9ba4 ec3d a7b6 cbbc
00000180: 296c 7d3c 93a2 0c3c 2e74 e6bd d822 133e
00000190: 9ed6 16bc 5af4 463d 0180 d3bd 1627 a3bd
000001a0: e41b 83bc c24f 3bbd 9666 063d 97d6 a33d
000001b0: a084 c6bc 8d38 f93b 35bd 9d3d 7f55 c4bd
000001c0: 32aa febd 3414 e6bd abe2 4cbd c8d9 b8bc
000001d0: 1428 90bc b9c7 8ebd 045c 053d 83f1 873d
000001e0: eb4b a33c 0140 fe3d a1f6 8b3e e188 783b
000001f0: 171c debd d0ec 663d 008c 9c3d e764 043e
00000200: ae1b 7ebc df4d 323d 1f97 b13c 8dc3 d0bb
00000210: ab80 a43d 10ff 8cbd 295b 2c3e cbcf 9f3d
00000220: 94b0 73bd c445 b0bd 9ff3 313d b42c b63d
00000230: abf8 543d 6eb6 913d 7d80 d23c 5353 583d
00000240: 8d9b 933d ff16 9abd 82cb b53d 4d03 473d
00000250: 9d06 9fbd 48b6 c73c c777 df3c 8c12 cb3c
00000260: d095 b4bc f054 2d3d 98f5 7abc 526d a33d
00000270: 1e8a 92bd 2d74 393d 1823 7ebd 0873 86bd
00000280: 9424 5dbd 9f2f d13c 9f2e 633a c7ca 96bd
00000290: e959 803d 0446 c43d 9c78 dd3d 452e 29be
000002a0: f0b3 0c3d 75bf a33d b734 58bd c7c2 af3d
000002b0: 5dbf 89bc 42af 3f3c f503 173e f0ef 113e
000002c0: 7d24 ba3d 876a 763d 4bdf a4bd c5ee adbd
000002d0: 7326 363d dcd3 5a3c 0b2a 363d 1f54 a03d
000002e0: 2f49 f1ba bb5c 87bc 93bd abbd 8749 e9bd
000002f0: 57c5 acbd 0023 193e aaed 863d 9a43 0dbe
00000300: aed5 113d 5230 46bd c7eb e03b 1a4c 8f3c
00000310: eea1 f5bd 2198 783d f457 c4bd 43b7 703d
00000320: 2177 f03d f6ff c83d 8406 d73d e3f3 013d
00000330: 6f4e 08bd fb35 36bc 4bc2 a23d 5b1a b33c
00000340: 61db 0f3d c9d0 373b c536 0ebd e1f6 623d
00000350: 4596 c3bd 5121 48bd 3983 efbd b9e6 88bc
00000360: f72b 79bd a857 073b 040e 19be 867c 5fbd
00000370: deb0 43bd 3ce6 f13d 4c6a 2ebd 23c5 7e3c
00000380: b946 083d c77e 2a3e c7e9 91bd 4720 573d
00000390: 13d9 2e3e fa90 d63d 39ec d5bd 4ea9 b03d
000003a0: 3e05 2fbe df38 a8bd d68c b83d 6e82 6d3b
000003b0: b1f6 103e 0305 4b3b 7625 f43c f9ce e83d
000003c0: 6df7 313d 1f0f 4f3e 5afc 653d af85 50bc
000003d0: 4269 d0bd d746 ed3d c5c9 b73d 3b72 aebd
000003e0: 6b07 ac3d 6aea 123d b2cf 70bd 8d21 cc3c
000003f0: 5fd3 02be dfba 74bc db29 4b3d 48db 94bd
