NN/BasicAgent-Level1.onnx (onnx, 95028 bytes, 7 tensors)

action_model._continuous_distribution.log_sigma f4 [1, 2]
000000 2a dd c6 bc aa c4 e1 bb
       -0.024275381 -0.0068898993

action_model._continuous_distribution.mu.bias f4 [2]
000000 79 eb 87 3c 93 78 22 bc
       0.016591774 -0.009916442

action_model._continuous_distribution.mu.weight f4 [2, 128]
000000 65 17 82 bc 36 45 7f bc bf 04 9d bd 3d 9a 63 3c
       -0.015880296 -0.015580466 -0.07666921 0.013891754
000010 9b 30 59 bd 75 0e 0e bb 72 b2 24 3b 8c 99 c3 3c
       -0.05302487 -0.0021676098 0.0025130776 0.023876928
000020 dd b1 f4 bb 6e 9c ff 3a 5e ef 5e bd ee b9 df bc
       -0.007467492 0.0019501576 -0.054427497 -0.027310338
000030 63 5e af 3c e5 8f b9 ba f9 40 d1 3b 5b ec 3f bd
       0.021407312 -0.0014157264 0.006385919 -0.046856266
000040 8a 6f 0f bd 1e ac 01 3d 46 ec 6f bc 3a bb 0f bd
       -0.03501848 0.031658284 -0.014643734 -0.035090663
000050 5c 26 ca 39 67 a6 99 3c fa cf e0 3b e5 5f 58 bc
       0.00038557022 0.018756105 0.0068607302 -0.013206457
000060 15 fe e5 bc 5d e6 03 3b ae 03 43 bc 63 64 25 3d
       -0.028075257 0.002012632 -0.011902733 0.04037894
000070 37 3f 98 bd 81 f5 21 bd 3d c4 fe bc 38 fc 57 3c
       -0.07433932 -0.03954077 -0.031099433 0.013182692
000080 36 91 0d 3c 23 e7 11 bc a4 5d 13 3b 18 36 9c 3a
       0.008640578 -0.008905205 0.0022486234 0.0011917977
000090 91 da 75 3c ae d7 c9 3a e6 6d 86 3c 8d d1 61 3d
       0.015005724 0.001539936 0.016409826 0.055131484
0000a0 0f 41 4c bd 87 25 20 ba bc 2e 42 3d 09 e1 00 3d
       -0.049866732 -0.00061091076 0.04740785 0.03146461
0000b0 12 6a 37 3d af 41 20 3b 24 59 44 3c a2 3a 37 3c
       0.04477889 0.0024453213 0.011984143 0.011183413
0000c0 eb a9 86 bd 7e af 5f bd 97 82 0f bd 85 4d e5 3c
       -0.06575378 -0.05461072 -0.03503665 0.027991066
0000d0 a9 45 5b bc 86 81 05 3d 19 1e 13 3d b2 2f fb 3c
       -0.0133833075 0.032594226 0.035917375 0.030662391
0000e0 3b 8c 32 3b 4a 27 69 3c fd 96 0d 3d f6 df 8b bc
       0.0027244228 0.014230559 0.03456782 -0.017074566
0000f0 5d cf 82 bc 7d a3 65 bc 96 d8 77 ba bf f9 0c bd
       -0.01596802 -0.014016029 -0.0009454576 -0.034417864
000100 4a 0b 5f 3b 13 27 cc bb f9 86 88 bc 35 45 dd 3c
       0.0034033828 -0.006230244 -0.016665922 0.02701054
000110 a3 6c e3 3c d5 2f c7 3c bd 6f 01 bd 2c 9b 47 3a
       0.027761763 0.0243148 -0.031600703 0.000761437
000120 f7 f4 e5 bc 45 b6 ce bc 7f fd bf bc e8 cf 36 3c
       -0.02807091 -0.025233397 -0.023436306 0.011157967
000130 eb 0c 70 bc 25 34 d1 bc 13 ee fe 3c b9 8f 09 3b
       -0.014651517 -0.02553756 0.031119382 0.0020990206
000140 d5 8c fe ba 88 ec 73 bd da 4c ac b9 06 2b 71 bc
       -0.0019420633 -0.059551746 -0.00032863655 -0.01471973
000150 e0 5c 07 bc d4 73 9b 3c 5f 74 98 bc 5e 3a 30 bd
       -0.008261889 0.01897613 -0.018610178 -0.043024413
000160 05 23 03 bd 97 b4 1e bb cd bb 49 3c 33 39 f0 bb
       -0.03201582 -0.0024216527 0.012312842 -0.0073310374
000170 63 af 87 3c f5 b7 10 3d 80 7b 30 bc 02 47 a2 bc
       0.016563123 0.035331685 -0.010771632 -0.01980925
000180 4b 64 50 bc 6f d7 2c bd 59 50 ba bc c8 82 ae 3c
       -0.012719224 -0.04219764 -0.02274339 0.021302596
000190 c2 90 e6 3a 7a 6b 1a bc 34 b0 38 bd e1 23 be bc
       0.0017590749 -0.0094250385 -0.045089915 -0.023210468
0001a0 e9 59 46 3c 57 6b 0e 3d 07 85 0a bd 46 a1 85 3c
       0.012106397 0.034770336 -0.03381827 0.016312253
0001b0 9f 9b 41 bc 7a f4 0b 3d 3e 73 fa 3c 5f 2a b2 3b
       -0.011816888 0.034168698 0.03057253 0.00543718
0001c0 19 08 3c bc e7 a1 96 bc a3 8b ed bb c9 17 ec bc
       -0.01147654 -0.018387748 -0.007249312 -0.028819935
0001d0 dd 4b cd 3b 6c 2b d6 bb ad b9 32 3c d5 d6 e9 3c
       0.006265147 -0.006535938 0.010908526 0.028544823
0001e0 24 16 96 bc 82 c0 34 3c b1 96 a6 3c f3 12 b1 3b
       -0.018321104 0.011032226 0.020335527 0.0054038703
0001f0 7d 85 67 3b 36 76 87 bd 36 34 b8 3c db ba a1 3b
       0.0035327368 -0.06614344 0.022485834 0.004935605
000200 30 89 6c 3b 82 f8 86 bb d5 92 03 3d e7 49 f9 bc
       0.0036092512 -0.00411898 0.03212245 -0.030430747
000210 b5 79 b8 3c a1 ef 98 bc f0 6c 5b 3c 74 c2 fb 3b
       0.022518972 -0.018668951 0.013392672 0.0076830927
000220 8f 18 0d 3b 09 b1 93 bb 90 3a 43 bd f5 d3 a8 ba
       0.002152953 -0.004507188 -0.04766327 -0.0012880551
000230 89 49 52 bc 2e 08 8a 3c 1a 3c 13 bd 6d 67 91 bc
       -0.012834915 0.016849604 -0.03594599 -0.017749513
000240 6f ed 0c bc 76 56 0b 3c 8c 49 8d 3a 67 71 73 bc
       -0.00860153 0.008504501 0.0010779365 -0.01485858
000250 76 09 69 bd 1c eb b2 bb d2 58 b6 3c 87 55 5b 3c
       -0.05689379 -0.005460156 0.02225915 0.0133870905
000260 8b b0 90 3c c2 39 23 3c 37 93 30 3c 68 dc 39 bd
       0.017662307 0.009962501 0.010777286 -0.04537621
000270 ec 4e ed 3b 05 31 81 bc 42 a8 10 bd 9c 3c 0a 3c
       0.0072420742 -0.015770445 -0.035316713 0.008437302
000280 6a 08 83 3a 87 e2 c6 3c 99 70 b5 bb ed ba cd 3b
       0.0009997014 0.024277939 -0.0055371043 0.006278387
000290 58 fd 02 3d e8 e3 91 3c 6d a3 97 bc f6 72 36 bd
       0.03197989 0.01780887 -0.018510545 -0.04454323
0002a0 a9 9b dd bc db 7e 37 3b 03 87 b7 3c d4 41 c4 3c
       -0.027051764 0.0027999196 0.022403246 0.02395717
0002b0 e1 cf d9 bb 81 63 c0 3c cf a1 c8 3a 7b 18 b8 bc
       -0.0066470955 0.023484947 0.0015307012 -0.02247261
0002c0 d5 75 04 bd 23 f4 78 3d f7 c7 74 3b 28 76 8b bc
       -0.032338936 0.060779702 0.0037350634 -0.017024115
0002d0 af 82 17 bc fa 6e d8 bc 4b 09 e6 bb 53 e9 1b bc
       -0.009247466 -0.026420105 -0.007020151 -0.009516078
0002e0 37 fa 85 3c 22 94 8a 3c 0f 27 ec ba 1a 02 5b 3c
       0.016354663 0.016916338 -0.0018017011 0.0133672
0002f0 f0 19 48 3c 1e 55 f7 bc 3d fa be bb 29 95 83 b9
       0.012213215 -0.030191954 -0.0058281706 -0.000250974
000300 89 6a 02 bc 29 f6 ac 3b c3 b1 ea 3a 35 5f 01 3c
       -0.00795997 0.005278368 0.001790576 0.007896234
000310 59 3e 35 3d f9 4b c6 3c 1f e4 3a 3c 1c d5 6b bc
       0.044248912 0.024206148 0.011406927 -0.014394071
000320 f8 2e 09 bd ec 73 c5 ba 0b 0a d2 3c e0 97 0e bd
       -0.03349206 -0.0015064455 0.025639554 -0.034812808
000330 f8 62 41 bd 8e 11 5b bc 0d 2e 24 bb 0c 5f 86 bc
       -0.047213525 -0.013370885 -0.0025051862 -0.016402744
000340 a5 50 4c 3c c0 9c 94 3a 80 7c 05 3c 09 f2 94 bc
       0.012470399 0.0011338219 0.008147359 -0.018181818
000350 d5 2b c6 bc 80 c1 c5 3c 50 77 79 bd 1f c3 be bc
       -0.024190823 0.02414012 -0.0609048 -0.0232864
000360 7b 4c b0 3b fd 4c 2f bc 77 4e ae 3c 9d 83 cf 3c
       0.005380211 -0.010699508 0.02127765 0.025331313
000370 a7 b6 38 bc 62 c9 5a 3c 85 22 d0 3c 19 8c a8 3c
       -0.011274016 0.0133536775 0.025407085 0.020574616
000380 7a cc 57 bd ca 48 98 bc a5 30 50 bc 3c 6c 26 3c
       -0.05268524 -0.018589396 -0.01270691 0.010157641
000390 56 0c 5f bc c0 b4 bd 3c 03 de 3c 3d 6e 8f 0a 3c
       -0.013613781 0.023157477 0.046110164 0.008457048
0003a0 8c aa c9 bb 85 cf bb 3c 58 da c4 3c 49 58 8b bc
       -0.006154364 0.022926101 0.024029896 -0.017009871
0003b0 81 b2 11 3d 85 f7 4f 3d 38 3c 67 bd f8 7b 1d 3c
       0.035570625 0.050773162 -0.056453913 0.009612076
0003c0 0e 51 b3 bb 4c 81 6b bb ea a6 b5 3c 30 bd 01 3c
       -0.005472309 -0.0035935221 0.022174317 0.007918641
0003d0 48 8f 73 3c a9 b8 94 3b 57 98 f4 3b f6 a3 85 3d
       0.014865704 0.004538615 0.0074644494 0.06525414
0003e0 64 85 8b 3a 41 d1 8b 3c 4a 03 9e 3b ea dc 6f 3d
       0.0010644612 0.017067553 0.0048221694 0.05856029
0003f0 0b 68 52 bb 9b 34 2e 3d ec e6 08 3b d5 3a 9a 3b
       -0.0032105471 0.042530637 0.0020889593 0.0047067204

network_body._body_endoder.seq_layers.0.bias f4 [128]
000000 2a 10 a5 bc fc 9b 43 bc df 9d 92 bc 31 b5 94 bc
       -0.02014931 -0.011939045 -0.017897544 -0.018152805
000010 c3 39 cd bc 9c 2d 05 3d 40 32 32 3c 14 f3 13 3c
       -0.025051957 0.0325142 0.010876238 0.009030122
000020 9a 65 e4 3c c1 e1 b8 3b 28 68 36 bc ef b5 91 bc
       0.027880479 0.0056421463 -0.011133231 -0.017786948
000030 86 42 9c 3c cf cf 66 bc 57 54 39 bc c5 01 ae bc
       0.01907469 -0.014087631 -0.011311612 -0.021241078
000040 fb 39 f5 3b 41 91 14 ba 5d 6a ec 3a 74 aa e3 bc
       0.0074837185 -0.00056673965 0.001803707 -0.02779124
000050 9d c9 b7 bb 08 98 f4 3b 8b 39 38 bc 3a 82 0f bc
       -0.005608751 0.0074644126 -0.011244188 -0.008759076
000060 25 a8 e2 3b e9 0f c9 bb c2 48 06 bb cb 38 79 3c
       0.006917017 -0.00613593 -0.0020490144 0.015211294
000070 79 93 d3 3b 21 a7 3f bc 7d 23 89 3c cf e4 51 bc
       0.006456789 -0.0116975615 0.016740555 -0.0128109
000080 35 eb af 3b 9e da 90 ba 3a 5d e7 3c c8 4a b8 3c
       0.005368615 -0.0011051481 0.028242696 0.022496596
000090 3e 1d 94 bc 23 e8 96 bc fe e1 5c bc f7 57 a4 bc
       -0.01808035 -0.018421238 -0.013481615 -0.020061476
0000a0 f3 11 23 bc fc 03 4e 3c 2a b5 4e bc 38 9f 9c 3c
       -0.00995301 0.012574192 -0.012616435 0.01911889
0000b0 08 dc 2f ba 8d 45 37 bd bb e9 19 3d 4b de a5 3c
       -0.00067085074 -0.044744063 0.03757642 0.0202476
0000c0 5d 5d c1 ba 69 99 2c 3b f1 ef 82 3c fa 7f 44 3c
       -0.0014752556 0.0026336557 0.015983554 0.011993403
0000d0 73 ba 89 3b 24 00 82 3d b5 2f 19 bc fa b5 36 bc
       0.0042031347 0.06347683 -0.009349753 -0.011151785
0000e0 81 53 35 bc 78 62 af 3a 43 7f 32 bc fa c9 2f 3c
       -0.011067272 0.0013380786 -0.010894599 0.010729307
0000f0 17 a5 40 3c 6f 16 15 3d 84 99 6d bc 01 8e b8 bb
       0.0117581105 0.036398347 -0.014501933 -0.0056321626
000100 27 d9 9e bb ec cb cb bc 2f 21 08 bc 36 32 1a 3c
       -0.004847664 -0.024877511 -0.008308693 0.009411385
000110 10 e1 c1 bc 63 da f9 bb 1f 9f f6 bb 48 bd 22 bc
       -0.023666888 -0.0076249107 -0.007526293 -0.0099328235
000120 cf d8 54 3b 15 5e 3b bc 0e 84 3a 3c 6a 9a 6f bb
       0.003247786 -0.011436005 0.011384023 -0.0036560544
000130 66 b9 5f 3d 3b ac e0 bb 71 6c ad bb 3a e2 0b 3c
       0.05462017 -0.006856469 -0.0052924682 0.008537823
000140 22 6a 99 3c d2 9e a4 ba ec 89 23 bc 3e 6a ba b8
       0.018727366 -0.0012559539 -0.009981614 -8.88896e-05
000150 82 ae 09 3b 5a 1b c7 bb 7d d3 de bb 0f 37 a6 3c
       0.0021008556 -0.0060762586 -0.0068001137 0.020289926
000160 15 5d a1 3c 86 8f ab 3b 7c ea dd 3c e8 cb 62 bc
       0.019697705 0.005235615 0.02708935 -0.01384256
000170 17 2f 9a 3c 3d e9 38 3c 3f f8 67 bc 54 08 81 3c
       0.018821282 0.011286077 -0.014158308 0.015751041
000180 cd bc e3 ba b1 17 18 bc dd b2 ec bb 1a a5 1b bc
       -0.0017374993 -0.009282992 -0.0072234706 -0.0094998125
000190 af 97 01 3c b1 d4 b9 bc 19 50 0f 3c 25 14 1f 3c
       0.007909699 -0.022684427 0.008747124 0.009709393
0001a0 8a 5b 55 bc b6 41 5f 3c 76 d5 db 3c 58 a7 bb bc
       -0.013022313 0.013626507 0.026835185 -0.022906944
0001b0 44 3c 72 bc e2 e3 04 bd 87 ef 88 3c a3 d2 aa bc
       -0.014784876 -0.03244389 0.016715778 -0.020852393
0001c0 3e a8 58 3c b6 aa 9e 3c f4 84 51 3c eb 44 bd 3b
       0.013223706 0.01936851 0.012788046 0.005776038
0001d0 4f 24 c4 3c 5c b9 95 3c 21 28 9b bc e5 c7 8b 3c
       0.023943095 0.018276863 -0.018940033 0.01706309
0001e0 ba d3 18 3c 99 af 3a bc 5e 3e 2c 3b 60 49 4a bc
       0.009327823 -0.011394405 0.002628229 -0.0123465955
0001f0 ea 13 4d bc e5 cb 26 3d f5 22 a9 ba ee 94 8a 3a
       -0.012516955 0.040721793 -0.0012904095 0.0010572949

network_body._body_endoder.seq_layers.0.weight f4 [128, 50]
000000 11 0e 92 3d 0e d8 e6 bd 65 ff 60 3d 03 45 08 be
       0.07131589 -0.11271678 0.054931063 -0.13307576
000010 c3 17 58 bc c6 14 67 be 3d 2e 77 be e4 de 9e 3d
       -0.013189259 -0.22566518 -0.24138732 0.07757357
000020 d2 28 1c be 85 88 7f 3a 20 87 16 be 58 91 90 3c
       -0.15249947 0.0009747821 -0.14699984 0.01764743
000030 34 87 21 be 3f e2 9a 3d 7f 1a 89 bd 09 cc 4f 3c
       -0.15774232 0.07562684 -0.06694507 0.012682923
000040 89 94 0b bd 45 5d fc 3d c5 cf 94 3e b9 18 b8 b7
       -0.0340772 0.12322477 0.29064766 -2.1946022e-05
000050 5b ff 8c 3d c7 8e 73 bd 3f 14 43 be b4 95 d0 3d
       0.06884643 -0.059462335 -0.19050692 0.101848036
000060 3c b0 f5 3d c8 bc 0d 3e f6 44 99 bd da db ac 3c
       0.11996505 0.13841546 -0.074838564 0.021100927
000070 a0 02 a7 3d f2 36 b7 3d a7 15 0a 3e 1d 3c aa bd
       0.081547976 0.08946027 0.13484822 -0.08312247
000080 c7 3d d1 bd ad 93 e1 bc 87 51 ab bd 63 a8 16 3e
       -0.10216861 -0.027536238 -0.083651595 0.14712672
000090 28 80 b6 bd 14 a3 04 3d 8c 86 76 3e c7 1b 57 3d
       -0.089111626 0.032382086 0.24074763 0.052516725
0000a0 70 75 53 3c 58 e8 e3 3d 7e 37 9b bd 93 94 7a ba
       0.012906417 0.111283004 -0.07578944 -0.00095588824
0000b0 c0 8e 38 bd fa 12 54 3e fa 6d 4d be ca 9f 86 3d
       -0.045058012 0.20710364 -0.20061484 0.06573446
0000c0 0b bb 41 3e 1b 95 cc bc 48 bb 7b be 34 9d 41 3e
       0.18919007 -0.024973443 -0.24583161 0.18907624
0000d0 5c 55 a6 bc ba 8d 95 bc 15 06 41 bc 8b 9b 52 be
       -0.020304374 -0.018256057 -0.011781235 -0.20567147
0000e0 27 c9 43 be 8f a7 6d be 73 a5 f4 bd 74 7b 26 bd
       -0.19119702 -0.2320845 -0.119456194 -0.040645078
0000f0 64 49 a6 bd 5a 43 db 3d 48 67 18 bc f6 70 a8 be
       -0.08119467 0.10706206 -0.009301968 -0.32898682
000100 60 d3 e3 3c 43 0e 6a 3d 24 16 9d bd f8 d1 3a 3d
       0.027810752 0.057142507 -0.076702386 0.045610398
000110 e6 cf 3d bd af 55 3e 3e 3e cc 82 be 4f 62 43 be
       -0.046340846 0.18587373 -0.2554645 -0.1908047
000120 98 3f 94 3d 9d 21 87 3e c8 58 22 3e fa 08 9f ba
       0.07238692 0.26392832 0.1585418 -0.0012133413
000130 59 3f 25 be ea f3 ae bc 2d c5 58 bd 9f e4 19 bd
       -0.16137446 -0.021356542 -0.052922416 -0.037571546
000140 7e f2 ee 3d da f6 22 3e b9 c3 93 3d 86 78 86 3c
       0.116673455 0.15914479 0.072150655 0.016414892
000150 da c0 66 3d 94 32 8f 3e 11 a1 61 3d de 82 c1 bd
       0.05633626 0.27968276 0.055085246 -0.09448789
000160 2f 2c 10 3e ab 51 96 bd d8 3f 78 be 30 3e fa bd
       0.14079355 -0.07339796 -0.24243104 -0.122188926
000170 f5 10 be bc d8 73 aa bc 7c b5 f7 bd dc f2 bd be
       -0.023201445 -0.020807192 -0.12095162 -0.3709935
000180 d3 4b e5 bd 34 d5 fb bd 08 b7 52 3e 3f 14 31 3d
       -0.11196103 -0.12296525 0.20577633 0.0432322
000190 49 b3 e5 3d 8c ca e6 bd 57 c0 10 3e 4a 52 48 be
       0.112158366 -0.112691015 0.14135872 -0.19562641
0001a0 9f ae 72 be 89 5c 82 3d ba 5b f1 3c eb 8d 46 3e
       -0.23699425 0.06365306 0.029462684 0.19390075
0001b0 c7 e5 c6 bc 43 6e d4 bd 41 67 83 bd 0b 1a 8e bd
       -0.024279488 -0.10372593 -0.064161785 -0.06938561
0001c0 1e 61 80 bd 7b 07 0e 3e 43 2b d4 3d a8 1a 15 be
       -0.06268524 0.13870041 0.10359814 -0.1456095
0001d0 77 bb 2c be 59 e8 88 3d cf aa 05 3d 43 e7 5e be
       -0.16868387 0.06684942 0.0326336 -0.21767907
0001e0 16 69 5b 3d cd f6 03 3e 58 33 cd be 08 cb bc 3d
       0.053567015 0.12887116 -0.40078235 0.09218413
0001f0 27 26 92 3d 87 3f 0f be fa f4 08 3d 50 2a 76 3d
       0.07136183 -0.13989078 0.033436753 0.060098946
000200 2e 7b 57 bd 34 5d 12 be 05 4b 85 b8 16 78 98 3d
       -0.052607708 -0.14293367 -6.355908e-05 0.074447796
000210 3b b9 3c bd 70 95 39 bd 6f e1 e2 bd 27 6a b9 3e
       -0.046075087 -0.04530853 -0.11078154 0.362138
000220 99 3e d9 3d a7 c3 44 3d 09 c6 0a 3d 4b cb e2 bd
       0.10607643 0.04803815 0.033880267 -0.11073931
000230 82 84 1c 3e 4a 32 98 be 7e d5 a4 3e 5d 48 8b bd
       0.15284923 -0.29725868 0.32194132 -0.068009116
000240 89 70 81 bc 43 eb 13 be 83 70 6e bd 50 2c 1e 3e
       -0.015800731 -0.14445214 -0.05821277 0.15446591
000250 d1 3d 04 3e 2c ef 74 bd 57 b1 17 bd eb 4d 67 3d
       0.12914206 -0.059798405 -0.03703436 0.056470793
000260 a9 ad fc 3c a6 d6 44 be 74 fa 70 be b1 ce 85 bd
       0.030844526 -0.19222507 -0.2353304 -0.06533564
000270 cb 1e 19 3e f2 cc 43 bd d9 70 24 3d 23 d6 1a 3e
       0.14953153 -0.047802873 0.040146682 0.15120749
000280 d0 79 d1 bd bf 43 b4 3d d6 ba dc 3b b3 29 0a 3e
       -0.10228312 0.08801984 0.0067361398 0.1349247
000290 d0 a4 c0 bd a5 50 f1 3d 28 02 aa bd 55 09 0a 3e
       -0.094064355 0.1178296 -0.083011925 0.13480122
0002a0 86 14 17 3e f4 4a d6 bd 0b 4e 98 be 9c cc ac 3c
       0.14753923 -0.10463515 -0.29747042 0.02109366
0002b0 23 c9 95 bd 23 71 28 3e 46 9f 1e be 0c 6a 74 3e
       -0.073137544 0.16449408 -0.15490445 0.23868579
0002c0 cb 64 0a bd 26 75 09 be ca 02 08 3e a9 cc c2 3c
       -0.03378753 -0.13423595 0.13282314 0.02377923
0002d0 42 d2 98 3d f7 76 96 bb c0 f4 1a 3e bb 04 86 be
       0.074619785 -0.0045918184 0.15132427 -0.26175484
0002e0 1b fa ed bd aa 34 b1 bc 6d 15 01 bd 95 39 71 bd
       -0.116199695 -0.021631557 -0.031514574 -0.058892805
0002f0 86 c8 08 3e be 61 3b 3e d2 ad e0 bd 2c 8d ec be
       0.13357744 0.18299004 -0.109706536 -0.46201456
000300 96 42 40 3d 93 b5 90 be 89 bb 86 bc 2c 19 e8 bc
       0.0469385 -0.2826353 -0.016446846 -0.028332315
000310 8a 90 fd 3d f4 da 2c be c2 1b 11 be 83 22 dc 3d
       0.12381084 -0.16880399 -0.14170745 0.1074877
000320 a6 c2 75 3e a4 e9 d7 3d 7c 32 a1 3d 77 2d 14 bd
       0.24000034 0.1054261 0.07870957 -0.03617617
000330 13 ca f9 bd 43 b8 3c be ab b4 5b be 47 58 07 be
       -0.12196746 -0.18429665 -0.21455638 -0.13217269
000340 c1 9a 39 be 5a 09 73 bc 80 f1 b5 3d 90 b5 00 bd
       -0.1812544 -0.014833773 0.08883953 -0.03142315
000350 95 04 62 3e 6b c4 79 be 1a 09 e1 3d ce 42 3c bd
       0.2207206 -0.24391334 0.10988064 -0.045962147
000360 42 b3 0e 3e f8 6c 5e 3e 96 dc fb 3d c3 f5 9e bd
       0.13935569 0.21721256 0.12297933 -0.07761719
000370 da b0 2b 3c 0a 62 c7 3c 3d 44 67 3e ad 6b e2 3d
       0.010479176 0.02433874 0.22584625 0.11055694
000380 38 6e 41 3e 04 19 a3 bc 9b 58 b2 3d 50 04 15 bd
       0.18889701 -0.01990939 0.087083064 -0.036381066
000390 bb 13 a7 bc 37 11 8d 3d cd 99 31 be 7e e6 b5 bd
       -0.02039515 0.06888049 -0.17343827 -0.088818535
0003a0 dd 7d 46 3d 61 a9 46 3e f8 ff 26 be 3b 48 8b bd
       0.048459876 0.1940055 -0.16308582 -0.06800886
0003b0 2b db c8 3d 97 ed 04 bd 5c 7c 4a 3d 14 5b 50 3e
       0.09807428 -0.032453146 0.049435005 0.20347244
0003c0 87 2e fb bd d0 21 80 3c be 7e d2 bc 63 7c ba 3c
       -0.12264734 0.015641123 -0.025695201 0.02276439
0003d0 e3 4b 87 3e fd 6d 40 bd fe 56 ab bc e9 c1 71 bd
       0.26425084 -0.046979893 -0.020915505 -0.059022818
0003e0 fe 7a ad be c0 76 27 be d6 80 bd 3a e1 a3 3c bd
       -0.33882898 -0.16353893 0.0014457952 -0.046054725
0003f0 f0 7f dd 3d fb 2c 1d 3e 97 c6 23 be 24 c9 3d 3d
       0.10815418 0.1534919 -0.15993725 0.0463344

network_body._body_endoder.seq_layers.2.bias f4 [128]
000000 8a da 5a bc 42 2e bc bb 4d 6f 1c 3d ea be 04 3d
       -0.013357768 -0.005742819 0.038192082 0.032408632
000010 57 97 ac 3c 28 ea 86 3c 11 cc 88 3b 1c 38 74 3c
       0.021068258 0.016469076 0.0041747172 0.014905956
000020 cc 7f 4b bc 55 15 56 3c 1d d4 63 3c ac bb 63 bc
       -0.012420606 0.013066609 0.013905552 -0.013899725
000030 53 f6 e7 3c fe fb 74 bc 8c fc 29 3c 8b aa 65 bc
       0.028315699 -0.014952658 0.010375153 -0.014017711
000040 50 77 8d bc 03 1a e5 3c e2 de 79 bc 4a 6f 46 bc
       -0.017268807 0.027966505 -0.015250893 -0.012111494
000050 ca f6 33 3c d8 a7 8a 3c 94 5b b9 ba c1 f9 ae bc
       0.010984132 0.016925737 -0.0014141672 -0.021359326
000060 3c 6e 9b bc eb 50 ad bb 0f fd c1 bc 2e 75 7c 3d
       -0.018973462 -0.005289187 -0.023680238 0.06163519
000070 fc 05 7f bc f5 18 a1 ba e8 a4 3e 3b 7b ed 61 3c
       -0.015565392 -0.0012290763 0.002908999 0.01378953
000080 93 aa e9 3c 44 a9 78 bc 5b ad 78 3c 5e 7b 84 bc
       0.028523719 -0.015177075 0.01517805 -0.016172107
000090 bc 99 32 3c b4 d7 c1 bb d4 05 fc 3c f6 52 7e 3d
       0.010900911 -0.0059156064 0.030764498 0.062090836
0000a0 8c 1e 35 3c 9e 0d 9e bc bd 91 67 3c 5c 3b 13 3c
       0.011054646 -0.019293603 0.014133868 0.00898632
0000b0 53 07 98 3c 21 2c 17 bc 08 97 44 3c e3 07 06 3c
       0.01855818 -0.00922683 0.011998899 0.008180591
0000c0 e1 f7 a6 3a 20 8f 62 bc 3c 5e 8c bc 06 bc af 3c
       0.0012738669 -0.013828069 -0.017134778 0.021451961
0000d0 b8 f8 8d bb 70 bf 60 3c 56 e4 56 3c de 4d de 3c
       -0.004332628 0.013717517 0.013115963 0.02713674
0000e0 50 b0 79 38 64 5d 10 3b f5 58 02 3d 82 31 39 bc
       5.953043e-05 0.0022028321 0.031823117 -0.0113033075
0000f0 66 dd 5a bc e3 32 4c bb b5 83 18 bc 6e 8b 74 bc
       -0.01335845 -0.003115826 -0.009308745 -0.014925821
000100 8b 5d 5e 3c da 8f 99 bc a1 26 61 bc c8 a9 4b 3c
       0.013572107 -0.018745352 -0.01374212 0.012430616
000110 2a d1 f2 3b a5 ac 8b 3c 36 a0 8d bc 74 ff 1b 3b
       0.007410188 0.017050097 -0.017288309 0.0023803385
000120 05 5f 04 3c 5f 2d 93 bc 51 2f ba bc b1 4d f2 39
       0.008079295 -0.01796597 -0.02272764 0.00046215722
000130 76 ab 00 3c 18 5f 07 bb f6 fc be 3c 82 79 83 3c
       0.0078533795 -0.0020656046 0.02331398 0.01604915
000140 05 50 eb b9 e9 d6 9d bb 54 77 9f bc f8 2f 1f bb
       -0.00044882312 -0.004816879 -0.01946608 -0.0024290066
000150 a9 66 cd ba 57 d9 36 3c b4 da 18 3d 8b 8d 09 bc
       -0.0015670854 0.011160216 0.037317947 -0.008395563
000160 e7 95 86 bc 64 d5 3d 39 83 54 9f ba 32 f3 87 bc
       -0.0164289 0.00018103939 -0.0012155924 -0.016595457
000170 7e ad d0 3b 1d fd 85 3c 6a 9f 99 bc d9 08 3d bc
       0.006368338 0.016356045 -0.018752772 -0.011537754
000180 32 47 a5 3c 50 9a 07 bc dc 63 f4 bb 1c 58 25 3c
       0.02017555 -0.008276537 -0.007458193 0.010091808
000190 c4 19 7f 3c da 08 eb bc 48 80 b3 bc 88 a0 78 bc
       0.015570108 -0.028690744 -0.021911755 -0.015174992
0001a0 3c bb 86 3c 6a 77 4f 3c a2 e1 63 bc 5d 63 9d 3c
       0.016446702 0.012662748 -0.0139087755 0.01921242
0001b0 11 39 86 bc 8a d8 e9 3b ef 94 9a 3c 6f ca 70 bb
       -0.016384633 0.007136409 0.018869845 -0.0036741754
0001c0 7d 34 1f bc af c3 40 bc 42 f1 98 bb 24 7c 8f bc
       -0.009717104 -0.011765405 -0.004667432 -0.01751525
0001d0 3b 81 6c 3c 3a 35 b6 bc 88 cf c8 3b fe 66 86 3c
       0.014435108 -0.022242177 0.0061282553 0.016406532
0001e0 f6 68 87 bc 2f b1 58 3c ec e3 59 3c da 6e 16 3b
       -0.016529541 0.013225838 0.01329897 0.0022954256
0001f0 f8 52 93 3c 3b f1 05 3d b4 a0 8f 3c 5a fd eb 3b
       0.017983899 0.03270076 0.017532684 0.0072018327

network_body._body_endoder.seq_layers.2.weight f4 [128, 128]
000000 f6 fa db bd b6 91 a0 3d d5 e1 17 bd d7 d3 18 3e
       -0.107412264 0.07840292 -0.037080605 0.1492456
000010 18 49 91 bc aa f4 86 bc fe 06 d1 3d f5 f3 44 3d
       -0.01773505 -0.016474087 0.10206412 0.048084218
000020 ed 4c 29 3c b9 f4 05 3d c4 51 09 be 3b ec 0e 3e
       0.010333282 0.03270409 -0.13410097 0.13957302
000030 90 cf cc 3c c2 78 42 3c 6b 5b fc bc 13 17 83 3c
       0.025001317 0.011869611 -0.03080531 0.016002214
000040 fc 33 e1 3c a1 48 0a 3c 7a be 27 3d 49 02 66 bc
       0.027490608 0.008440168 0.040953137 -0.014038631
000050 97 8a b7 3d 96 b3 f4 3d 41 12 c4 3d 84 2a 2d bc
       0.08961981 0.11948316 0.09573794 -0.010569219
000060 b0 d3 83 3d af 5a a1 3d 4a 04 7a 3d 84 b7 8b 3e
       0.064368606 0.07878625 0.061039247 0.2728845
000070 ca 44 0e 3d 95 78 08 3d ce 26 64 3c 33 ac 08 3e
       0.03473357 0.03331812 0.013925267 0.13346939
000080 a1 99 9d 3b e6 2b 70 be e0 7c a0 bd 57 16 45 bd
       0.0048095738 -0.23454246 -0.07836318 -0.048117008
000090 dc f2 27 3e f4 48 47 be 2c b9 b2 bd 04 3f aa bd
       0.16401237 -0.19461423 -0.08726725 -0.083128005
0000a0 6a 63 34 3d 0e 16 19 be 34 6e 4f 3a 4e f4 6b bd
       0.04404012 -0.1494982 0.0007912845 -0.057606034
0000b0 ca 36 81 bd ac 6a ca bb 07 e5 9c 3d 37 ea d4 bd
       -0.06309278 -0.006177267 0.07660871 -0.103962354
0000c0 5b 7c 22 3c 2f cd 17 3e 1d 4a 4b 3c 57 98 19 be
       0.009917344 0.14824365 0.012407807 -0.1499952
0000d0 df ed 99 bd ad d2 aa bd 4b cd 56 3d 9a 21 bc 3c
       -0.075160734 -0.083409645 0.052441876 0.022965241
0000e0 8e a7 fc bd af 19 af bc ca 71 0d be b8 94 f7 3b
       -0.12336646 -0.021374552 -0.13812938 0.0075555705
0000f0 d3 d8 db 3c af 0a b7 bd 45 a1 06 bd 58 5e 23 3e
       0.026836788 -0.089375846 -0.032868642 0.15953958
000100 6d c2 fe bd 66 19 64 3d 0e 2c cf bd bf 03 5c bd
       -0.124394275 0.055688284 -0.10115825 -0.05371451
000110 7b 30 cc bd 48 73 6a 3d 2c 9e fc bc 9c 85 35 3b
       -0.099701844 0.057238847 -0.030837141 0.0027698046
000120 74 f7 4a bd 9f 27 2d bd 8d 70 bd bd fe 11 13 3e
       -0.049552396 -0.042274114 -0.09249983 0.14362332
000130 2a d4 0b be a5 96 43 3d 91 90 37 bc 12 40 ad 3d
       -0.13655153 0.047751088 -0.011203901 0.08459486
000140 82 c0 07 be a2 dd 62 3d 62 29 f9 bd 94 4f 8e 3d
       -0.1325703 0.055387147 -0.12166096 0.06948772
000150 41 9a fd bd fb e8 bb 3d 37 0a d6 bd 3d 5f aa bc
       -0.12382937 0.09175297 -0.10451167 -0.020797366
000160 b9 4c cb bd 62 43 ca bd ae 96 e9 3d 70 d4 3f 3d
       -0.09926743 -0.098761335 0.11405693 0.046833456
000170 b7 04 0a 3c 4d fa 21 3e 05 6b 4e be fd 90 3e bc
       0.008423976 0.15818138 -0.20158012 -0.011631248
000180 dd 6c be bd 3b 50 c7 3d 50 ad 99 bc 53 8f 6a bd
       -0.09298108 0.097320996 -0.0187594 -0.05726559
000190 ba cd 20 3b 70 7c 37 3d 2a e5 d6 3b 96 05 c3 3d
       0.0024536685 0.044796407 0.00655808 0.0952255
0001a0 e9 f5 33 bc 69 e3 e9 3c bc 12 40 bc 4d 9c 9a 3d
       -0.0109839225 0.02855082 -0.011723217 0.07549343
0001b0 e9 ee d8 bd 2d f4 94 3c ea 7a 1a be b8 12 40 be
       -0.105924435 0.018182838 -0.1508595 -0.1875714
0001c0 70 7a f2 bd 6d 81 93 3d 23 17 c6 3c 14 93 1a bc
       -0.11839759 0.072024204 0.024180954 -0.00943448
0001d0 ed 77 c6 3d 9a 63 af 3d f6 3b 32 3e 79 d3 8a bd
       0.09690843 0.08563919 0.17405686 -0.067786165
0001e0 ce 89 10 3d 57 04 27 3e 4f 12 6a bd db b6 26 bd
       0.03528767 0.1631025 -0.057146367 -0.04070173
0001f0 a0 9e d8 3d e7 de 66 be 4f 71 72 bd 22 9c 89 bd
       0.1057713 -0.22545968 -0.05919009 -0.06719233
000200 af 9a 7f 3d bc fb 44 3d 2c 76 0e bc 9a 56 0d bd
       0.062403377 0.048091635 -0.008695167 -0.034506418
000210 9d d8 2f be 4e c5 10 be eb 47 da bd 08 3a fc bc
       -0.17172475 -0.14137766 -0.106582485 -0.03078939
000220 20 0c 92 bd 9b 6c cc ba 3c f5 d2 3d 87 6f 0b bd
       -0.07131219 -0.0015596332 0.10300681 -0.034041908
000230 94 9a f0 3c 8f ef 4f 3d 2d cb 2d be 6b 86 b4 bd
       0.029370584 0.05076557 -0.16972037 -0.08814701
000240 e4 0c 17 3d a4 8b 02 3d 45 9c 6e bd 38 91 b4 3d
       0.036877528 0.031871453 -0.0582545 0.08816761
000250 81 1f 69 bd 32 d7 b1 bc 0f 14 bf bc 9d ee b9 3c
       -0.05691481 -0.021709058 -0.023324994 0.022696787
000260 7e 93 d8 bd 08 c6 51 3d ff 8e bd 3d 8e db 61 3c
       -0.10575007 0.051214248 0.0925579 0.013785256
000270 a1 39 f1 3a ea 43 95 3d ff bc 3f bd 8f ce a1 3d
       0.0018404016 0.07288344 -0.0468111 0.07900726
000280 18 f8 cf 3d 37 e3 6a 3c d7 bc 27 bd c4 e6 17 be
       0.10154742 0.014336399 -0.040951576 -0.14834124
000290 76 ab 86 3d 77 6c 13 3d e0 7a 37 bd d0 7c 09 3d
       0.06575672 0.035992112 -0.044794917 0.033566296
0002a0 c0 9c a6 3d 77 02 6f 3d 84 76 69 bc 63 e0 a8 bc
       0.081353664 0.05835196 -0.014249448 -0.020614808
0002b0 4f cd a6 bc b4 06 ae bc a6 b0 e4 3d 9c 5d ac bd
       -0.02036157 -0.02124343 0.111665055 -0.08416292
0002c0 ce 40 c1 bc 97 f6 89 3c 86 c8 fb bc a7 a5 47 bd
       -0.023590472 0.016841216 -0.030735265 -0.048741963
0002d0 0c 87 e2 3d c6 35 bb 3a e0 7f 2e bd 13 da cb bc
       0.110609144 0.0014282994 -0.04260242 -0.02488426
0002e0 9d 0b 3f bd 1f 47 25 bd f0 30 ce 3c 4c 81 55 bb
       -0.046641935 -0.04035103 0.02516982 -0.0032578288
0002f0 5e b3 34 bd b7 56 60 bb da 72 d6 3d 49 34 9c bc
       -0.04411637 -0.0034231374 0.10471125 -0.0190679
000300 63 f4 55 be a2 fd 0f 3d 1d df 84 3b ef 37 c8 3c
       -0.20894007 0.035153992 0.0040549175 0.024440734
000310 8c 28 20 3d e8 8a 56 bd 2e 88 fa 3c b4 1f 37 3d
       0.03910117 -0.052378565 0.030582514 0.04470797
000320 b8 7e 2f 3c 3d af b2 3d b5 79 10 bd b9 da 38 3e
       0.010711364 0.0872483 -0.03527232 0.18052186
000330 01 b9 94 be 47 e2 18 3d ff 6c 6c 3d 25 08 32 bd
       -0.29047397 0.03732517 0.057721134 -0.0434648
000340 63 62 29 3e 8b b4 a3 3c 48 8b 26 3d 74 c0 50 be
       0.16541438 0.01998355 0.040660173 -0.20385915
000350 b7 fd 46 bd 83 68 fd 3d 7c 99 1c be 52 67 f1 bd
       -0.048581805 0.1237345 -0.15292925 -0.11787285
000360 ee d1 9d bb 4f 63 15 3e 82 e1 f8 3d c1 88 1e 3d
       -0.0048162853 0.14588664 0.12152387 0.038704637
000370 3d ee f8 bc 83 0c 2d be 37 be d9 3c 54 48 10 3d
       -0.030387038 -0.16899304 0.02657996 0.035225227
000380 ef d4 74 bc a3 ce c2 bd a3 ab 42 3d cc c9 8a 3d
       -0.014943345 -0.09512069 0.047526967 0.06776771
000390 d1 80 d9 38 61 f2 da bb 8f b5 80 3d 83 56 0e be
       0.0001037136 -0.006681726 0.062846296 -0.13900189
0003a0 54 a9 3d bd b9 c5 8d 3d ec 14 ce bc 2e f1 03 3e
       -0.046304062 0.06922478 -0.02515646 0.12884971
0003b0 10 ba 8e bd f6 67 26 3d 04 71 01 bc 6a aa b2 3d
       -0.06969082 0.04062649 -0.00790048 0.0872391
0003c0 47 98 b3 3d e2 54 15 3e ef c7 91 3c 23 2a 01 3d
       0.08769279 0.14583161 0.017795531 0.031534325
0003d0 da 3f 50 bc 46 60 28 bd ad f5 e7 3a da 5d d7 3c
       -0.012710536 -0.04110744 0.0017697118 0.02628987
0003e0 9e bc ab 3d 68 34 a1 3c 90 3d 25 bd d4 8d c7 3d
       0.08385585 0.01967831 -0.040341914 0.097438484
0003f0 b5 63 08 bd d4 74 28 bd 37 e4 8c bd b5 f3 d6 bd
       -0.033298213 -0.04112704 -0.06879466 -0.10495702
