NN/BasicAgent-Level2.onnx (onnx, 95028 bytes, 7 tensors)

action_model._continuous_distribution.log_sigma f4 [1, 2]
-0.23464258 -0.24610613
00000000: 2546 70be 3f03 7cbe

action_model._continuous_distribution.mu.bias f4 [2]
0.0036896379 0.035690386
00000000: dacd 713b 1530 123d

action_model._continuous_distribution.mu.weight f4 [2, 128]
0.042565443 -0.019253772 0.006226541 0.0398773 0.053586368 0.006153238 -0.009579787 0.065180436
0.034837414 0.021616492 -0.03476227 0.02751168 -0.011430037 -0.012963462 -0.034205407 0.017697776
0.025072891 0.0038360904 0.050812047 0.029477512 0.010536741 0.012561338 -0.08978977 0.033425163
-0.0341083 0.0004794694 -0.01089773 0.014132827 0.049309615 0.0067668143 -0.012024854 0.041694652
0.0036960375 0.018913211 -0.004432764 0.008504227 0.037192557 -0.013598155 0.013522097 -0.017851194
-0.035279103 0.027182411 -0.02883413 0.0078989 -0.0065932088 0.019812422 0.0013249584 -0.01932489
0.08650273 0.07324127 0.10268589 0.020590387 0.06958975 -0.008388877 -0.027778598 0.11924945
0.01299897 0.026397886 -0.024981275 0.0094139585 -0.035347927 0.008702499 0.0353876 0.059568014
-0.035899993 0.050397288 0.036775626 -0.0039543984 -0.009971025 -0.023437385 0.09978759 0.036983393
0.053573854 0.025859237 0.0070672594 0.007848803 -0.034070466 0.0375697 0.12836902 -0.014095298
-0.029014152 -0.00099982 -0.0036435202 0.068038285 0.022193864 -0.05597159 0.060452797 -0.013144923
4.061557e-05 -0.034648772 0.059356544 0.07785573 0.20537706 -0.009285525 -0.029938888 0.051723145
-0.012696384 0.026680306 0.009587496 -0.05927618 -0.045638885 -0.012887586 -0.02365513 0.027269736
0.02918494 -0.015676688 -0.02782469 0.027637204 0.023741346 0.06578624 -0.09432843 0.0054776347
0.034361117 -0.07445536 0.008087358 -0.029567987 0.004403408 0.00910598 -0.023302527 -0.03217329
0.015848322 0.028718593 -0.0048951586 -0.0034543248 -0.02379779 -0.02998944 0.034981303 -0.058041602
-0.11340102 -0.049056493 -0.04394295 0.021200215 0.007823817 0.013314592 -0.08033941 -0.038676456
0.05306625 -0.0122994995 0.09096135 -0.00037616733 -0.04332258 0.009047981 -0.052586142 0.043470778
-0.016418476 -0.010253275 -0.0008065966 0.121641 0.04604394 -0.009235307 -0.019834526 -0.1551466
0.044242203 0.028172474 0.01250701 -0.013307165 -0.028486658 -0.024265125 0.02403493 0.0041855075
-0.008283731 -0.01411973 0.020807033 0.04587262 -0.044723928 -0.13652803 0.01367763 -0.019260306
-0.07585016 -0.049515016 -0.036917523 -0.2065173 -0.0017163885 -0.09394293 0.008473009 -0.009947845
-0.060060035 -0.093100935 0.0676336 0.17212757 0.11473287 0.03049731 -0.0011717607 0.06963653
-0.031007366 0.03964968 0.08705491 -0.02218445 -0.017777761 0.0057984674 0.013073496 -0.028702721
-0.02308106 -0.013705279 0.006434781 0.04273101 -0.009327751 -0.0076783556 0.03426935 -0.02603357
-0.027860468 0.02515936 0.0007679851 0.017473841 -0.0066385637 0.004372322 -0.07080103 -0.00887995
0.017835552 0.0636527 -0.025815058 -0.07876799 0.010271451 0.035903282 0.022519337 -0.013348698
-0.1179131 -0.020532139 -0.043707177 -0.01697448 -0.081951834 0.0059634107 -0.011146829 -0.03438919
-0.0062937145 -0.09924846 0.0147067495 0.041160397 0.0096477745 0.004937466 0.10400268 0.0114788655
-0.001137226 -0.04633544 0.007258478 0.0051548006 -0.055499792 -0.047962602 -0.0015190857 -0.022488575
0.039262608 -0.1711544 -0.006920609 -0.023855831 -0.0071803494 -0.01587212 -0.04701639 0.055878315
0.005207649 -0.017952306 0.04871141 -0.018869245 0.04410832 -0.052071232 -0.0048764674 -0.011173595
00000000: 1a59 2e3d 16ba 9dbc 0308 cc3b 6156 233d
00000010: 617d 5b3d 1aa1 c93b 8af4 1cbc 527d 853d
00000020: adb1 0e3d 1215 b13c e262 0ebd 2d60 e13c
00000030: 0d45 3bbc b364 54bc f81a 0cbd edfa 903c
00000040: aa65 cd3c eb66 7b3b 4b20 503d d37a f13c
00000050: 4ca2 2c3c 12ce 4d3c b3e3 b7bd d3e8 083d
00000060: 25b5 0bbd 4b61 fb39 648c 32bc 5f8d 673c
00000070: e1f8 493d 27bc dd3b e503 45bc 03c8 2a3d
00000080: 3839 723b e1ef 9a3c b840 91bb 5055 0b3c
00000090: 3957 183d ccca 5ebc c98b 5d3c ab3c 92bc
000000a0: d280 10bd a6ad de3c 8e35 ecbc 636a 013c
000000b0: d80b d8bb a94d a23c 3aaa ad3a 3b4f 9ebc
000000c0: 5828 b13d 85ff 953d fb4c d23d 2cad a83c
000000d0: 1285 8e3d 8071 09bc f18f e3bc 0e39 f43d
000000e0: a2f9 543c 6140 d83c 88a5 ccbc 013d 1a3c
000000f0: fdc8 10bd ed94 0e3c 97f2 103d 97fd 733d
00000100: df0b 13bd 636d 4e3d 0aa2 163d e693 81bb
00000110: 835d 23bc c2ff bfbc 705d cc3d e67b 173d
00000120: 4270 5b3d c0d6 d33c 7894 e73b 4498 003c
00000130: 798d 0bbd b0e2 193d 2b73 033e f7ef 66bc
00000140: 16af edbc 640c 83ba 20c8 6ebb a857 8b3d
00000150: e8cf b53c 7742 65bd 5a9d 773d ce5d 57bc
00000160: a35a 2a38 dfeb 0dbd d91f 733d d372 9f3d
00000170: 5d4e 523e 5122 18bc 6642 f5bc a6db 533d
00000180: 7f04 50bc a890 da3c df14 1d3c 94cb 72bd
00000190: d7ef 3abd 7426 53bc 67c8 c1bc c864 df3c
000001a0: 4115 ef3c 666c 80bc 9bf0 e3bc 6b67 e23c
000001b0: 367d c23c f0ba 863d 442f c1bd bb7d b33b
000001c0: 3ebe 0c3d 0d7c 98bd d780 043c 9038 f2bc
000001d0: 774a 903b 4031 153c f1e4 bebc 24c8 03bd
000001e0: 57d4 813c 4143 eb3c 9167 a0bb f461 62bb
000001f0: 95f3 c2bc 6aac f5bc 8e48 0f3d 08bd 6dbd
00000200: cb3e e8bd 76ef 48bd 86fd 33bd 13ac ad3c
00000210: 782f 003c 7225 5a3c fd88 a4bd 346b 1ebd
00000220: ff5b 593d d783 49bc f249 ba3d 5338 c5b9
00000230: 0573 31bd fc3d 143c 9164 57bd 6a0e 323d
00000240: 0a80 86bc 5afd 27bc c871 53ba eb1e f93d
00000250: 9298 3c3d af4f 17bc 047c a2bc c0de 1ebe
00000260: 5037 353d f6c9 e63c 34ea 4c3c 4c06 5abc
00000270: da5c e9bc a8c7 c6bc e7e4 c43c 9526 893b
00000280: 7cb8 07bc 7156 67bc 8373 aa3c eee4 3b3d
00000290: 7030 37bd 01ce 0bbe 2318 603c cac7 9dbc
000002a0: 5457 9bbd 42d0 4abd d436 17bd 4579 53be
000002b0: 71f8 e0ba 2765 c0bd 60d2 0a3c 49fc 22bc
000002c0: 8301 76bd b4ab bebd 7c83 8a3d 3642 303e
000002d0: 11f9 ea3d 7fd5 f93c c495 99ba 999d 8e3d
000002e0: 2903 febc b467 223d d849 b23d 2abc b5bc
000002f0: aba2 91bc 1201 be3b 3732 563c f821 ebbc
00000300: 7e14 bdbc 1b8c 60bc dbda d23b b606 2f3d
00000310: 6cd3 18bc b79a fbbb 055e 0c3d 5a44 d5bc
00000320: a33b e4bc 011b ce3c 9c52 493a 4d25 8f3c
00000330: 4f88 d9bb b245 8f3b 2100 91bd 367d 11bc
00000340: dd1b 923c 595c 823d 1a7a d3bc 1d51 a1bd
00000350: 9749 283c 520f 133d 797a b83c 7fb4 5abc
00000360: 6c7c f1bd 0433 a8bc 4c06 33bd 110e 8bbc
00000370: 5dd6 a7bd b768 c33b 31a1 36bc aedb 0cbd
00000380: 813b cebb c742 cbbd 94f4 703c ce97 283d
00000390: b311 1e3c 77ca a13b 5bff d43d da11 3c3c
000003a0: f90e 95ba 3bca 3dbd 87d8 ed3b 9ae9 a83b
000003b0: c053 63bd 6f74 44bd 0f1c c7ba f639 b8bc
000003c0: d4d1 203d 1943 2fbe 47c6 e2bb 4e6d c3bc
000003d0: 2349 ebbb 4006 82bc 4294 40bd a9e0 643d
000003e0: eda4 aa3b b710 93bc 9e85 473d ad93 9abc
000003f0: edaa 343d a548 55bd c6ca 9fbb 7411 37bc

network_body._body_endoder.seq_layers.0.bias f4 [128]
0.0050940993 0.05443359 0.11651858 0.09156283 0.046328764 0.06319031 0.029763924 0.031993285
-0.066939585 -0.048445728 -0.0028820783 0.014362482 -0.051921584 0.080217496 0.003944506 0.0017589574
-0.026450928 0.07632112 -0.035646517 0.018055426 -0.01644105 -0.089861654 -0.023949038 -0.031491444
0.07084312 -0.022338832 -0.04984115 -0.008210566 0.0073089004 -0.00855121 -0.040531974 0.097943924
0.10035285 0.050551947 -0.014032464 0.05724067 -0.027420448 -0.012804214 -0.001563613 0.064974174
-0.031908877 0.10171767 0.04713195 -0.0827554 -0.0648124 0.012196195 -0.054832093 -0.038537834
-0.07191358 -0.08727802 -0.061163157 -0.093205735 -0.03421589 0.0024477595 -0.0063359467 -0.030324223
-0.08712329 0.05160502 -0.041958347 -0.01952458 -0.015144166 -0.0148733305 0.070337154 0.0042161555
-0.042216253 -0.09334343 0.07935853 -0.029575652 0.034519956 -0.014312977 -0.09877532 -0.09231523
0.021960031 -0.021879613 0.023200758 0.009619073 -0.01663201 0.07029334 0.0279386 -0.013206986
0.08896346 0.05370271 -0.013524728 0.09650256 0.005982572 -0.012562265 -0.02934137 0.015001282
-0.042484652 0.10186767 -0.04526174 -0.06182116 -0.07263123 -0.0067770123 0.013204378 -0.036144286
-0.023781238 -0.029906433 -0.007824989 0.10997015 0.11278535 -0.018520657 0.09033556 -0.014829633
-0.07709043 0.0071162824 0.054995596 -0.0217433 0.060473494 0.12160706 -0.1028048 0.13623616
-0.015952481 0.001543922 -0.02068739 -0.045991894 0.09538729 -0.04021353 -0.07552215 0.024062486
-0.037750974 0.07600052 0.064339735 -0.046566382 0.04088291 0.016503694 -0.024426753 -0.0925853
00000000: 67ec a63b c2f5 5e3d 4ba1 ee3d 4b85 bb3d
00000010: 3bc3 3d3d ec69 813d 79d3 f33c 640b 033d
00000020: 9f17 89bd 076f 46bd 40e1 3cbb 9e50 6b3c
00000030: baab 54bd 1249 a43d ea40 813b d18c e63a
00000040: 9eaf d8bc 3f4e 9c3d 1502 12bd f9e8 933c
00000050: 62af 86bc 6309 b8bd c630 c4bc 2cfd 00bd
00000060: 3316 913d edff b6bc 3c26 4cbd 9c85 06bc
00000070: 807f ef3b 601a 0cbc db04 26bd d396 c83d
00000080: cc85 cd3d 8f0f 4f3d 6be8 65bc 3175 6a3d
00000090: d9a0 e0bc c4c8 51bc 25f2 ccba 2e11 853d
000000a0: e2b2 02bd 5b51 d03d 6e0d 413d aa7b a9bd
000000b0: 5dbc 84bd 8dd2 473c 9e97 60bd d9d9 1dbd
000000c0: 6d47 93bd d2be b2bd 3886 7abd a6e2 bebd
000000d0: f625 0cbd 976a 203b c69d cfbb 816a f8bc
000000e0: b26d b2bd c95f 533d 84dc 2bbd 03f2 9fbc
000000f0: 3c1f 78bc 45af 73bc ed0c 903d ad27 8a3b
00000100: f3ea 2cbd d72a bfbd ba86 a23d a348 f2bc
00000110: cc64 0d3d fa80 6abc b74a cabd c40f bdbd
00000120: 86e5 b33c e03c b3bc 840f be3c 5199 1d3c
00000130: da3f 88bc f4f5 8f3d 7edf e43c 1d62 58bc
00000140: 7932 b63d 5ff7 5b3d d296 5dbc 22a3 c53d
00000150: 7409 c43b f5d1 4dbc 505d f0bc f0c7 753c
00000160: 6304 2ebd ff9f d03d 6064 39bd 2f38 7dbd
00000170: afbf 94bd b311 debb 2d57 583c 080c 14bd
00000180: dfd0 c2bc 56fe f4bc 6234 00bc 0838 e13d
00000190: 01fc e63d a2b8 97bc da01 b93d fdf7 72bc
000001a0: 96e1 9dbd b42f e93b 1043 613d 011f b2bc
000001b0: 0eb3 773d 1f0d f93d 538b d2bd 7e81 0b3e
000001c0: c7ae 82bc 6d5d ca3a 9a78 a9bc ff61 3cbd
000001d0: 695a c33d f1b6 24bd 5bab 9abd b11e c53c
000001e0: c4a0 1abd 29a6 9b3d 8dc4 833d 64bc 3ebd
000001f0: d774 273d c132 873c 9d1a c8bc 5d9d bdbd

network_body._body_endoder.seq_layers.0.weight f4 [128, 50]
0.05985681 -0.105244584 0.03182545 -0.05915201 -0.2674492 -0.026832983 0.13955246 0.21312338
-0.13193181 -0.44572592 -0.17195235 -0.2109197 0.0672826 -0.20444788 0.2781213 0.33076057
0.09592267 -0.21281753 0.010643597 -0.15021746 0.046502035 0.32814512 -0.16675223 -0.065329716
0.0019000687 -0.017221794 -0.058699474 0.008334774 -0.10802647 -0.01834021 0.0025551256 0.5236606
-0.103223845 0.10669677 0.018268786 -0.114840575 0.17832132 -0.06522651 0.014141364 -0.06130192
0.12031155 -0.046855137 -0.03153324 -0.11938269 0.11003642 1.2386621e-05 0.14398107 -0.5489917
0.2944168 0.19210032 -0.046798754 0.18716578 0.19032958 -0.23145139 -0.013977603 0.047665574
0.08982133 0.33796906 0.14478454 0.101446785 0.11984783 0.09885795 -0.06308961 0.20797373
-0.044631466 0.18754692 0.005408878 0.00207928 -0.14764307 0.107195586 0.051323287 0.30100575
-0.075782925 0.08809186 0.22208984 0.17771731 0.0736284 -0.07494501 -0.077752024 0.12743177
0.14712462 0.17122155 0.058398113 -0.16263509 -0.11452482 -0.031481978 0.0087516485 -0.0011946891
-0.07838527 0.07738141 0.06268932 -0.21327247 -0.21873161 -0.25369787 -0.019831954 0.15360117
-0.103639446 0.18420555 0.039090827 0.19869825 0.1301253 -0.22816601 -0.016458467 0.3391784
0.21131045 -0.1905154 -0.0055862186 -0.08085904 0.20412524 0.10123147 -0.042265058 0.0027326576
0.16485964 -0.11222464 -0.06739363 0.09259288 -0.09630097 0.28115726 0.07994638 0.07181905
0.041062534 0.021713842 -0.3116259 0.10636066 0.28680333 0.31192932 -0.03288179 0.10414608
0.29858875 -0.19629842 0.18636075 0.38638365 0.19745827 0.04399603 0.12896322 0.3015066
0.16981214 -0.15422942 -0.12628509 0.0026493454 0.16157272 0.22573578 -0.05786239 0.14330105
0.06813463 -0.14173135 -0.0076567964 -0.24150902 0.15637445 -0.091131 0.0268589 0.02999678
0.25355867 0.09167933 0.19627105 -0.052266214 0.09988896 0.22678335 0.1573288 0.40418315
0.37212634 0.35573262 0.20140152 0.1820447 0.10342874 0.0970469 -0.0995099 0.27524328
-0.15542579 0.26637524 0.1526496 -0.35786405 -0.1721621 0.065621965 -0.009536699 0.16037741
-0.1222677 0.072853945 0.32196316 -0.12956953 -0.01617402 0.00031864332 0.32309923 -0.2558868
0.15032592 0.20778057 0.03963661 -0.2491387 0.33632177 0.16649562 -0.0636649 -0.31148344
0.09913754 -0.01379507 -0.109840274 -0.022466015 -0.04986406 -0.104131654 -0.0621465 -0.029559407
0.19154665 -0.17255633 -0.13262948 -0.031447783 -0.030126313 0.013861921 0.16382441 0.017758276
-0.08095797 -0.16093162 -0.016477387 -0.21828285 -0.18909346 0.346552 0.04831722 0.21994737
-0.04618097 -0.33952966 -0.06477312 -0.19909799 -0.092517324 0.2588519 0.16391909 0.054168098
0.01283161 -0.075006075 -0.24161097 -0.17942886 -0.2845567 0.3874999 0.07818105 0.17379378
0.13268821 -0.19546328 -0.13672419 -0.26508272 0.30821335 0.014514953 0.14232475 0.067754164
0.08954684 -0.0047281478 0.04679746 0.05730425 0.253324 0.11591636 -0.14004596 0.162138
0.0064238845 -0.10060079 0.011718087 0.26973286 -0.04226191 -0.015738215 -0.094102204 0.35566357
00000000: 6a2c 753d 798a d7bd 675b 023d 6149 72bd
00000010: 1aef 88be d8d0 dbbc d7e6 0e3e 043d 5a3e
00000020: 2219 07be 3036 e4be 4714 30be 55fb 57be
00000030: 76cb 893d c95a 51be ea65 8e3e 7359 a93e
00000040: 1b73 c43d d7ec 59be 7b62 2e3c 9bd2 19be
00000050: eb78 3e3d a302 a83e 19c1 2abe 96cb 85bd
00000060: ba0b f93a b814 8dbc dc6e 70bd 938e 083c
00000070: fb3c ddbd 353e 96bc e573 273b 9f0e 063f
00000080: 0667 d3bd d683 da3d 6ca8 953c 8931 ebbd
00000090: dd99 363e 7a95 85bd 2eb1 673c b917 7bbd
000000a0: e765 f63d 2ceb 3fbd 0029 01bd e97e f4bd
000000b0: c65a e13d 22d0 4f37 c66f 133e b88a 0cbf
000000c0: ccbd 963e f2b5 443e 0db0 3fbd 63a8 3f3e
000000d0: c2e5 423e 9801 6dbe 5102 65bc fa3c 433d
000000e0: 3ff4 b73d 480a ad3e 6642 143e 55c3 cf3d
000000f0: c772 f53d 0976 ca3d 2035 81bd 11f7 543e
00000100: 7ccf 36bd 4d0c 403e f53c b13b 8844 083b
00000110: bf2f 17be 5c89 db3d 5e38 523d 6d1d 9a3e
00000120: 1434 9bbd 8169 b43d 856b 633e 87fb 353e
00000130: 7dca 963d c57c 99bd 743c 9fbd 797d 023e
00000140: d6a7 163e b454 2f3e dc32 6f3d d089 26be
00000150: fd8b eabd 3ff3 00bd 1363 0f3c 1d97 9cba
00000160: 7588 a0bd 257a 9e3d 4263 803d 1964 5abe
00000170: 2efb 5fbe b0e4 81be 9f76 a2bc a049 1d3e
00000180: eb40 d4bd 61a0 3c3e b41d 203d 8e77 4b3e
00000190: 913f 053e 5aa4 69be e8d3 86bc cba8 ad3e
000001a0: c461 583e 7816 43be 990c b7bb 6d99 a5bd
000001b0: 3506 513e 7252 cf3d 201e 2dbd 6316 333b
000001c0: f7d0 283e 08d6 e5bd ac05 8abd 56a1 bd3d
000001d0: 7139 c5bd d8f3 8f3e edba a33d de15 933d
000001e0: 3031 283d 3ae1 b13c 6e8d 9fbe 9ed3 d93d
000001f0: e3d7 923e 33b5 9f3e 0eaf 06bd 8a4a d53d
00000200: a0e0 983e 7402 49be 5ad5 3e3e 14d4 c53e
00000210: 8032 4a3e 2e35 343d ef0e 043e 135f 9a3e
00000220: 3ce3 2d3e 51ee 1dbe e150 01be a4a0 2d3b
00000230: 5273 253e 4827 673e 1d01 6dbd 83bd 123e
00000240: 2b8a 8b3d 0622 11be dde5 fabb 244e 77be
00000250: a020 203e e4a2 babd 3207 dc3c cfbb f53c
00000260: 71d2 813e 5fc2 bb3d 47fb 483e 1915 56bd
00000270: 9592 cc3d e539 683e cd1a 213e 18f1 ce3e
00000280: 5887 be3e 9622 b63e 333c 4e3e ed69 3a3e
00000290: 72d2 d33d 86c0 c63d d9cb cbbd b0ec 8c3e
000002a0: f027 1fbe 5662 883e 2d50 1c3e f539 b7be
000002b0: 434b 30be cf64 863d d13f 1cbc fa39 243e
000002c0: 7d67 fabd 7334 953d 5bd8 a43e e0ad 04be
000002d0: 617f 84bc 950f a739 436d a53e 9803 83be
000002e0: 0aef 193e 6ec4 543e ff59 223d 371e 7fbe
000002f0: 5e32 ac3e d47d 2a3e be62 82bd c27a 9fbe
00000300: 9f08 cb3d b804 62bc f0f3 e0bd a60a b8bc
00000310: 423e 4cbd fa42 d5bd 548d 7ebd 9226 f2bc
00000320: ce24 443e 9bb2 30be 06d0 07be 64cf 00bd
00000330: 75cb f6bc 1c1d 633c 96c1 273e ce79 913c
00000340: 4bcd a5bd 42cb 24be 96fb 86bc 8a85 5fbe
00000350: b7a1 41be 446f b13e 47e8 453d e239 613e
00000360: 4228 3dbd d5d6 adbe c5a7 84bd 58e0 4bbe
00000370: b979 bdbd 3c88 843e 68da 273e 5edf 5d3d
00000380: ac3b 523c c99c 99bd de68 77be 33bc 37be
00000390: 6ab1 91be 6366 c63e 631d a03d fff6 313e
000003a0: 6bdf 073e 8727 48be 6d01 0cbe ecb8 87be
000003b0: 24ce 9d3e 20d0 6d3c 94bd 113e b2c2 8a3d
000003c0: 5564 b73d 94ee 9abb b2ae 3f3d dcb7 6a3d
000003d0: afb3 813e 8e65 ed3d 3568 0fbe 8107 263e
000003e0: 737f d23b c907 cebd 38fd 3f3c 6d1a 8a3e
000003f0: d31a 2dbd 6eed 80bc a8b8 c0bd 8919 b63e

network_body._body_endoder.seq_layers.2.bias f4 [128]
0.07105361 0.017577285 -0.054345213 0.016208882 0.0033980892 0.0427085 0.021565974 0.06509427
-0.06524333 0.04995226 0.075339 -0.010376353 0.02701452 -0.024121413 -0.037771925 0.103300914
-0.0049178 -0.035895333 0.014788806 -0.08580981 0.046805456 -0.050597653 -0.056610223 0.12653378
0.027925765 0.027622784 0.016392337 -0.045058083 0.012488523 -0.050939232 0.021297839 -0.064033054
-0.044168036 -0.017817808 0.044305444 0.038880378 0.058723833 -0.06921692 0.043837506 -0.02576611
0.01207049 -0.03655485 -0.018835237 0.07974804 -0.021351388 0.08514156 0.022992471 -0.030891327
0.0665024 0.09224701 0.10501035 -0.032164425 -0.050890412 0.014452398 -0.009469002 0.07140811
-0.026949065 0.06684224 -0.10908499 -0.04099231 0.03154097 0.019848906 -0.0067809196 -0.016729401
-0.015004287 0.008073189 0.011871295 0.08773918 -0.006146578 -0.022409514 -0.07809442 -0.029743414
-0.03301782 0.048244715 -0.00780681 -0.040255416 -0.012324302 0.018776461 0.124939084 -0.03750334
-0.013958835 0.074189164 0.02479215 0.08111126 0.03543769 0.015005188 0.12596923 -0.03421666
0.043848448 -0.001927646 -0.013721516 0.048926104 0.1623239 0.011852334 -0.020293897 -0.03446948
0.002134919 -0.04858611 0.03933299 0.031587537 0.02030279 -0.02727749 -0.10600819 0.009936148
-0.0050551677 -0.032600068 0.004941547 0.027897302 -0.054783158 -0.03512007 -0.018950287 0.02648682
0.03163957 0.10208155 -0.01969168 0.013017783 0.00091085734 -0.030307952 0.027992949 0.046952292
-0.02775381 0.004477584 0.04625019 -0.03341936 0.058386113 -0.07239312 0.01169716 -0.0026051549
00000000: 8e84 913d 3dfe 8f3c 1699 5ebd 7dc8 843c
00000010: 7ab2 5e3b 1cef 2e3d 20ab b03c 2550 853d
00000020: 4c9e 85bd be9a 4c3d 554b 9a3d 9401 2abc
00000030: 8e4d dd3c 459a c5bc bcb6 1abd 6e8f d33d
00000040: 7f25 a1bb fc06 13bd c04c 723c 0ebd afbd
00000050: 14b7 3f3d 7c3f 4fbd 1fe0 67bd 1292 013e
00000060: 93c4 e43c 2d49 e23c 3949 863c d38e 38bd
00000070: a99c 4c3c a8a5 50bd ce78 ae3c c323 83bd
00000080: 8be9 34bd a7f6 91bc a079 353d 0841 1f3d
00000090: 6788 703d 9ac1 8dbd f58e 333d 7313 d3bc
000000a0: 4ec3 453c 8aba 15bd 5b4c 9abc f152 a33d
000000b0: 1be9 aebc b35e ae3d b55a bc3c cf0f fdbc
000000c0: 6932 883d 00ec bc3d ab0f d73d d8be 03bd
000000d0: 7772 50bd c0c9 6c3c df23 1bbc 6a3e 923d
000000e0: 49c4 dcbc 96e4 883d f467 dfbd 8de7 27bd
000000f0: 1b31 013d 2c9a a23c 7a32 debb 190c 89bc
00000100: 8ad4 75bc 6945 043c d27f 423c 99b0 b33d
00000110: 3c69 c9bb 2894 b7bc f8ef 9fbd 76a8 f3bc
00000120: b23d 07bd 409c 453d 45d0 ffbb dde2 24bd
00000130: dfeb 49bc 18d1 993c 10e0 ff3d 1a9d 19bd
00000140: 99b3 64bc 7df0 973d e818 cb3c a91d a63d
00000150: 1c27 113d 52d8 753c 14fe 003e c526 0cbd
00000160: 6e9a 333d 11a9 fcba 36d0 60bc bd66 483d
00000170: 3d38 263e 4b30 423c 633f a6bc df2f 0dbd
00000180: ffe9 0b3b 3b02 47bd a11b 213d ef61 013d
00000190: 0952 a63c 0b75 dfbc d21a d9bd 3acb 223c
000001a0: d2a5 a5bb a687 05bd b3ec a13b e288 e43c
000001b0: 4e64 60bd 10da 0fbd a23d 9bbc e3fa d83c
000001c0: 7e98 013d 2210 d13d 7250 a1bc 8a48 553c
000001d0: 9ac6 6e3a 6248 f8bc 7851 e53c 0c51 403d
000001e0: f55b e3bc b2b8 923b d770 3d3d bde2 08bd
000001f0: 4726 6f3d d842 94bd 72a5 3f3c 3fbb 2abb

network_body._body_endoder.seq_layers.2.weight f4 [128, 128]
0.097836725 0.12530623 -0.029076941 -0.0039678602 0.18415084 -0.08735349 -0.011006198 -0.050214667
-0.18280333 0.038528893 -0.16825189 -0.020259473 -0.15873092 0.11317531 0.02889436 0.025214165
0.021482563 -0.021737454 -0.061187793 -0.042751603 0.1706264 -0.084781356 -0.081181616 -0.03747834
-0.01311353 -0.04120112 -0.07787166 0.0010102404 0.16827795 -0.0022854665 0.035668783 0.07783028
-0.10000578 0.12560664 -0.008566618 -0.011852252 0.18886071 -0.05006731 -0.15893422 0.060964756
0.05686758 -0.02050553 -0.008336005 0.054526795 -0.027065935 -0.2014608 -0.09007846 -0.03935144
-0.0020025636 -0.025134861 -0.038492136 0.0054976195 -0.050934494 -0.2029756 -0.060483884 0.11979343
0.018396314 -0.05991795 0.007868573 -0.20643573 0.06592349 0.1023683 0.037308943 -0.006208337
-0.01766941 0.10802268 -0.027643181 0.060686585 0.075093634 0.10444375 0.009099735 -0.1181565
0.06397849 0.0040123025 0.12522572 -0.030835742 -0.030035166 0.12869287 -0.025918016 0.004611082
-0.1944949 0.09176091 -0.021854801 -0.03624831 -0.1388514 -0.115943104 -0.009999661 -0.047054116
0.081138074 0.07812811 -0.12365823 -0.017711658 -0.21432792 -0.18123671 0.0659773 -0.01998588
0.073664755 0.08492272 0.043225765 0.015365353 0.10629512 -0.14417258 -0.017315676 0.020660311
-0.0031535423 -0.059567902 0.002728989 -0.18043065 0.07675094 0.029092114 -0.18283328 0.022673063
-0.08870364 0.0438102 -0.07356633 -0.07531447 -0.0028104128 -0.064243115 -0.008099497 0.10287095
-0.041821502 -0.083765514 -0.06392139 0.021952797 0.070117354 0.03833626 0.008145401 -0.20867266
0.006088688 0.11189067 -0.05501064 -0.06416477 -0.16904081 0.0062149107 -0.038060725 0.251349
0.04366136 -0.014261856 -0.024481293 -0.010712806 0.03221081 0.28270912 -0.08967168 0.00079521764
-0.12320031 -0.014213525 0.09159171 -0.18673629 -0.22557266 0.031965163 -0.023982272 -0.037747998
0.06862687 -0.17807952 -0.14414583 -0.19102243 0.13881066 -0.19634858 -0.106726706 -0.034803312
-0.06718884 0.12656567 -0.14744715 0.07330794 -0.014345814 -0.0879219 -0.08441719 -0.030054716
-0.13137169 0.0491017 -0.06608225 -0.01882036 0.05353841 -0.050026555 -0.2189451 -0.059147578
0.00481387 -0.10660518 -0.11320307 -0.02597904 0.097270526 -0.00053448667 -0.14154579 -0.03677321
-0.05968723 -0.11178612 -0.07294434 0.095407695 0.017946312 -0.05385268 0.006523926 0.020718802
-0.18723719 -0.10229208 -0.07399674 -0.24451375 -0.13119216 -0.009926033 0.04293708 -0.04280135
-0.00467432 -0.112406544 -0.09799328 -0.043345246 0.010257578 -0.004165925 0.2280431 0.090759754
-0.013918574 0.14961031 0.02738213 -0.1309306 -0.049469408 0.01718931 0.09639607 0.11807074
-0.010817735 -0.29152882 -0.12780043 0.10398936 -0.11502115 -0.16675569 0.014432796 0.088379316
-0.0769769 -0.0614412 0.022504522 0.016433412 -0.057885803 0.10265729 0.13215274 0.07019654
-0.07442289 0.12425013 0.04242986 0.041784633 -0.010044058 -0.20468114 -0.038830373 0.010662569
0.026995465 -0.018359287 -0.081036106 -0.003513588 0.010724476 -0.10655736 0.0013830168 -0.14010678
0.17546539 0.011843424 -0.037223946 -0.049548842 0.020951781 0.03737237 -0.07119373 -0.07602626
00000000: 9f5e c83d 4750 003e c432 eebc d304 82bb
00000010: 0a92 3c3e 63e6 b2bd 5753 34bc e5ad 4dbd
00000020: cc30 3bbe 79d0 1d3d 394a 2cbe 32f7 a5bc
00000030: 5c8a 22be 75c8 e73d ddb3 ec3c f08d ce3c
00000040: 33fc af3c bf12 b2bc 0da0 7abd 4e1c 2fbd
00000050: b0b8 2e3e d9a1 adbd 8c42 a6bd e382 19bd
00000060: 22da 56bc 81c2 28bd 2d7b 9fbd 0b6a 843a
00000070: 0e51 2c3e c4c7 15bb 6e19 123d 7b65 9f3d
00000080: d5cf ccbd 079f 003e 005b 0cbc f32f 42bc
00000090: b464 413e 6113 4dbd a7bf 22be 2eb6 793d
000000a0: fbed 683d 37fb a7bc bd93 08bc 7d57 5f3d
000000b0: 61b9 ddbc bd4b 4ebe 0e7b b8bd fa2e 21bd
000000c0: 713d 03bb a0e7 cdbc eea9 1dbd 6025 b43b
000000d0: b0a0 50bd d6d8 4fbe f3bd 77bd 4256 f53d
000000e0: deb3 963c 866c 75bd 30eb 003c e363 53be
000000f0: e502 873d 79a6 d13d 43d1 183d 4e6f cbbb
00000100: 70bf 90bc ff3a dd3d f473 e2bc 7f92 783d
00000110: b1ca 993d 9be6 d53d 0e17 153c 09fc f1bd
00000120: 2807 833d a279 833b 2c3b 003e 3d9b fcbc
00000130: 4f0c f6bc 10c8 033e 0552 d4bc 8f18 973b
00000140: ac29 47be 25ed bb3d d708 b3bc 1c79 14bd
00000150: 102f 0ebe 9473 edbd 9ed5 23bc d1bb 40bd
00000160: b82b a63d a101 a03d 8740 fdbd 0a18 91bc
00000170: c778 5bbe 1e96 39be 1b1f 873d 6eb9 a3bc
00000180: 8cdd 963d f7eb ad3d 800d 313d f6be 7b3c
00000190: 42b1 d93d faa1 13be 9bd9 8dbc d03f a93c
000001a0: a9ab 4ebb 79fd 73bd d7d8 323b d0c2 38be
000001b0: 992f 9d3d 9652 ee3c a638 3bbe dcbc b93c
000001c0: 41aa b5bd 5372 333d f2a9 96bd 793e 9abd
000001d0: e72e 38bb e591 83bd c1b3 04bc 01ae d23d
000001e0: 064d 2bbd 418d abbd 38e9 82bd 5ad6 b33c
000001f0: b099 8f3d 7b06 1d3d 4a74 053c 49ae 55be
00000200: 9e83 c73b f026 e53d d652 61bd d268 83bd
00000210: 0919 2dbe 73a6 cb3b 90e5 1bbd d1b0 803e
00000220: 41d6 323d 8faa 69bc fe8c c8bc c484 2fbc
00000230: 7bef 033d 40bf 903e c9a5 b7bd 2776 503a
00000240: 7250 fcbd d8df 68bc 6f94 bb3d cc37 3fbe
00000250: 85fc 66be e7ed 023d 7876 c4bc a59d 1abd
00000260: 3f8c 8c3d 7a5a 36be f79a 13be 629b 43be
00000270: 6224 0e3e 9a0f 49be 8893 dabd eb8d 0ebd
00000280: 4d9a 89bd 6e9a 013e 63fc 16be 7922 963d
00000290: b40a 6bbc 6610 b4bd ebe2 acbd 4f35 f6bc
000002a0: 4d86 06be dd1e 493d 2156 87bd 282d 9abc
000002b0: 184b 5b3d a5e8 4cbd 2533 60be bb44 72bd
000002c0: abbd 9d3b d153 dabd 03d7 e7bd ffd1 d4bc
000002d0: c535 c73d cb1c 0cba 61f1 10be 819f 16bd
000002e0: 997a 74bd 1ff0 e4bd d863 95bd 1c65 c33d
000002f0: 2504 933c a194 5cbd a8c6 d53b 7aba a93c
00000300: 1bbb 3fbe 837e d1bd 9a8b 97bd d061 7abe
00000310: 3d57 06be cda0 22bc cbde 2f3d 7850 2fbd
00000320: 0a2b 99bb 6735 e6bd b3b0 c8bd c98a 31bd
00000330: 670f 283c 5082 88bb 2184 693e 40e0 b93d
00000340: bb0a 64bc 7233 193e 7d50 e03c ac12 06be
00000350: 6fa0 4abd 99d0 8c3c 4e6b c53d 12cf f13d
00000360: df3c 31bc 4443 95be 1ede 02be 60f8 d43d
00000370: 3590 ebbd 01c2 2abe 8977 6c3c 3700 b53d
00000380: 11a6 9dbd c5a9 7bbd 675b b83c 5d9f 863c
00000390: aa19 6dbd fc3d d23d 0c53 073e 34c3 8f3d
000003a0: 076b 98bd da76 fe3d efca 2d3d 5d26 2b3d
000003b0: d58f 24bc ef97 51be 990c 1fbd 0eb2 2e3c
000003c0: 9825 dd3c 3766 96bc 42f6 a5bd 3a44 66bb
000003d0: b6b5 2f3c bf3a dabd 5846 b53a 2778 0fbe
000003e0: 33ad 333e ec0a 423c 2378 18bd baf3 4abd
000003f0: 12a3 ab3c c513 193d 05ce 91bd a8b3 9bbd
